results/direct_cnn_mlp_lat32_mFalse_ipmFalse_res18_vps2_fidmFalse_ffdmFalse_cnn-1-2000.pth (torch, 358354 bytes, 62 tensors)

conv.0.weight f4 [16, 6, 3, 3]
0	0xbd10090a	-0.03516487
1	0x3e1f9f93	0.15588216
2	0xbda97fa4	-0.08276299
3	0x3d8ef292	0.0697986
4	0xbd56f8b7	-0.052483287
5	0x3d5a943b	0.05336402
6	0x3ce3a5b4	0.027788974
7	0xbd42f828	-0.04759994
8	0x3d818abc	0.063252896
9	0x3d87052c	0.06592783
10	0x3e1e0dc5	0.1543494
11	0x3c8366f2	0.0160403
12	0xbdbd7acb	-0.092519365
13	0x3e17c55b	0.14821379
14	0x3dfc76d2	0.12327351
15	0x3d192a21	0.037393693
16	0x3ddf7972	0.10911836
17	0x3da4aad4	0.080403954
18	0xbc93c9e2	-0.018040601
19	0x3d386697	0.045019712
20	0x3dc0f1d6	0.094211265
21	0x3dfe13e1	0.12406135
22	0x3dfd2d9a	0.123622134
23	0x3d33eb0d	0.043925334
24	0xba35b0a7	-0.00069309253
25	0xbda45d07	-0.08025556
26	0xbdc7dcea	-0.09758933
27	0x3d05ec65	0.032696147
28	0x3ddaad49	0.10677583
29	0x3d892647	0.06696754
30	0xbdc3aefc	-0.0955486
31	0xbe052d65	-0.13005598
32	0x3de84b5f	0.11342501
33	0xbdec8dfd	-0.115505196
34	0xbc75b752	-0.01499732
35	0xbd81acef	-0.063318126
36	0x3dc90b3d	0.09816597
37	0xbd0a2e51	-0.033735577
38	0xbd549fc2	-0.05191017
39	0xbd005a71	-0.03133625
40	0xbd70175d	-0.05861603
41	0x3d8a8c38	0.06765026
42	0xbb735bdc	-0.003713361
43	0xbd360f0e	-0.04444795
44	0x3cc79ec9	0.024367707
45	0xbdf6b92b	-0.12047037
46	0xbd25ca57	-0.04047617
47	0x3bf939f8	0.0076057874
48	0x3dea2e3d	0.114346005
49	0x3d6279cd	0.05529194
50	0x3d8e3c93	0.06945147
51	0xbdada013	-0.08477797
52	0xbda36a80	-0.07979298
53	0xbdd946e0	-0.106092215
54	0x3d01ec2d	0.031719375
55	0x3d658db8	0.056043357
56	0x3d02d863	0.031944644
57	0xbe0291a5	-0.12750871
58	0x3dddc6de	0.108289465
59	0xbddcd890	-0.107834935
60	0x3d8d5d7c	0.06902596
61	0xbceb7646	-0.02874292
62	0xbd234ab1	-0.039866153
63	0xbd066e6d	-0.032820154
64	0x3d809fb1	0.06280459
65	0xbc2e0f57	-0.0106237745
66	0xbc2ae51a	-0.010430599
67	0x3d20c6a3	0.039251935
68	0xbd019de7	-0.031644728
69	0xbdb67563	-0.089091085
70	0x3e2ead8d	0.17058392
71	0x3e22c6a9	0.15896095
72	0xbc4567a1	-0.012048633
73	0xbd33e752	-0.043921776
74	0xbdc7e3e1	-0.09760261
75	0x3d79045e	0.06079518
76	0xbda13ab0	-0.07872522
77	0xbdd396a8	-0.1033147
78	0x3e180122	0.14844182
79	0x3e399506	0.18123254
80	0x3d9ae23a	0.075626805
81	0xbb266e9f	-0.0025395525
82	0xbc2725a8	-0.010201849
83	0x3def884c	0.116959184
84	0x3e20a6c3	0.15688615
85	0x3decf409	0.115699835
86	0xbdc3a116	-0.09552209
87	0x3e1f89a2	0.15579847
88	0xbccd1ce9	-0.0250382
89	0x3dc71240	0.09720278
90	0x3e09ce7e	0.13457677
91	0xbce30ade	-0.027715143
92	0x3dbb5192	0.09146418
93	0xbda3e5dc	-0.080028266
94	0x3dc4e93b	0.09614798
95	0x3dbd118a	0.09231861
96	0x3d67cd01	0.05659199
97	0x3dc0c045	0.094116725
98	0xbc5f40d5	-0.013626297
99	0x3e0853df	0.13313244
100	0x3dc31a34	0.09526482
101	0xbe0a823c	-0.13526243
102	0xbc215766	-0.009847498
103	0xbd507f8f	-0.0509029
104	0xbc28c1bc	-0.010300096
105	0x3e20b7f2	0.1569517
106	0x3bb59d49	0.0055424315
107	0x3de48451	0.1115805
108	0xbdabbcea	-0.08385642
109	0xbdab1d90	-0.08355248
110	0x3da145bb	0.07874628
111	0xbde57cda	-0.11205454
112	0x3c8b3741	0.01699412
113	0xbd61dc82	-0.055141933
114	0x3d206f29	0.03916851
115	0x3dc558c3	0.096360706
116	0x3dbf8426	0.09351377
117	0x3da83072	0.08212365
118	0xbe1efd6f	-0.15526365
119	0xbd8ace94	-0.06777683
120	0xbd961d8b	-0.073298536
121	0xbe16264e	-0.1466305
122	0x3dae2c11	0.08504499
123	0x3db5acd3	0.08870854
124	0xbd1fdfbe	-0.039031737
125	0xbc5a8df5	-0.013339509
126	0x3cd8fdf1	0.026488276
127	0xbd925fe4	-0.07147196
128	0xbcb8ab4b	-0.022542616
129	0xbda9afdd	-0.082854964
130	0x3d60c0b9	0.054871295
131	0xbe050e7d	-0.12993808
132	0x3b97161b	0.0046107895
133	0xbc6545a2	-0.013993653
134	0xbbd3638d	-0.0064510764
135	0xbdf128c4	-0.117753536
136	0x3d03da72	0.032190748
137	0xbd4b6278	-0.049654454
138	0x3cb5ba1c	0.02218347
139	0xbe217193	-0.15765981
140	0xbd8b3508	-0.06797224
141	0x3de07237	0.10959285
142	0xbd6fd61f	-0.05855381
143	0x3d8f43bf	0.069953434
144	0x3d975c68	0.07390672
145	0xbd656b34	-0.05601044
146	0xbe1433f0	-0.14472938
147	0xbdbc6c9c	-0.09200403
148	0xbdf29019	-0.11843891
149	0x3ddc4050	0.10754454
150	0xbe003dbc	-0.1252355
151	0x3d8ca472	0.06867303
152	0x3dc15d55	0.0944163
153	0x3df05549	0.11735017
154	0x3a97e10a	0.0011587453
155	0x3d4e53dd	0.050372947
156	0x3d02f520	0.03197205
157	0x3bf9cb12	0.007623085
158	0xbe0a1fa4	-0.13488632
159	0x3d32968c	0.043600604
160	0xbe292d87	-0.16521274
161	0xbd59b0f1	-0.05314726
162	0x3dd67f02	0.104734436
163	0xbda726be	-0.08161686
164	0x3d8fa8dc	0.07014629
165	0xbdf799bd	-0.1208987
166	0x3e00185a	0.1250929
167	0x3d0e74e4	0.034779444
168	0x3b51f308	0.0032035727
169	0xbe033d74	-0.12816411
170	0x3db88367	0.09009438
171	0x3d10b847	0.03533199
172	0x3d3b0054	0.04565461
173	0xbe1a93e7	-0.15095483
174	0x3c8a2017	0.016861005
175	0x3da657f7	0.08122247
176	0x3d09c6f1	0.03363699
177	0x3db979fe	0.09056471
178	0xbc4c58e8	-0.012472369
179	0xbb4c631c	-0.0031187003
180	0x3d11d53c	0.035603747
181	0xbdc89a9b	-0.09795114
182	0x3d3bf053	0.045883488
183	0x3e05988d	0.13046475
184	0x3e010083	0.12597851
185	0x3d7ab839	0.061210845
186	0xbceaee1e	-0.028677996
187	0x3dcda4da	0.100412086
188	0xbc66b920	-0.014082223
189	0xbe0480a4	-0.12939698
190	0x3d7915c3	0.06081177
191	0xbd7df742	-0.06200338
192	0xbd814a43	-0.063129924
193	0xbd07d60b	-0.03316311
194	0xbe0b4a98	-0.13602674
195	0xbdfa2562	-0.122141615
196	0xbcc44ef4	-0.023963429
197	0xbc60278e	-0.013681306
198	0xbe1927d6	-0.14956602
199	0x3c1cc667	0.009568787
200	0xbd430ce5	-0.04761972
201	0xbd820aed	-0.0634974
202	0xbd7a5aea	-0.06112186
203	0x3d4a93c6	0.049457334
204	0xbdbd2b4a	-0.09236772
205	0xbdf08b12	-0.117452756
206	0xbdf0574d	-0.11735401
207	0xbdc7614d	-0.097353555
208	0xbdb6ff60	-0.08935428
209	0xbdb7b046	-0.08969168
210	0xbdf50b5f	-0.119650595
211	0x3cd34eee	0.025794473
212	0x3dede1eb	0.11615356
213	0x3dd85187	0.10562425
214	0xbdf295e4	-0.118449956
215	0x3da1d087	0.079011016
216	0xbdd79427	-0.10526305
217	0x3d58bab3	0.052912425
218	0xbde1963b	-0.11014982
219	0xbe0148c7	-0.12625419
220	0xbd8c51b8	-0.06851524
221	0xbddcac38	-0.107750356
222	0xba2cfc64	-0.00065988884
223	0x3ce1dadf	0.027570186
224	0xbd90a0ae	-0.07061897
225	0xbc16d926	-0.009207046
226	0x3cf5d0a0	0.030006707
227	0xbdae87f4	-0.08522025
228	0x3df330a2	0.1187451
229	0x3ba48063	0.0050201877
230	0x3dda4442	0.106575504
231	0x3df5bdfb	0.119991265
232	0x3d49c4c8	0.04925993
233	0xbda2c064	-0.07946852
234	0xbd2e2ebe	-0.042525046
235	0x3cfbe69e	0.030749615
236	0x3d2ef95a	0.04271827
237	0x3c632065	0.013862704
238	0xbe017e49	-0.1264583
239	0x3da38cb7	0.079858236
240	0xbcd3c730	-0.025851816
241	0x3e000fee	0.12506077
242	0x3dfab382	0.1224127
243	0x3c8d2dfd	0.017233843
244	0x3da865f1	0.08222569
245	0xbc7e03a1	-0.015503795
246	0xbe14f22f	-0.1454551
247	0xbe2d12d7	-0.16901718
248	0x3d95c118	0.0731222
249	0x3db1a84d	0.08674679
250	0xbd5978c1	-0.053093676
251	0x3cb972f2	0.022637818
252	0xbdefc0df	-0.11706709
253	0xbdbc2e09	-0.09188468
254	0xbe0893d5	-0.13337643
255	0xbdf23682	-0.11826803

conv.0.bias f4 [16]
0	0xbd834324	-0.064092904
1	0xbd9012dd	-0.07034848
2	0xbd4cfc7d	-0.05004548
3	0xbd337bcd	-0.043819238
4	0xbdbacad2	-0.09120716
5	0xbe10bf94	-0.14135581
6	0xbd96a103	-0.07354929
7	0xbdd36571	-0.10322083
8	0xbdd7b5f6	-0.10532753
9	0xbc869a82	-0.016431097
10	0xbd9889bd	-0.074481465
11	0x3a9d1bed	0.0011986472
12	0xbd434d46	-0.047681116
13	0xbd43ec82	-0.047832973
14	0x3d1bdf67	0.03805485
15	0x3c0ee7bc	0.008722242

conv.1.weight f4 [16]
0	0x3f7e89b0	0.99428844
1	0x3f80b814	1.0056176
2	0x3f753d84	0.9579699
3	0x3f80d3bf	1.006462
4	0x3f7cc985	0.98744994
5	0x3f8479f8	1.0349722
6	0x3f808da4	1.0043225
7	0x3f868403	1.0509037
8	0x3f73b050	0.95190907
9	0x3f848541	1.0353166
10	0x3f844fee	1.0336893
11	0x3f7d2348	0.9888196
12	0x3f79fc71	0.9765082
13	0x3f757350	0.9587908
14	0x3f81468c	1.0099654
15	0x3f7924e5	0.9732192

conv.1.bias f4 [16]
0	0xbc35fbce	-0.011107398
1	0x3c0f8cca	0.008761594
2	0xbd3eb1ae	-0.046556167
3	0xbcc2ecfc	-0.023794644
4	0xbd620dbd	-0.055188883
5	0x3cbe2ccf	0.023214726
6	0x3c337be0	0.010954827
7	0x3ccd2b1a	0.025044966
8	0x3c88ae10	0.016684562
9	0xbce48f9b	-0.027900508
10	0x3d4babdb	0.04972444
11	0xbcff8487	-0.031191124
12	0xbc5870b6	-0.013210466
13	0xbd8e4ad3	-0.06947865
14	0xbc819de3	-0.015822357
15	0xbc4b4014	-0.012405414

conv.1.running_mean f4 [16]
0	0xbe59911f	-0.21246766
1	0x3e94f0a0	0.29089832
2	0xbd7ac3cb	-0.06122188
3	0x3e03c665	0.1286865
4	0xbdc18f9c	-0.094512194
5	0xbdc746bf	-0.097302906
6	0x3f23223c	0.6372411
7	0xbdd68628	-0.10474807
8	0xbe4e5fc0	-0.20153713
9	0xbba7f1b5	-0.0051252493
10	0xbec8ac3e	-0.3919391
11	0x3d27cae4	0.040964976
12	0x3ea36710	0.31914568
13	0x3e0ae035	0.1356209
14	0x3ef7cdcf	0.48399207
15	0x3cb05e13	0.021529233

conv.1.running_var f4 [16]
0	0x3b969184	0.0045949835
1	0x3c8c2ffe	0.017112728
2	0x3b13e2c5	0.0022565585
3	0x3b9619ef	0.0045807282
4	0x3aaf1d38	0.0013360148
5	0x3b6de4cc	0.0036299704
6	0x3d651744	0.05593039
7	0x3a72543d	0.000924412
8	0x3b6ae5dd	0.0035842576
9	0x3b5ce41c	0.00337053
10	0x3c1ff409	0.009762772
11	0x3b5cc6d8	0.0033687856
12	0x3ca3cd96	0.019995492
13	0x3bbcb37f	0.0057587023
14	0x3c892548	0.01674141
15	0x3ba1847a	0.0049291225

conv.3.weight f4 [32, 16, 3, 3]
0	0xbd9174d9	-0.07102365
1	0xbca1cf7a	-0.019752253
2	0xbc47c3b6	-0.012192657
3	0xbdffbf4f	-0.12487661
4	0x3b6a6c3d	0.0035770081
5	0xbd5c30a0	-0.05375731
6	0xbdb1d55a	-0.08683272
7	0x3d89be4c	0.067257494
8	0x3d6fce7e	0.058546536
9	0xbd9fb005	-0.07797245
10	0x3d7b9683	0.061422836
11	0x3c883f9b	0.016631892
12	0x3cb3286a	0.021869857
13	0xbd00e861	-0.031471614
14	0x3cab0ffb	0.020881644
15	0x3d57137d	0.05250882
16	0xbdced534	-0.10099259
17	0x3d39e42e	0.045383625
18	0xbc96729a	-0.018365193
19	0xbdb27ddb	-0.08715411
20	0xbdda93bc	-0.10672709
21	0xbb43e2b2	-0.002988976
22	0xbda53100	-0.08065987
23	0xbd3909ae	-0.045175247
24	0xbd8b66cf	-0.068067186
25	0x3db7836d	0.08960614
26	0x3d8ae477	0.067818575
27	0xbdd5675d	-0.104201056
28	0xbdaab6ab	-0.083356224
29	0xbd8a1157	-0.067415886
30	0x3c0fbb35	0.008772661
31	0x3b3ac51f	0.002849884
32	0xbde7589a	-0.11296196
33	0xbd9e0fe8	-0.077178776
34	0xbd15f0f8	-0.03660676
35	0xbd06bdd8	-0.032895893
36	0xbd57c76c	-0.052680418
37	0xbd385761	-0.045005206
38	0xbd8b94be	-0.0681548
39	0xbd72578a	-0.059165515
40	0xbba4caa6	-0.0050290404
41	0xbdf0cfff	-0.11758422
42	0xbd0bc44c	-0.03412275
43	0xbcdec66d	-0.027194226
44	0xbccd9dab	-0.025099596
45	0xbc5d9b27	-0.013525761
46	0xbdb52f7e	-0.08846949
47	0xbddffecf	-0.10937273
48	0x3c9318fe	0.017956253
49	0x3cfb4348	0.03067173
50	0xbdb26485	-0.08710579
51	0x3dd84162	0.10559346
52	0x3d18e96a	0.037331976
53	0x3d8e43e8	0.06946546
54	0xbd916fc4	-0.07101396
55	0xbdbdb82f	-0.09263646
56	0xbb6d1dd7	-0.0036181116
57	0x3be79d5e	0.00706832
58	0x3c3ee3fa	0.011651034
59	0xbd940e10	-0.07229245
60	0xbd09a95e	-0.033608787
61	0x3c81029d	0.015748316
62	0x3c9bdc7d	0.019026035
63	0xbcb5295d	-0.02211445
64	0xbccec7d6	-0.025241774
65	0xbdd79a05	-0.10527424
66	0x3da054d6	0.07828681
67	0x3ca92e0e	0.020651843
68	0xbd051f48	-0.032500535
69	0x3d845d22	0.06463076
70	0xbcc2629c	-0.023728661
71	0xbabc125b	-0.0014348732
72	0xbdbfd281	-0.09366322
73	0xbd9f97bb	-0.07792612
74	0xbd52f796	-0.051505648
75	0xbd0394f5	-0.03212448
76	0xbc0a5584	-0.00844324
77	0xbdd7d089	-0.10537822
78	0x3d93948d	0.07206068
79	0x3cd1d759	0.025615381
80	0xbdca6077	-0.098816805
81	0x3d09ed9d	0.03367387
82	0xbd767b39	-0.060176108
83	0xbd8e4982	-0.06947614
84	0x3c50d9d4	0.012747247
85	0xbd0d07d9	-0.034431312
86	0xbdb40d54	-0.08791605
87	0x3b20e863	0.0024552576
88	0x3d1e4e9b	0.038649183
89	0xbc7163c5	-0.01473326
90	0xbd313e34	-0.043272212
91	0xbd4fb90e	-0.05071359
92	0xbdf5030f	-0.11963474
93	0xbd95fd2a	-0.07323678
94	0xbdd97dfc	-0.10619733
95	0x3cf6f862	0.030147735
96	0x3d8a91d2	0.06766094
97	0x3c430e77	0.011905304
98	0xbcba2d2d	-0.02272662
99	0x3b8d9622	0.0043208757
100	0xbc6da6b3	-0.014505076
101	0xbdb17151	-0.086641915
102	0xb995da69	-0.00028582223
103	0x3d29e9ec	0.04148285
104	0x3c4c14b9	0.012456113
105	0x3d24e60f	0.040258463
106	0xbcf4f5e2	-0.029902402
107	0xbd7e2975	-0.062051255
108	0xbd92e731	-0.071730025
109	0xba7d543d	-0.00096637366
110	0xbd2363ac	-0.039889976
111	0xbd1bbf55	-0.038024265
112	0x3c2e2101	0.010627986
113	0xbd36f377	-0.04466578
114	0x3d927cea	0.07152732
115	0xbb5f4947	-0.0034070776
116	0x3cad998e	0.021191385
117	0xbddcdf32	-0.107847586
118	0xbcfae5c7	-0.030627145
119	0xbd808c73	-0.062767886
120	0x3cd4148a	0.0258887
121	0x3c654d06	0.013995415
122	0x3b655633	0.0034994006
123	0x3d325ce5	0.043545622
124	0xbc4dbabf	-0.012556731
125	0x3d8e8b0c	0.06960115
126	0x3cfd2732	0.030902479
127	0x3c65040d	0.013978017
128	0xbd216db6	-0.03941127
129	0xbddf18ee	-0.10893427
130	0x3a5a6c28	0.00083321566
131	0xbc346bba	-0.011012012
132	0x3d9cd6a0	0.07658124
133	0xbc09d2e6	-0.0084120985
134	0xbb9b1e50	-0.004733838
135	0x3c099f13	0.008399743
136	0x3ce5716c	0.028008185
137	0x3cc649b3	0.024205064
138	0xbbd6502c	-0.006540319
139	0xbd4c6264	-0.04989852
140	0xbdd442b4	-0.10364285
141	0x3d833797	0.06407087
142	0xbd76f335	-0.060290534
143	0xbdb1ad05	-0.08675579
144	0x3de99d16	0.11406915
145	0xbc9eb41f	-0.019372998
146	0x3daaf82a	0.08348115
147	0x3dac9001	0.08425904
148	0x3c8e698c	0.017384313
149	0x3d562b34	0.052287295
150	0xbc71c4b1	-0.014756368
151	0x3be19fbf	0.0068854983
152	0xbb4698ad	-0.0030303404
153	0xba91397a	-0.0011079751
154	0xbb7d4dcf	-0.0038651114
155	0x3cc7054a	0.024294514
156	0xbd3f0df9	-0.046644185
157	0x3d7a1fd5	0.061065514
158	0xbd87660d	-0.066112615
159	0xbd43edf4	-0.04783435
160	0x3d3e49c0	0.046457052
161	0xbc5dc04e	-0.013534619
162	0xbd1bc367	-0.038028147
163	0xbc31c92f	-0.010851189
164	0x3cd967e6	0.0265388
165	0xbd01e107	-0.031708743
166	0xbac2b816	-0.0014855887
167	0xbd856694	-0.06513706
168	0xbdb17c4d	-0.086662866
169	0x3d3fde02	0.046842583
170	0x3d99627c	0.074894875
171	0x38b9b9f6	8.856125e-05
172	0xbdc111bb	-0.0942721
173	0xbdb441af	-0.08801591
174	0xbd2b2584	-0.041783825
175	0xbd8558c8	-0.06511074
176	0xbde161a7	-0.11004954
177	0x3d56bb3d	0.052424658
178	0xbd97e96f	-0.07417571
179	0xbcb7c319	-0.022431897
180	0xbd0069a0	-0.03135073
181	0x3bdfcc96	0.0068298085
182	0xbd01e901	-0.03171635
183	0xbd31e81c	-0.043434247
184	0x3cab8c33	0.020940876
185	0xbd46d12c	-0.048539326
186	0x3cb1ed6e	0.02171966
187	0x3ce54a4d	0.027989531
188	0xbdd31bca	-0.10308035
189	0x3c9edd18	0.019392535
190	0x3cad1321	0.021127285
191	0x3d821841	0.06352282
192	0x3dfbc092	0.12292589
193	0x3db71c45	0.08940939
194	0xbd7fd04e	-0.062454514
195	0x3dadaa81	0.08479787
196	0x3d77af00	0.060469627
197	0xbdb17ff0	-0.0866698
198	0xbdbe7dbd	-0.093013264
199	0xbc391711	-0.011297003
200	0x3c6247f1	0.0138110975
201	0x3d517d50	0.051144898
202	0x3d28ea14	0.04123886
203	0xbdc0e07a	-0.094178155
204	0x3c800731	0.01562843
205	0x3d4779fa	0.04870031
206	0xbd15a909	-0.036538158
207	0x3d1214f3	0.03566451
208	0xbdb3bcaf	-0.08776223
209	0x3c7f4e27	0.015582598
210	0x3be0e17d	0.006862818
211	0x3cdbe3af	0.026841966
212	0x3becf445	0.0072312676
213	0x3be35cc0	0.006938547
214	0xbd4254be	-0.047444098
215	0xbda4eb01	-0.08052636
216	0x3d8e2c6f	0.06942069
217	0xbddf8280	-0.10913563
218	0x3c2ea3e2	0.01065919
219	0xbd459831	-0.048240844
220	0xbc971b8b	-0.01844575
221	0xbd651aaf	-0.05593365
222	0xbd2fc7ff	-0.04291534
223	0x3d90b69b	0.07066079
224	0xbbdbef40	-0.0067118704
225	0x3c183e8e	0.009292258
226	0xbdcb92fa	-0.09940143
227	0xbd96e9d6	-0.073688194
228	0xbceb8012	-0.028747592
229	0x3d5ecb2e	0.054392986
230	0x3d4d2dc2	0.050092466
231	0x3d4db54e	0.050221734
232	0x3ba2803d	0.004959135
233	0xbdc16e2f	-0.09444844
234	0xbd201753	-0.039084744
235	0xbd99095a	-0.07472487
236	0xbdae1c5d	-0.085015036
237	0xbb015f4c	-0.001974064
238	0x3d33c7c2	0.043891676
239	0xbd918e4f	-0.07107221
240	0xbd2a82f9	-0.04162881
241	0xbd8e4150	-0.06946051
242	0xbd31ac21	-0.043377046
243	0xbd38e5fe	-0.045141213
244	0xbbc96acd	-0.006146765
245	0x3d52f033	0.051498603
246	0xbcd21db3	-0.025648927
247	0x3d00d183	0.031449806
248	0x3d1c8c47	0.038219716
249	0x3cb8c966	0.022556972
250	0xbbd9936f	-0.00663989
251	0xbdd45c99	-0.10369224
252	0xbd3da5c0	-0.04630065
253	0xbd0b589e	-0.03402006
254	0xbdc68dc2	-0.09695007
255	0x3d61c354	0.05511792

conv.3.bias f4 [32]
0	0xbd88a73e	-0.06672524
1	0xbd205811	-0.039146487
2	0xbd33b2c3	-0.043871652
3	0x3d47805a	0.04870639
4	0xbda6ddb0	-0.08147752
5	0x3c502cb1	0.012705968
6	0x3d5da3d2	0.05411131
7	0x3d833fc5	0.064086474
8	0x3b19cf2d	0.0023469434
9	0xbd6b659c	-0.05746995
10	0xbd666950	-0.056252778
11	0x3d932f85	0.07186798
12	0xbda678b6	-0.081284925
13	0xbd044621	-0.032293443
14	0xbd1e43b4	-0.038638785
15	0xbdd8a36d	-0.10578046
16	0xbd8688c8	-0.06569058
17	0xbd459b9d	-0.048244108
18	0x3d7ec6dc	0.062201366
19	0xbcd319f1	-0.025769206
20	0x3d85ebf1	0.06539143
21	0xbd4c7d5c	-0.04992424
22	0x3cba20d5	0.022720734
23	0xbcc1b4d8	-0.023645803
24	0xbbb97259	-0.0056593833
25	0x3c382709	0.011239775
26	0xbcb0cc4f	-0.021581797
27	0x3d397f48	0.0452874
28	0xbd6e5d86	-0.05819466
29	0xbc928094	-0.017883576
30	0x3c7d12a7	0.015446342
31	0xbc21e475	-0.009881129

conv.4.weight f4 [32]
0	0x3f794020	0.9736347
1	0x3f7926d9	0.973249
2	0x3f7c2d13	0.9850628
3	0x3f76d652	0.96420777
4	0x3f78c590	0.97176456
5	0x3f8436f2	1.0329268
6	0x3f813cdc	1.0096698
7	0x3f83a4bd	1.0284649
8	0x3f7fbc22	0.9989644
9	0x3f7e02a9	0.9922281
10	0x3f81840d	1.0118424
11	0x3f80fa1e	1.007633
12	0x3f7f5550	0.9973955
13	0x3f80be00	1.0057983
14	0x3f8388e8	1.0276155
15	0x3f807779	1.003646
16	0x3f82725d	1.0191151
17	0x3f7f85ce	0.99813545
18	0x3f7d9777	0.9905924
19	0x3f7b049b	0.980539
20	0x3f812d84	1.0092015
21	0x3f830902	1.0237124
22	0x3f8033ba	1.0015786
23	0x3f727512	0.94709885
24	0x3f7f0470	0.99616146
25	0x3f797abc	0.974529
26	0x3f7e9a17	0.9945387
27	0x3f7f8170	0.9980688
28	0x3f7bac94	0.9831021
29	0x3f836a37	1.0266789
30	0x3f7f64b8	0.9976306
31	0x3f780f8c	0.9689872

conv.4.bias f4 [32]
0	0xbd002682	-0.031286724
1	0xbbdb3f9a	-0.0066909315
2	0xbd0dbfac	-0.03460662
3	0xbbf08926	-0.007340568
4	0xbc91ac5f	-0.017782388
5	0x3d2e762d	0.04259317
6	0x3c109d1a	0.008826518
7	0x3cd9cf50	0.026588112
8	0x3c06851f	0.0082104495
9	0xbd131435	-0.035907943
10	0x3cf3d745	0.029765734
11	0x3c14ce0a	0.009082327
12	0xbc0cae18	-0.008586429
13	0xbc770403	-0.01507664
14	0x3c88676d	0.01665088
15	0xbd3eb7c4	-0.04656197
16	0xbc121894	-0.008916993
17	0xbc2215a8	-0.009892859
18	0xbb9e56d6	-0.004832129
19	0x3cb54777	0.022128804
20	0xbb79bade	-0.0038105766
21	0xbc61e785	-0.013788109
22	0x3c86ba29	0.01644619
23	0xbd39b79a	-0.04534111
24	0xbc98887a	-0.018619765
25	0xbd4627d8	-0.04837784
26	0xbc434483	-0.01191819
27	0xbad3e306	-0.0016165681
28	0xbd398abf	-0.045298334
29	0x3cfd1d6a	0.030897815
30	0xbc192697	-0.009347579
31	0x3ad4ee2d	0.0016245298

conv.4.running_mean f4 [32]
0	0xbe3f4a5c	-0.1868071
1	0x3d35de33	0.04440136
2	0xbe3bac05	-0.18327339
3	0x3e40f131	0.18842007
4	0xbe9877a5	-0.29778782
5	0xbe92479b	-0.28570256
6	0x3cc38c60	0.023870647
7	0x3d10e485	0.035374183
8	0x3e07e852	0.13272217
9	0x3de9029a	0.11377449
10	0xbd41963d	-0.04726242
11	0x3ee1c3f5	0.44094816
12	0xbe07dfaa	-0.13268915
13	0xbf008af7	-0.50212044
14	0x3ed2e426	0.41189688
15	0x3e038b75	0.12846167
16	0x3e71e548	0.2362262
17	0xbeb4b8e0	-0.35297298
18	0x3e20e6a1	0.15712978
19	0x3e814310	0.25246477
20	0xbf07fcfb	-0.5312039
21	0x3d397b67	0.0452837
22	0xbeaef54f	-0.3417153
23	0xbe1a9c4b	-0.15098684
24	0xbcc59a29	-0.02412136
25	0x3dfb42c8	0.12268597
26	0x3d1b8fc0	0.037978888
27	0xbef3de1b	-0.4763039
28	0x3e85dc27	0.26144525
29	0x3e32df13	0.17467909
30	0x3e76a086	0.24084672
31	0x3e065e99	0.13122024

conv.4.running_var f4 [32]
0	0x3e7c2221	0.24622394
1	0x3e1fa93b	0.155919
2	0x3e234652	0.15944794
3	0x3df566a4	0.11982468
4	0x3e2e60c3	0.17029099
5	0x3ea90ba9	0.33016708
6	0x3e338a8e	0.17533323
7	0x3ea03c0b	0.3129581
8	0x3e665051	0.22491576
9	0x3e8cf9ac	0.27534235
10	0x3ec7dec3	0.3903714
11	0x3ec009c5	0.37507454
12	0x3e356e6b	0.17717902
13	0x3ea9657f	0.33085248
14	0x3ee9837b	0.45608124
15	0x3e19a37a	0.15003768
16	0x3e24e05e	0.16101214
17	0x3e8b165d	0.271655
18	0x3e04543b	0.12922756
19	0x3e7689e5	0.2407604
20	0x3ed9e580	0.42557907
21	0x3e5aa092	0.21350315
22	0x3e9aec4c	0.30258405
23	0x3e9d1db4	0.30686724
24	0x3eb8f956	0.36127728
25	0x3e70768e	0.23482725
26	0x3e2581f2	0.16162851
27	0x3eb6c685	0.35698333
28	0x3e5da108	0.2164346
29	0x3eccd786	0.4000818
30	0x3e6dc158	0.23218286
31	0x3e1a64c4	0.15077502

conv.6.weight f4 [32, 32, 3, 3]
0	0xbd85df69	-0.06536753
1	0xbda45e0f	-0.08025753
2	0xbd299451	-0.04140121
3	0x3d0da5b9	0.034581874
4	0xbc56f950	-0.013120964
5	0xbcc5a38c	-0.024125837
6	0xbd350619	-0.04419527
7	0x3befad53	0.007314363
8	0x3d7b767c	0.061392292
9	0xbd3cfd46	-0.046139978
10	0xbd6bd472	-0.05757565
11	0xbc77ac28	-0.015116729
12	0xbdc7fa6a	-0.097645596
13	0x3c2740ea	0.010208348
14	0xbdc8b7ec	-0.09800705
15	0x3d21223a	0.03933928
16	0x3d9843bc	0.07434794
17	0x3ce33c9f	0.027738867
18	0x3d2eb417	0.042652216
19	0x3b907186	0.0044080643
20	0x3d697c0e	0.057003073
21	0x3c772058	0.015083395
22	0x3d207fa4	0.039184228
23	0xbb836754	-0.0040101204
24	0x3d17ec69	0.037090693
25	0xbc061625	-0.008183991
26	0x3d90bf9a	0.07067795
27	0x3c4444cc	0.011979293
28	0xbce63f8f	-0.028106479
29	0xbd84ab16	-0.064779446
30	0x3bfcf33c	0.0077194255
31	0x3d7499b1	0.059716884
32	0xbd6fd71b	-0.05855475
33	0xbc171f66	-0.009223795
34	0xbbe5a2df	-0.007007941
35	0xbd8aeed6	-0.067838356
36	0x3c10278d	0.008798492
37	0xbd0217d6	-0.031761013
38	0xbd278eaf	-0.040907558
39	0xbd33124d	-0.043718625
40	0x3d077bec	0.033077165
41	0xbcc6be7a	-0.024260748
42	0x3caaa662	0.02083129
43	0xbbab22ce	-0.005222655
44	0x3ce1e369	0.027574258
45	0xbd085a27	-0.0332891
46	0xbd09682f	-0.033546623
47	0xbce5db0f	-0.028058557
48	0x3d08006f	0.03320354
49	0xbcd8270d	-0.026385808
50	0xbd2d3989	-0.042291198
51	0xbda307e8	-0.07960492
52	0xbda100bf	-0.078614704
53	0x3c870eee	0.016486611
54	0x3c873657	0.016505403
55	0xbdfa858d	-0.12232504
56	0xbd00d7aa	-0.031455673
57	0xbdb1cb5f	-0.08681368
58	0xbd46d6ea	-0.0485448
59	0x3a518d13	0.0007993739
60	0x3ca92d77	0.020651562
61	0xbd0d25cd	-0.034459878
62	0xbd130545	-0.035893697
63	0xb9f8c7da	-0.00047451147
64	0xbcc8e388	-0.024522558
65	0xbd8dae02	-0.06917955
66	0x3d8a0103	0.06738474
67	0xbd3ef1b9	-0.046617243
68	0xbd6ac987	-0.057321098
69	0x3d0eb593	0.03484113
70	0xbd4dedb3	-0.050275516
71	0xbd49a359	-0.049228046
72	0xbcb0db40	-0.021588922
73	0xbd31a2bb	-0.043368082
74	0xbdb23abc	-0.08702609
75	0xbd1ec73c	-0.038764223
76	0xbd2f6d56	-0.04282888
77	0xbda55475	-0.080727495
78	0xbd90d77b	-0.0707235
79	0x3d76cb8b	0.060252707
80	0xbc9937e2	-0.018703405
81	0x3c8fb459	0.017542051
82	0x3c877898	0.016536996
83	0x3d0a16ce	0.033713154
84	0xbcc99271	-0.024605962
85	0xbd8b714e	-0.068087205
86	0xbda5791a	-0.08079739
87	0x3d3ba23d	0.04580902
88	0x3bf16a9b	0.0073674447
89	0xbce80e02	-0.028326992
90	0xbd4a640f	-0.04941183
91	0x3d68d636	0.056844912
92	0x3d602b89	0.05472902
93	0xbc37d534	-0.011220265
94	0x3dd39100	0.10330391
95	0x3ce85c6e	0.028364386
96	0xbdc6a89f	-0.09700131
97	0x3ca25607	0.019816412
98	0x3ccb7384	0.024835356
99	0xbd33ba6d	-0.04387896
100	0x3c61c3e9	0.013779619
101	0xbcbb4db3	-0.022864198
102	0x3d598026	0.053100727
103	0xbc5de290	-0.013542786
104	0x3c3ad359	0.011402928
105	0x3c6e249d	0.0145350965
106	0xbd2e9cb8	-0.042629927
107	0xbd7fcbc6	-0.062450193
108	0xbcf77e18	-0.030211493
109	0xbde0dedf	-0.10980009
110	0xbc11dd34	-0.008902837
111	0xbba82e76	-0.0051324917
112	0x3c4d1fce	0.01251979
113	0xbd32a17e	-0.043611042
114	0xbb7a38e4	-0.0038180882
115	0xbce72fbc	-0.028221004
116	0xbd0a5bb4	-0.03377886
117	0xbc21686b	-0.009851555
118	0x3c1bb9ef	0.009504779
119	0xbd772e21	-0.060346726
120	0xbba3cb32	-0.004998588
121	0x3c650c1d	0.013979939
122	0xbd3e04bd	-0.046391238
123	0xbd3f7dc3	-0.046750795
124	0x3c4bd5a1	0.01244107
125	0x3aca6e99	0.0015444338
126	0xbd3fc31d	-0.046816934
127	0xbdb8eabf	-0.09029149
128	0xbdbbaf48	-0.091642916
129	0xbc3ebd18	-0.011641763
130	0xbd349e1a	-0.04409609
131	0xba96a658	-0.0011493666
132	0xbd68ba22	-0.056818135
133	0xbd077ec5	-0.03307988
134	0xbc8734ec	-0.016504727
135	0xbc9f9c19	-0.019483613
136	0x3b07c49f	0.002071656
137	0xbc61178e	-0.013738526
138	0x3cc9fbf4	0.024656273
139	0xbda3d911	-0.080003865
140	0xbc477c67	-0.012175656
141	0x3d9c1bc9	0.07622487
142	0x3c9abea1	0.018889727
143	0xbdac615c	-0.08417007
144	0x3cb98952	0.022648487
145	0xbd09dadf	-0.033655997
146	0xbd7d368d	-0.0618196
147	0x3d1f0de2	0.0388316
148	0xbce35f5c	-0.027755432
149	0xbd9c4b86	-0.076315925
150	0xbcfce03f	-0.030868648
151	0x3d3f611c	0.04672347
152	0x3c883358	0.016626045
153	0xbb0aa31e	-0.0021154354
154	0x3c8eff92	0.01745585
155	0xbb055d98	-0.0020349976
156	0xbd96d6b7	-0.07365172
157	0xbd05efab	-0.03269927
158	0x3cfdc8f2	0.030979607
159	0xbd8febe6	-0.07027416
160	0x3ceab2b7	0.028649671
161	0x3d4348d1	0.047676865
162	0xbd8c539e	-0.06851886
163	0x3c6d88cd	0.014497948
164	0xbd7191b9	-0.058976863
165	0xbd34e967	-0.044167902
166	0x3d13add5	0.03605445
167	0xbda3cfaa	-0.07998593
168	0xbd7525c6	-0.059850477
169	0x3d355de1	0.044278983
170	0xbc06fa92	-0.008238452
171	0xbcfeb899	-0.031093882
172	0x3c52438f	0.01283349
173	0xbda1f897	-0.07908743
174	0x3c840d0e	0.016119506
175	0xbb3b033b	-0.002853586
176	0xbd1f8cdd	-0.038952697
177	0x3c556051	0.013023452
178	0x3d478b8c	0.048717067
179	0x3d2c38f1	0.04204649
180	0xbc6b7f60	-0.01437363
181	0xbc90aee3	-0.017661517
182	0xbd150308	-0.036379844
183	0xbd07f7dd	-0.033195365
184	0xbd86c4f1	-0.06580532
185	0x3cb6cfd0	0.02231589
186	0x3c51d69e	0.012807516
187	0xbbcb40a8	-0.006202776
188	0x3d7aa969	0.06119672
189	0xbbc35944	-0.005961569
190	0xbccafb25	-0.024777958
191	0xbdaf46a3	-0.08558395
192	0xbc9afa26	-0.018918108
193	0xbc159866	-0.009130573
194	0x3c497496	0.012295863
195	0xbde38308	-0.111089766
196	0xbd7d429e	-0.06183111
197	0xbdafac92	-0.08577837
198	0xbd29e285	-0.04147579
199	0xbc132bb8	-0.008982591
200	0x3cad09f0	0.021122903
201	0x3d233164	0.039842024
202	0xbcd9b4ca	-0.026575465
203	0xbd3e38e5	-0.046440978
204	0xbded35eb	-0.1158255
205	0x3c3f9723	0.011693749
206	0xbd985128	-0.07437354
207	0x3c28e504	0.010308508
208	0x3bfd4aea	0.0077298777
209	0xbd0c0614	-0.034185484
210	0xbd86e8d8	-0.0658738
211	0x3ca46cf8	0.020071492
212	0x3c4c8314	0.012482423
213	0xbcc9e169	-0.024643617
214	0x3c562ac8	0.013071723
215	0xba808eba	-0.0009808161
216	0xbd39ce11	-0.045362536
217	0xbab74878	-0.0013983389
218	0xbd9a4190	-0.07532036
219	0xbc917834	-0.017757513
220	0xbd380ce2	-0.04493416
221	0xbc94cc6a	-0.018163878
222	0x3c56c454	0.013108332
223	0xbd11a673	-0.03555913
224	0x3d041ef3	0.032256078
225	0xbd2dd20b	-0.04243664
226	0xbc688031	-0.014190719
227	0xba49b149	-0.0007693959
228	0xba447490	-0.0007494176
229	0x3d4d1368	0.050067335
230	0xbcab67a4	-0.020923443
231	0xbda55ad0	-0.08073962
232	0x3c8c198e	0.01710203
233	0x3cdf79fb	0.027279845
234	0xbddac365	-0.106818
235	0xbd803287	-0.06259637
236	0xbbce0272	-0.0062869126
237	0xbcef7ad0	-0.029233366
238	0x3a9db8ab	0.0012033185
239	0xbd8f6e4a	-0.07003458
240	0xbd29d443	-0.041462194
241	0x3d5a9be4	0.053371325
242	0x3c9059e4	0.017620988
243	0xbc2d59b9	-0.010580474
244	0x3d550738	0.052008837
245	0xbd11569b	-0.035482984
246	0xbc3195f6	-0.010838976
247	0xbd2e9409	-0.042621646
248	0x3d9ebebe	0.07751225
249	0x3d8fdcbb	0.07024523
250	0xbc324849	-0.010881492
251	0x3cd8e3c9	0.026475804
252	0xbd81cd8f	-0.06338035
253	0xbc9d1e79	-0.01917957
254	0xbdc91b2b	-0.09819635
255	0x3c84cbd6	0.016210478

conv.6.bias f4 [32]
0	0xbd1e7f98	-0.0386959
1	0x3bdcb5fa	0.0067355605
2	0xbbbd8400	-0.005783558
3	0x3a8a7245	0.001056262
4	0xbd891790	-0.06693947
5	0xbd9e26f4	-0.077222735
6	0x3cff17d5	0.031139294
7	0x3cdd4999	0.027012633
8	0x3b2e83ba	0.0026628808
9	0x3cda31d6	0.026635092
10	0x3bdf2894	0.006810257
11	0x3d2a0fa0	0.041518807
12	0xbc8932d8	-0.016747877
13	0x3d240a7c	0.04004906
14	0xbd6bebe4	-0.05759801
15	0xbc53dfbf	-0.012931763
16	0xbc49209a	-0.012275839
17	0xbc4c9a2a	-0.012487927
18	0xbcfb2b35	-0.030660251
19	0xbd03fb19	-0.032221887
20	0xbcf50f4d	-0.029914523
21	0xbbaec3e6	-0.0053334115
22	0xbd9696d3	-0.07352986
23	0xbbba3bff	-0.0056834216
24	0xbd3c9cf1	-0.04604811
25	0xbc0b3cb5	-0.00849836
26	0x3d0360be	0.032074682
27	0x3ccf93e6	0.025339078
28	0x3c1ef436	0.009701779
29	0x3d89aa23	0.06721904
30	0x3d934055	0.07190005
31	0x3d0cc241	0.034364942

conv.7.weight f4 [32]
0	0x3f81a046	1.0127037
1	0x3f85d10d	1.0454422
2	0x3f754454	0.95807385
3	0x3f7cf20c	0.98806834
4	0x3f72d458	0.9485526
5	0x3f7f4a9f	0.9972324
6	0x3f8516b4	1.0397553
7	0x3f82a6e8	1.0207186
8	0x3f7b8f3a	0.9826542
9	0x3f78ef27	0.9723992
10	0x3f7bb1d5	0.98318225
11	0x3f7e05ec	0.99227786
12	0x3f77d4ab	0.9680888
13	0x3f85fb3e	1.0467298
14	0x3f7da457	0.9907889
15	0x3f82d38e	1.0220811
16	0x3f818e4b	1.0121549
17	0x3f810b4b	1.0081571
18	0x3f7a0962	0.9767057
19	0x3f75e35e	0.9605006
20	0x3f737125	0.9509452
21	0x3f7f6f6b	0.99779385
22	0x3f79a74a	0.9752089
23	0x3f7c54e3	0.98567027
24	0x3f7e33d1	0.99297816
25	0x3f7c0b76	0.9845499
26	0x3f772417	0.96539444
27	0x3f84ed0c	1.0384841
28	0x3f80771d	1.003635
29	0x3f7a4e44	0.97775674
30	0x3f8177a4	1.0114636
31	0x3f7f4852	0.9971973

conv.7.bias f4 [32]
0	0xbcafc1c1	-0.021454694
1	0x3caef64d	0.02135768
2	0xbd6b8517	-0.05749997
3	0xbc81b67e	-0.01583409
4	0xbd24af7e	-0.040206425
5	0xbac9061a	-0.0015336901
6	0x3cc803fe	0.024415966
7	0x3cdb7f04	0.026793964
8	0xbcbcdb4e	-0.023053791
9	0xbd42d966	-0.04757061
10	0xbd25f719	-0.040518854
11	0xbb246924	-0.0025087083
12	0xbd83946b	-0.06424793
13	0x3c993bae	0.018705215
14	0xbda557d4	-0.080733925
15	0x3ca082e1	0.019593658
16	0xbb8cb582	-0.0042940984
17	0x3cbb64e3	0.022875255
18	0xbd04a431	-0.032383148
19	0xbd65b938	-0.05608484
20	0xbd8fbac6	-0.07018046
21	0xbca42e62	-0.020041648
22	0xbcc7d3a6	-0.024392914
23	0xbcaada48	-0.020856038
24	0xbd65ea6c	-0.056131765
25	0xbd064785	-0.03278305
26	0xbc166817	-0.00918009
27	0x3bb13d1e	0.005408897
28	0x3b1f293d	0.0024286055
29	0x3be25518	0.0069071166
30	0xbc08b258	-0.008343302
31	0xbc92e7af	-0.017932741

conv.7.running_mean f4 [32]
0	0xbdb8846b	-0.09009632
1	0xbe9805a3	-0.296918
2	0x3ebc8ef6	0.3682782
3	0xbca2748a	-0.01983096
4	0xbe8c68db	-0.27423748
5	0xbd61951e	-0.05507385
6	0xbeee94ef	-0.46598002
7	0x3d94ed2f	0.07271802
8	0x3ee43874	0.4457432
9	0x3ecdec58	0.40219378
10	0x3e0581f9	0.13037862
11	0x3e75c449	0.24000658
12	0x3ee011cd	0.4376358
13	0x3e063a24	0.13108116
14	0xbe3b39d8	-0.18283784
15	0xbe0397a7	-0.1285082
16	0xbf0f2207	-0.55911297
17	0xbed90579	-0.42386988
18	0xbe061336	-0.13093266
19	0xbe57d930	-0.21078944
20	0xbeb7b844	-0.3588277
21	0x3efadc65	0.48996273
22	0xbed5c381	-0.4175072
23	0xbd0109f2	-0.031503625
24	0xbe56ad9f	-0.20964669
25	0x3eaad809	0.33367947
26	0xbe5d218d	-0.2159483
27	0x3e82aa78	0.25520682
28	0xbdcde9e5	-0.100543775
29	0xbe9169c0	-0.28400993
30	0x3f0010a5	0.500254
31	0x3a3c1d01	0.0007175953

conv.7.running_var f4 [32]
0	0x3f066463	0.5249693
1	0x3f1d1233	0.61355895
2	0x3f3bf45e	0.7341975
3	0x3ea792fb	0.32729325
4	0x3e9c8aa4	0.30574524
5	0x3e98b573	0.29825935
6	0x3eabde7c	0.3356818
7	0x3ea17625	0.3153545
8	0x3ebf0425	0.3730785
9	0x3ec0c3ac	0.37649286
10	0x3e8019ae	0.25019592
11	0x3ec8b1f1	0.3919826
12	0x3e8d291c	0.27570426
13	0x3ec96d42	0.3934117
14	0x3e63e8a6	0.22256717
15	0x3ef54761	0.4790602
16	0x3ee66549	0.4499915
17	0x3ebc3c6e	0.36764854
18	0x3e7b9fb8	0.24572647
19	0x3f0153c2	0.5051843
20	0x3ecd8836	0.40142983
21	0x3ed19afc	0.40938556
22	0x3eac059f	0.3359804
23	0x3e80c4ae	0.25150055
24	0x3e911851	0.28338864
25	0x3ed219f2	0.4103542
26	0x3ec261b8	0.37965178
27	0x3ef9563e	0.4869861
28	0x3eedcdd0	0.46446085
29	0x3f19c15e	0.6006068
30	0x3ed3ee42	0.41392714
31	0x3ea3c63c	0.31987178

conv.9.weight f4 [32, 32, 3, 3]
0	0xbbae2a6e	-0.0053151166
1	0xbd65ed02	-0.05613423
2	0xbce1fbcf	-0.027585892
3	0x3d22f8ee	0.03978818
4	0x3c13956f	0.009007796
5	0x3cd8ee94	0.02648095
6	0xbc8e0ea8	-0.017340973
7	0xb9a487dc	-0.0003138174
8	0x3cedd13c	0.029030435
9	0xbc4deb0b	-0.012568246
10	0xbb5a67dd	-0.0033326067
11	0x3b4d7dd3	0.0031355515
12	0xbd42dfd3	-0.047576737
13	0xbd727bfc	-0.059200272
14	0xbd7e567a	-0.06209419
15	0x3bea0655	0.007141868
16	0x3bea5ebd	0.007152407
17	0x3ca6f586	0.020380747
18	0x3c4bf4ea	0.012448529
19	0xbcb8c11d	-0.022553021
20	0xbd513673	-0.051077317
21	0xbd5c1aa1	-0.053736333
22	0x3cd48d4a	0.025946278
23	0xbc6c2fea	-0.0144157205
24	0xbd84f554	-0.06492105
25	0x3811e17f	3.4780704e-05
26	0xbb9bd001	-0.0047550206
27	0xbd27bc77	-0.04095122
28	0xbda64f52	-0.08120598
29	0x3d58ca9f	0.05292761
30	0xbd7a2e37	-0.06107923
31	0x3c57c01e	0.013168363
32	0xbd0241ed	-0.031801153
33	0x3be15b95	0.0068773725
34	0xbd61dc42	-0.055141695
35	0xbad1ac4e	-0.0015996785
36	0xbd770a53	-0.06031258
37	0xbb91e650	-0.004452504
38	0xbd9934eb	-0.074807964
39	0xbc34f04e	-0.011043621
40	0xbc01c380	-0.007920146
41	0x3c14ccab	0.009082
42	0xbd0cdc5a	-0.03438983
43	0xbd1be703	-0.038062107
44	0xbb6bc6ce	-0.003597665
45	0xbddf7852	-0.10911621
46	0x3c366d03	0.011134389
47	0x3d232223	0.039827477
48	0xbd4f0dc6	-0.050550245
49	0xbd839631	-0.06425131
50	0xbcf5eae3	-0.03001923
51	0xbc092cca	-0.008372495
52	0xbd7bfc83	-0.06152011
53	0x3ca555ef	0.020182578
54	0xbdbaeab8	-0.091268
55	0x3c0a882a	0.008455316
56	0xbdd91aca	-0.10600813
57	0xbcc38b11	-0.023870023
58	0xbbcb0ae1	-0.006196365
59	0xbd5c972d	-0.05385511
60	0x3bf0d052	0.0073490525
61	0xbd19b693	-0.037527632
62	0xbd379394	-0.044818476
63	0xbd0f405e	-0.034973495
64	0xbd856b4f	-0.06514608
65	0xbd8c8e6b	-0.068631016
66	0xbc700d52	-0.014651613
67	0xbcd0ae60	-0.025473773
68	0xbc553f69	-0.013015606
69	0x3c9f9d2b	0.019484123
70	0xbcb843e3	-0.022493308
71	0x3d936a71	0.071980365
72	0xbb9fd607	-0.004877809
73	0xbbbb69b6	-0.005719389
74	0xbd93b82d	-0.07212863
75	0x3c13d8b9	0.009023839
76	0x3c50c583	0.012742403
77	0xbcb0fdd0	-0.021605402
78	0x3b786ead	0.0037907765
79	0xbd077c00	-0.03307724
80	0xbbedf31e	-0.007261648
81	0xbd08f32e	-0.03343504
82	0xbc95299e	-0.018208321
83	0x3cb768d4	0.022388853
84	0xbcc7b5db	-0.024378708
85	0xbd33111e	-0.043717496
86	0xbd88c256	-0.06677692
87	0x3d6da02c	0.05801408
88	0xbc9d407b	-0.019195786
89	0xbd42f833	-0.047599982
90	0xbc661d6f	-0.014045103
91	0xbd466588	-0.04843667
92	0xbdd6edaf	-0.10494553
93	0xbd93d0d2	-0.07217564
94	0x3a56d445	0.0008195083
95	0x3c077711	0.008268134
96	0x3d3bb468	0.045826346
97	0xbc97b090	-0.018516809
98	0x3d9933f0	0.074806094
99	0xbda675a3	-0.08127906
100	0xbd27865a	-0.040899612
101	0x3cb73526	0.02236421
102	0xbcab2359	-0.020890879
103	0x3cefdc54	0.029279865
104	0xb99cef06	-0.00029932725
105	0x3b217cd3	0.0024641051
106	0xbcc6488c	-0.024204515
107	0xbdb79ce9	-0.08965475
108	0xbdb86372	-0.09003343
109	0xbcf06863	-0.02934665
110	0x3d2c68cf	0.04209214
111	0xbd2c04df	-0.041996833
112	0xbc528425	-0.0128488885
113	0xbd5bd4cf	-0.053669747
114	0xbd170820	-0.036872983
115	0x3d273ca4	0.040829316
116	0xbd88c72a	-0.066786125
117	0xbd4e054f	-0.05029803
118	0xbccbbfb4	-0.024871685
119	0xbd8f52bb	-0.069982015
120	0x3ca0dff8	0.019638047
121	0xbd3a5c76	-0.045498334
122	0xbca97e28	-0.020690039
123	0xbda4ca75	-0.08046428
124	0xbdbc75b4	-0.092021376
125	0xbd54d5cc	-0.051961705
126	0x3befb22c	0.007314941
127	0x3d8b3bc9	0.067985125
128	0x3c7e25b7	0.015511922
129	0xbb882733	-0.0041550635
130	0x3c2dc3b8	0.010605745
131	0x3ca64734	0.020297624
132	0x3d9c8ccd	0.07644043
133	0x3d13e05b	0.036102634
134	0xbd88892f	-0.06666791
135	0x3c926df8	0.017874703
136	0xbd1fca6e	-0.03901141
137	0xbcfb4639	-0.030673133
138	0xbd63cde9	-0.055616293
139	0xbca4aded	-0.020102466
140	0xbe049357	-0.1294683
141	0xbd94b30f	-0.07260715
142	0xbdb11583	-0.08646681
143	0xbcbcb5f3	-0.023035979
144	0xbc914237	-0.017731769
145	0xbc661b47	-0.014044589
146	0x3bd2f984	0.006438436
147	0xbc4dfadf	-0.012572019
148	0xbd32db36	-0.043666087
149	0xbd09ff4d	-0.03369074
150	0xbccf6a7e	-0.025319334
151	0xbda26ace	-0.079305276
152	0xbd10b2f0	-0.035326898
153	0xbd8d1808	-0.06889349
154	0xbcd38167	-0.02581854
155	0x3d3146a6	0.043280266
156	0xbc499b88	-0.012305148
157	0xbd2b30a0	-0.04179442
158	0xbbe62ee1	-0.0070246314
159	0xbd097350	-0.033557236
160	0xbd69f817	-0.057121363
161	0xbd81c150	-0.063356996
162	0xbd906c2b	-0.070518814
163	0xbd72d77e	-0.05928754
164	0xbd166887	-0.03672078
165	0x3aad8b61	0.0013240391
166	0xbc7c550c	-0.015401136
167	0x3d13083c	0.035896525
168	0xbd9f3ef9	-0.07775683
169	0x3d2109dc	0.039316043
170	0x3c1a8d71	0.009433136
171	0xbbbba3b8	-0.005726304
172	0xbbfe9286	-0.007768932
173	0xbcf5f85a	-0.03002565
174	0xbd30a342	-0.043124445
175	0xbdbffa01	-0.09373856
176	0x3d09a5da	0.033605434
177	0xbd78fda6	-0.060788773
178	0x3d2b4aad	0.041819263
179	0xbd4f168e	-0.05055862
180	0xbd61371f	-0.05498421
181	0x3cb10edc	0.02161353
182	0x3b75f500	0.0037530065
183	0x3d51fa21	0.051263932
184	0xbd050152	-0.032471962
185	0xbce893c3	-0.02839077
186	0x39e56d50	0.00043759728
187	0x3d339035	0.0438387
188	0xbcddcf7a	-0.027076472
189	0xbd2ae021	-0.041717652
190	0xbda77f27	-0.08178549
191	0xbd382a68	-0.044962317
192	0xbd5885a8	-0.05286184
193	0x3b54bc3e	0.0032460834
194	0xb9974019	-0.0002884872
195	0xbcb316fe	-0.02186155
196	0x3a594255	0.00082877773
197	0xbd78ae37	-0.06071302
198	0xbcb22f3e	-0.021751042
199	0xbd1213ee	-0.035663538
200	0xbd386e51	-0.04502708
201	0x3d789cee	0.060696535
202	0xbd81a40c	-0.063301176
203	0xbd72e76d	-0.059302736
204	0xbd898149	-0.06714112
205	0x3cf66686	0.030078184
206	0xbd1fb579	-0.038991425
207	0xbd474e5c	-0.048658714
208	0xbc865aa0	-0.016400635
209	0xbc107442	-0.0088167805
210	0xbd7b2ce2	-0.0613221
211	0x3cd21b7d	0.025647873
212	0xbd8a4158	-0.067507446
213	0x3c83181c	0.016002707
214	0x3c6765e4	0.014123414
215	0x3bb09212	0.0053885067
216	0x3d41dc2f	0.047329124
217	0xbc1d95f5	-0.009618272
218	0x3c606924	0.0136969425
219	0x3c77bfee	0.015121443
220	0xb9c866db	-0.00038223606
221	0xbd7075b4	-0.058706
222	0x3c0508b1	0.008119748
223	0x3d690c27	0.056896355
224	0x3db0e379	0.08637137
225	0xbd136b51	-0.035991017
226	0xbd06b963	-0.032891642
227	0xbcab04e0	-0.020876348
228	0x3ca488b1	0.02008471
229	0x3d05e2f7	0.032687154
230	0xbb479009	-0.0030450842
231	0xbc7247db	-0.0147876395
232	0xbd26e0a5	-0.04074158
233	0xbd9d3c4b	-0.076775156
234	0xbdb437cd	-0.08799706
235	0xbcaef61f	-0.021357594
236	0xbc679110	-0.014133707
237	0x3ce44f43	0.027869826
238	0x3c8a02ff	0.016847132
239	0xbd727100	-0.059189796
240	0xbba105ea	-0.004914035
241	0xbd8d8db9	-0.06911797
242	0xbc81708d	-0.015800739
243	0x3bdb75bd	0.006697385
244	0x3bbc0656	0.00573806
245	0xbc99fb73	-0.018796658
246	0x3bbbc372	0.005730086
247	0x39df67a6	0.000426111
248	0x3c6c8c77	0.014437786
249	0xbd455fca	-0.048187055
250	0xbd0249ad	-0.031808544
251	0x3d1c7147	0.038193967
252	0x3b0f5cba	0.0021875338
253	0xbd2c98d1	-0.042137925
254	0xbdaf8052	-0.08569397
255	0x3ce9062c	0.028445326

conv.9.bias f4 [32]
0	0x3bb72415	0.005589018
1	0xbc9f403a	-0.019439805
2	0x3bb24a04	0.0054409523
3	0xbcfbaa6d	-0.030720914
4	0xbd28b9e2	-0.041192897
5	0xbd164972	-0.036691137
6	0xbd95d814	-0.07316604
7	0x3d8e293f	0.06941461
8	0xbd52c0aa	-0.05145327
9	0xbc03f8ee	-0.008054955
10	0x3c5fa48d	0.013650072
11	0x3d591238	0.05299589
12	0x3d204c68	0.039135367
13	0xbc807a15	-0.015683213
14	0x3c9fa7df	0.019489227
15	0xbc509c29	-0.012732544
16	0x3d6c2271	0.057650033
17	0xbc9fa621	-0.019488396
18	0xbc8f9753	-0.017528212
19	0x3b3eae3c	0.002909555
20	0xbd61d9bf	-0.0551393
21	0xbcb44bf2	-0.02200887
22	0xbd889fd7	-0.06671112
23	0xbc981df4	-0.01856897
24	0x3c929759	0.017894434
25	0x3d94b977	0.07261937
26	0x39370ce0	0.00017457036
27	0x3d18f47a	0.037342526
28	0x3d781745	0.060569067
29	0xbc200e28	-0.009769
30	0x3cb58ec6	0.022162806
31	0xbcdedb2e	-0.027204122

conv.10.weight f4 [32]
0	0x3f7bd45a	0.983709
1	0x3f804419	1.0020782
2	0x3f7fb086	0.9987873
3	0x3f7e3864	0.99304795
4	0x3f78d962	0.972067
5	0x3f830e6a	1.0238774
6	0x3f7b0a05	0.98062164
7	0x3f80ac00	1.005249
8	0x3f7c1686	0.9847187
9	0x3f7f8ca7	0.99823993
10	0x3f78cadc	0.9718454
11	0x3f7d562d	0.9895962
12	0x3f81a6e3	1.0129055
13	0x3f7bfbc8	0.9843106
14	0x3f80ef2f	1.0072993
15	0x3f843dff	1.033142
16	0x3f853aea	1.0408604
17	0x3f7ff3c6	0.99981344
18	0x3f79b572	0.9754249
19	0x3f7f94c0	0.9983635
20	0x3f7b3357	0.98125213
21	0x3f78b082	0.9714433
22	0x3f78fd75	0.97261745
23	0x3f7b64e8	0.98200846
24	0x3f7deddb	0.99191064
25	0x3f81d30a	1.0142529
26	0x3f715af6	0.9427942
27	0x3f7a8984	0.9786608
28	0x3f827212	1.0191061
29	0x3f80223d	1.0010449
30	0x3f7e9dbe	0.99459445
31	0x3f7df7f4	0.9920647

conv.10.bias f4 [32]
0	0xbd7a170a	-0.061057128
1	0x3bea7dec	0.0071561243
2	0xbc6d7593	-0.014493364
3	0xbcbad7f6	-0.022808056
4	0xbd944d51	-0.072413094
5	0xbb033745	-0.0020021957
6	0xbd1abc06	-0.03777697
7	0xbd0dd23e	-0.03462433
8	0xbda7f62e	-0.08201252
9	0xbcceca8d	-0.025243068
10	0xbc487598	-0.012235068
11	0xbb99bf73	-0.004692012
12	0x3cd2ab88	0.025716558
13	0xbd353698	-0.044241518
14	0xbbb7912a	-0.0056020217
15	0x3d07af48	0.033126146
16	0x3c783aef	0.01515077
17	0xbceb7ab4	-0.028745033
18	0xbd421792	-0.04738576
19	0xbb818c0e	-0.0039534634
20	0xbd23449b	-0.03986035
21	0x3bc1ab10	0.005910285
22	0xbce71687	-0.028208984
23	0xbce9aac6	-0.028523814
24	0x3c246409	0.010033616
25	0xbc869f89	-0.016433494
26	0xbcadc817	-0.021213574
27	0xbcbf4a7a	-0.023350943
28	0xbcd26d51	-0.025686892
29	0x3af54c65	0.0018714784
30	0xbd79cd37	-0.060986724
31	0xbbc58aa1	-0.0060284887

conv.10.running_mean f4 [32]
0	0x3d8d30a9	0.06894047
1	0xbed8c49e	-0.42337507
2	0x3f0cbc21	0.5497456
3	0x3c52ad2f	0.012858673
4	0x3dd47107	0.10373121
5	0x3e882ab5	0.26595083
6	0xbef1e9a4	-0.47248566
7	0x3f3171df	0.6931438
8	0x3e87b2b7	0.26503536
9	0xbe466991	-0.19376208
10	0x3d0da0e2	0.034577258
11	0x3e013e78	0.12621486
12	0xbec98990	-0.39362764
13	0x3d0b09e4	0.03394498
14	0x3e4b397d	0.19846149
15	0xbe318a29	-0.1733786
16	0xbeb95ebe	-0.36205095
17	0xbe8031fc	-0.25038135
18	0xbf0bbf0c	-0.5458839
19	0x3eb5e0cd	0.35523072
20	0xbe962f3a	-0.29332906
21	0xbd0e52f4	-0.03474708
22	0xbe862239	-0.26197985
23	0x3cc36617	0.023852391
24	0x3edf4bc5	0.43612495
25	0x3d9a6c8f	0.07540237
26	0xbcc8ef40	-0.024528146
27	0xbe00d3b2	-0.12580755
28	0x3eb9713a	0.36219198
29	0x3dcb3003	0.09921267
30	0xbd2ecf23	-0.04267801
31	0xbf862a3a	-1.0481637

conv.10.running_var f4 [32]
0	0x3ea0104c	0.31262434
1	0x3ef94fee	0.48693794
2	0x3f1dfa6f	0.61710256
3	0x3eb05a51	0.34443906
4	0x3e7f2e70	0.24920058
5	0x3ecc57aa	0.39910632
6	0x3eb3e94c	0.3513893
7	0x3edb4632	0.42826992
8	0x3e96c095	0.29443803
9	0x3ef171aa	0.4715703
10	0x3e9e9292	0.309712
11	0x3ef1fc6f	0.47262904
12	0x3fa94e71	1.3227063
13	0x3e6514ca	0.22371212
14	0x3ebddc3b	0.37082085
15	0x3f47e163	0.7807829
16	0x3e71cdee	0.23613712
17	0x3ea1cd8a	0.31602126
18	0x3ec3eedb	0.3826817
19	0x3ef2f14d	0.47449723
20	0x3e9adc66	0.30246276
21	0x3f180694	0.5938504
22	0x3e840610	0.25785875
23	0x3eb12171	0.34595826
24	0x3eb58ed4	0.35460532
25	0x3f063bd5	0.52435046
26	0x3eafb428	0.34317136
27	0x3e720c6b	0.2363755
28	0x3ed2f1f8	0.41200233
29	0x3eef451a	0.46732408
30	0x3e9ca06e	0.30591148
31	0x3fafb29e	1.3726385

conv.12.weight f4 [32, 32, 3, 3]
0	0x3d788cd6	0.060681187
1	0x3cf9ec1a	0.03050809
2	0xbd148f6a	-0.036269583
3	0x3bf30b84	0.0074171443
4	0x3cf56107	0.029953493
5	0xbceb7316	-0.0287414
6	0xbdc3a7f3	-0.09553518
7	0xbc9e331e	-0.019311484
8	0xbd76d33f	-0.060260054
9	0x3ceb440d	0.028718973
10	0x3d2ef931	0.042718116
11	0xbd2b4993	-0.041818213
12	0x3c52b6cb	0.012860964
13	0xbd336c0b	-0.04380421
14	0xbc7eaa4b	-0.015543531
15	0x3cd5ad4e	0.026083615
16	0xbd5dbd6b	-0.05413572
17	0xbc4093c7	-0.011753983
18	0x3d4ba5f9	0.04971883
19	0x3d90b6d9	0.070661254
20	0x3d70d56c	0.058797285
21	0xbd2cc4cb	-0.042179864
22	0x3d796d2c	0.06089513
23	0x3cd63339	0.026147472
24	0xbd6d87e0	-0.05799091
25	0x3d833479	0.06406493
26	0x3cee024f	0.029053835
27	0x3ce14b42	0.027501706
28	0xbc401fe5	-0.011726354
29	0x3cbbbf38	0.022918329
30	0x3d2d2b37	0.04227754
31	0xbcbba77c	-0.022907011
32	0x3c0f14a2	0.008732947
33	0xbdaa77d1	-0.083236344
34	0xbd3f1b39	-0.04665682
35	0xbc29bbc7	-0.010359711
36	0xbd74de06	-0.05978205
37	0x3d248dcf	0.0401743
38	0xbd90ac81	-0.070641525
39	0xbb0f052e	-0.0021823156
40	0xbca8f8e1	-0.020626487
41	0x3bd135bb	0.006384579
42	0x3d8d0ea3	0.06887557
43	0x3d17da08	0.037073165
44	0x3d6d4061	0.057922725
45	0xbcbd5405	-0.023111353
46	0x3d0f5118	0.034989446
47	0xbc2344c4	-0.0099651255
48	0xbd00c17a	-0.031434514
49	0x3cf3781f	0.029720364
50	0xbd4fa16a	-0.050691046
51	0xbd874040	-0.066040516
52	0x3d0615a3	0.032735478
53	0xbd8a08eb	-0.06739982
54	0xbc8646a4	-0.016391106
55	0xbc3095bd	-0.010777888
56	0xbd9020b5	-0.07037488
57	0x3d05efef	0.03269952
58	0xbd681548	-0.05666092
59	0x3abeb216	0.0014548923
60	0xbd177b67	-0.03698292
61	0xbd6bf32c	-0.057604954
62	0xbd54a74d	-0.051917363
63	0xbd517a14	-0.051141813
64	0xbd5edc30	-0.054409206
65	0x3c53bf03	0.012923959
66	0x3d4e45d8	0.050359577
67	0xbd1c82eb	-0.03821079
68	0xbccea219	-0.025223779
69	0xbd3ed9bb	-0.046594363
70	0x388e6937	6.7906854e-05
71	0xbd199a78	-0.03750083
72	0xbc5d454e	-0.013505293
73	0x3cc86572	0.024462435
74	0x3d7f354a	0.06230668
75	0xbd402752	-0.0469125
76	0x3c8b86ff	0.017032145
77	0xbcfedbfd	-0.031110758
78	0xbc14a6c8	-0.009072967
79	0x3db3d51e	0.08780883
80	0xbc2433c8	-0.010022111
81	0x3d545707	0.05184081
82	0x3d4ff855	0.050773937
83	0x3cdea9c0	0.027180552
84	0xbc0c20b5	-0.00855272
85	0x3d35b1ba	0.044358946
86	0x3aeab10a	0.0017905545
87	0x3d615687	0.05501416
88	0x3cb150b7	0.021644933
89	0x3c0ba349	0.008522817
90	0x3d6720dc	0.05642782
91	0x3ca73777	0.02041219
92	0x3d03adb4	0.032148078
93	0xbd1c63fb	-0.038181286
94	0x3d17b44c	0.03703718
95	0x3d2da4a2	0.042393334
96	0x3ba0d560	0.004908249
97	0x3d5b8258	0.053591102
98	0x3d8f32d6	0.06992118
99	0xbd92ed78	-0.071742
100	0xbdcbe753	-0.09956231
101	0xbda0c6d0	-0.078504205
102	0xbc5d8793	-0.013521093
103	0xbcd90e9d	-0.026496226
104	0x3c83e891	0.016102107
105	0x3d027e5f	0.031858798
106	0xbd8a0982	-0.06740095
107	0xbd998086	-0.07495217
108	0xbca6f094	-0.020378388
109	0x3d1dc474	0.03851743
110	0xbd58ac2e	-0.05289858
111	0x3d28d26d	0.041216303
112	0xbcde2359	-0.027116464
113	0x3d5c1467	0.053730395
114	0x3c9316cf	0.017955212
115	0x3c60d2d3	0.013722139
116	0xbd1f32e4	-0.038866892
117	0xbd5d2816	-0.053993307
118	0x3cfd9476	0.03095458
119	0x3cbeb1a3	0.023278063
120	0x3d236d88	0.03989938
121	0xbcf6690f	-0.030079393
122	0xbd580af5	-0.052744824
123	0x3dbb66aa	0.09150441
124	0xbd0a9227	-0.033830788
125	0xbd7e5171	-0.062089387
126	0x3c363486	0.011120921
127	0xbc6e953a	-0.014561946
128	0x3d8f9eae	0.070126876
129	0xbd059e77	-0.032621827
130	0x3ce2ac8e	0.027670171
131	0x399e5a76	0.00030203507
132	0x3d535573	0.051595163
133	0xbcbbef3e	-0.022941228
134	0xbd78ce9b	-0.06074391
135	0xbb9a686c	-0.004712155
136	0x3b9cfaea	0.0047906535
137	0x3cd0b4b6	0.025476795
138	0xbd943b42	-0.07237865
139	0x3994db6c	0.00028392242
140	0x3cb2361f	0.021754323
141	0x3d1ad910	0.037804663
142	0xbc8f3c87	-0.017484916
143	0x3ce93f90	0.028472692
144	0x3d620dc3	0.055188905
145	0x3dc6a3e2	0.09699227
146	0x3d8de281	0.06927968
147	0xbcef8243	-0.029236918
148	0xbb83e537	-0.0040251273
149	0x3b0abfca	0.0021171444
150	0xbd982e37	-0.0743069
151	0xbd06340c	-0.03276448
152	0xbd14b4eb	-0.03630535
153	0xbc95908c	-0.018257402
154	0x3d1772ff	0.036974903
155	0x3c9912b6	0.01868568
156	0xbcf75c0f	-0.030195264
157	0x3cd2e03d	0.02574169
158	0x3bdacb57	0.006677072
159	0x3d46a7b2	0.04849977
160	0xbd37ae51	-0.044843975
161	0x3ca4df73	0.02012608
162	0xbc3e5c5b	-0.011618699
163	0xbd0b51e6	-0.03401365
164	0x3cbea935	0.023274044
165	0x3982d851	0.000249567
166	0xbcdbea35	-0.026845077
167	0x3cbf8f42	0.02338374
168	0xbc09658d	-0.008386028
169	0xbbd9f8a6	-0.0066519557
170	0x3c718bd2	0.014742808
171	0x3cc962d9	0.024583267
172	0xbd680358	-0.056643814
173	0xbd44dac8	-0.04806021
174	0xbcdc0004	-0.026855476
175	0x3cef30f6	0.029198151
176	0x3d4a0b34	0.04932709
177	0xbced340b	-0.02895548
178	0x3d8e666d	0.0695313
179	0xb8ee6d2c	-0.00011369059
180	0x3d72c6e6	0.059271716
181	0x3caa2ec7	0.020774258
182	0x3c2ffa53	0.010740834
183	0x3db7fa23	0.08983257
184	0x3d16316c	0.036668226
185	0xbc195ad5	-0.009360035
186	0x3db2a9f7	0.087238245
187	0xba1a563b	-0.0005887483
188	0x3d5510ef	0.052018102
189	0xbcb95ebf	-0.022628186
190	0x3cfc2bd6	0.030782621
191	0xbd87668e	-0.06611358
192	0xbd1e39a0	-0.038629174
193	0xbbb161dd	-0.0054132775
194	0x3a3bfdbf	0.0007171295
195	0xbbcc30e3	-0.0062314137
196	0x3cef6f90	0.029228002
197	0x3d13af2c	0.03605573
198	0xbd013e85	-0.031553764
199	0x3d97d963	0.0741451
200	0xbc89545b	-0.016763857
201	0xbc6100fc	-0.013733145
202	0x3d0a4dee	0.033765726
203	0x3ccd9194	0.025093831
204	0x3dac85f7	0.08423989
205	0x3d9a2a5d	0.075276114
206	0x3db60746	0.08888106
207	0xbd77430f	-0.060366686
208	0x3ca5de1a	0.020247508
209	0x3c0ab16e	0.008465154
210	0xba47f989	-0.0007628431
211	0x3c47d4ef	0.012196763
212	0x3d1bc4f2	0.03802962
213	0x3dc639c6	0.09678988
214	0x3d8c111a	0.06839199
215	0x3c52ec7d	0.012873766
216	0x3d87adfc	0.06624982
217	0xbc48be73	-0.012252438
218	0xbca88d4a	-0.020575184
219	0xbc3a142a	-0.011357347
220	0xbd49468e	-0.04913955
221	0xbd3a2ef5	-0.045454938
222	0x3d156bd2	0.03647978
223	0xbd2f5c88	-0.042812854
224	0xbcb28534	-0.021792032
225	0xbc9ff080	-0.019523859
226	0xbdb69d09	-0.08916671
227	0x3ceff9b3	0.02929387
228	0x3c38858d	0.01126231
229	0xbc4b1e93	-0.012397426
230	0x3d127137	0.0357525
231	0x3bb6feb2	0.0055845613
232	0xbd31102b	-0.04322831
233	0x3c82e8a0	0.015980065
234	0xbd11c0cb	-0.035584252
235	0x3c091e43	0.008369031
236	0xbcafe7bf	-0.02147281
237	0xbd5caf36	-0.05387803
238	0xbcb50503	-0.022097116
239	0x3d2fd4cf	0.04292756
240	0x390248a8	0.00012424833
241	0xbc7f04a0	-0.0155650675
242	0x3d387e3a	0.045042254
243	0xbd0da51f	-0.0345813
244	0xbb84cf6e	-0.004053048
245	0x3cf8b0f8	0.030357823
246	0x3d75101d	0.05982982
247	0x3d0e7bdc	0.03478609
248	0x3d8e7b57	0.06957119
249	0x3c3096e1	0.01077816
250	0x3c957af6	0.018247109
251	0x3d3c4e51	0.045973126
252	0x3cb49a89	0.022046344
253	0x3d201e64	0.039091483
254	0xbd265ea6	-0.040617608
255	0xbd3a69b2	-0.045510955

conv.12.bias f4 [32]
0	0xbb9c0f9a	-0.004762602
1	0x3c5918e7	0.013250566
2	0xbd729e13	-0.059232783
3	0xbbfac8a4	-0.0076533128
4	0x3cdb18ef	0.026745288
5	0xbb513b6e	-0.0031926292
6	0xbcb07806	-0.021541607
7	0xbcdd7f98	-0.02703838
8	0xbc0aa1ec	-0.008461457
9	0xbd318b41	-0.043345693
10	0x3c0857be	0.008321701
11	0x3cd835f0	0.026392907
12	0x3cab9671	0.02094576
13	0x3c66ede9	0.014094808
14	0x3cd9488e	0.026523855
15	0x3c983b20	0.01858288
16	0x3c9a9b79	0.018872963
17	0xbbe22bce	-0.0069021946
18	0xbd1a6fea	-0.037704386
19	0x3c0f804d	0.008758617
20	0x3cdce3f4	0.026964165
21	0xbd409ba9	-0.04702345
22	0xbd7e3a5f	-0.062067386
23	0xbc5ab9f4	-0.013349999
24	0x3d8a0c3a	0.06740613
25	0x3d8cb6cf	0.068708055
26	0xbd146bb5	-0.03623553
27	0xbc945efe	-0.018111702
28	0xbceedcba	-0.029157985
29	0x3c5a6abd	0.013331112
30	0x3d121e4e	0.035673432
31	0x3d98adfb	0.07455059

conv.13.weight f4 [32]
0	0x3f76c486	0.9639362
1	0x3f804429	1.0020801
2	0x3f7f9df4	0.9985039
3	0x3f8040d5	1.0019785
4	0x3f789c43	0.97113436
5	0x3f78d8c6	0.9720577
6	0x3f7f9a82	0.99845135
7	0x3f779101	0.96705633
8	0x3f786d7c	0.9704206
9	0x3f79c4ec	0.97566104
10	0x3f78f231	0.97244555
11	0x3f7b1c2e	0.98089874
12	0x3f7d6413	0.98980826
13	0x3f7ff326	0.9998039
14	0x3f80d2dd	1.006435
15	0x3f7c4c80	0.9855423
16	0x3f7226e3	0.94590586
17	0x3f812b97	1.0091428
18	0x3f7ebf50	0.9951067
19	0x3f82f24b	1.0230192
20	0x3f79af04	0.9753268
21	0x3f7f8e75	0.9982675
22	0x3f82a93e	1.0207899
23	0x3f76d6e8	0.9642167
24	0x3f822b8b	1.0169538
25	0x3f85ccbc	1.0453105
26	0x3f7f3d1f	0.9970264
27	0x3f8339c4	1.0252004
28	0x3f798c39	0.9747959
29	0x3f7a7fc6	0.97851217
30	0x3f821d9b	1.0165285
31	0x3f8690d1	1.0512944
