results/direct_cnn_mlp_lat32_mFalse_ipmFalse_res18_vps2_fidmFalse_ffdmFalse_cnn-1-4000.pth (torch, 358354 bytes, 62 tensors)

conv.0.weight f4 [16, 6, 3, 3]
0	0xbd1032a9	-0.035204563
1	0x3e1f9513	0.15584211
2	0xbda995fd	-0.08280561
3	0x3d8edbb6	0.069755
4	0xbd572738	-0.052527636
5	0x3d5a639d	0.053317655
6	0x3ce33457	0.027734919
7	0xbd4334e3	-0.04765786
8	0x3d816b20	0.063192606
9	0x3d86f1d2	0.06589092
10	0x3e1e03e1	0.15431167
11	0x3c8311f3	0.01599977
12	0xbdbd9031	-0.09256018
13	0x3e17ba5f	0.14817189
14	0x3dfc5fad	0.12322936
15	0x3d18f4c5	0.037342805
16	0x3ddf5c73	0.10906305
17	0x3da48c74	0.08034602
18	0xbc9416b1	-0.018077226
19	0x3d383f83	0.044982444
20	0x3dc0dcdb	0.09417125
21	0x3dfdfec3	0.124021076
22	0x3dfd17f9	0.12358088
23	0x3d33bd8a	0.04388193
24	0xba42e273	-0.0007434256
25	0xbda479aa	-0.08031018
26	0xbdc7fade	-0.09764646
27	0x3d05c2aa	0.03265635
28	0x3dda9833	0.10673561
29	0x3d890fd3	0.06692471
30	0xbdc3c5ec	-0.09559235
31	0xbe053910	-0.13010049
32	0x3de83306	0.11337857
33	0xbdecaa91	-0.115559705
34	0xbc76ab9a	-0.015055561
35	0xbd81ccd6	-0.063378975
36	0x3dc8f7d2	0.09812893
37	0xbd0a5612	-0.03377349
38	0xbd54ca5d	-0.0519508
39	0xbd008556	-0.03137716
40	0xbd70435a	-0.05865798
41	0x3d8a7506	0.06760602
42	0xbb76b791	-0.0037646035
43	0xbd364950	-0.04450351
44	0x3cc7241b	0.024309209
45	0xbdf6cc61	-0.12050701
46	0xbd25f1af	-0.04051369
47	0x3bf7e982	0.007565678
48	0x3dea1918	0.114305675
49	0x3d624e6f	0.05525058
50	0x3d8e25c6	0.069407985
51	0xbdadbaac	-0.084828705
52	0xbda3873d	-0.07984779
53	0xbdd96527	-0.106149964
54	0x3d01fbdf	0.031734344
55	0x3d659da4	0.05605854
56	0x3d02e8da	0.031960346
57	0xbe028da8	-0.1274935
58	0x3dddcef6	0.1083049
59	0xbddcd02b	-0.107818924
60	0x3d8d6549	0.06904084
61	0xbceb56b3	-0.028727865
62	0xbd233a64	-0.039850608
63	0xbd065f3a	-0.03280566
64	0x3d80a75e	0.06281923
65	0xbc2dcf81	-0.010608555
66	0xbc2aa7ad	-0.010415954
67	0x3d20d61b	0.039266687
68	0xbd018dc6	-0.031629346
69	0xbdb66deb	-0.08907684
70	0x3e2eb14a	0.17059818
71	0x3e22ca83	0.15897565
72	0xbc452aba	-0.012034113
73	0xbd33d7f1	-0.04390711
74	0xbdc7dbe4	-0.09758738
75	0x3d7913ba	0.06080983
76	0xbda132ee	-0.07871042
77	0xbdd38e99	-0.10329933
78	0x3e1804de	0.14845607
79	0x3e3998c0	0.18124676
80	0x3d9ae9f6	0.07564156
81	0xbb2572b9	-0.0025245382
82	0xbc26e5b6	-0.010186603
83	0x3def907a	0.116974786
84	0x3e20aabf	0.15690134
85	0x3decfc1f	0.11571526
86	0xbdc398c3	-0.09550621
87	0x3e1f8d8b	0.15581338
88	0xbcccfd61	-0.025023164
89	0x3dc71a67	0.09721833
90	0x3e09d23f	0.13459109
91	0xbce2ec1e	-0.02770048
92	0x3dbb5983	0.091479324
93	0xbda3de2a	-0.08001359
94	0x3dc4f0f9	0.096162744
95	0x3dbd198f	0.092333905
96	0x3d67dbf0	0.056606233
97	0x3dc0c7c7	0.094131045
98	0xbc5f0307	-0.013611562
99	0x3e0857a7	0.13314687
100	0x3dc321e5	0.09527949
101	0xbe0a7e3e	-0.1352472
102	0xbc2119f8	-0.009832852
103	0xbd50701d	-0.05088817
104	0xbc28817a	-0.010284776
105	0x3e20bbb0	0.15696597
106	0x3bb6148c	0.0055566486
107	0x3de48c0a	0.11159523
108	0xbdabbcea	-0.08385642
109	0xbdab1d90	-0.08355248
110	0x3da145bb	0.07874628
111	0xbde57cda	-0.11205454
112	0x3c8b3741	0.01699412
113	0xbd61dc82	-0.055141933
114	0x3d206f29	0.03916851
115	0x3dc558c3	0.096360706
116	0x3dbf8426	0.09351377
117	0x3da83072	0.08212365
118	0xbe1efd6f	-0.15526365
119	0xbd8ace94	-0.06777683
120	0xbd961d8b	-0.073298536
121	0xbe16264e	-0.1466305
122	0x3dae2c11	0.08504499
123	0x3db5acd3	0.08870854
124	0xbd1fdfbe	-0.039031737
125	0xbc5a8df4	-0.013339508
126	0x3cd8fdf1	0.026488276
127	0xbd925fe4	-0.07147196
128	0xbcb8ab4b	-0.022542616
129	0xbda9afdd	-0.082854964
130	0x3d60c0b9	0.054871295
131	0xbe050e7d	-0.12993808
132	0x3b971630	0.0046107993
133	0xbc6545a1	-0.013993652
134	0xbbd36377	-0.006451066
135	0xbdf128c4	-0.117753536
136	0x3d03da72	0.032190748
137	0xbd4b6278	-0.049654454
138	0x3cb5ba1c	0.02218347
139	0xbe217193	-0.15765981
140	0xbd8b3508	-0.06797224
141	0x3de07237	0.10959285
142	0xbd6fd61f	-0.05855381
143	0x3d8f43bf	0.069953434
144	0x3d975c68	0.07390672
145	0xbd656b34	-0.05601044
146	0xbe1433f0	-0.14472938
147	0xbdbc6c9c	-0.09200403
148	0xbdf29019	-0.11843891
149	0x3ddc4050	0.10754454
150	0xbe003dbc	-0.1252355
151	0x3d8ca472	0.06867303
152	0x3dc15d55	0.0944163
153	0x3df05549	0.11735017
154	0x3a97e10f	0.0011587458
155	0x3d4e53dd	0.050372947
156	0x3d02f520	0.03197205
157	0x3bf9cb12	0.007623085
158	0xbe0a1fa4	-0.13488632
159	0x3d32968c	0.043600604
160	0xbe292d87	-0.16521274
161	0xbd59b0f1	-0.05314726
162	0x3dd67f02	0.104734436
163	0xbda726be	-0.08161686
164	0x3d8fa8dc	0.07014629
165	0xbdf799bd	-0.1208987
166	0x3e00185a	0.1250929
167	0x3d0e74e4	0.034779444
168	0x3b51f308	0.0032035727
169	0xbe033d74	-0.12816411
170	0x3db88367	0.09009438
171	0x3d10b847	0.03533199
172	0x3d3b0054	0.04565461
173	0xbe1a93e7	-0.15095483
174	0x3c8a2017	0.016861005
175	0x3da657f7	0.08122247
176	0x3d09c6f1	0.03363699
177	0x3db979fe	0.09056471
178	0xbc4c58e8	-0.012472369
179	0xbb4c631c	-0.0031187003
180	0x3d11d53c	0.035603747
181	0xbdc89a9b	-0.09795114
182	0x3d3bf053	0.045883488
183	0x3e05988d	0.13046475
184	0x3e010083	0.12597851
185	0x3d7ab839	0.061210845
186	0xbceaee1e	-0.028677996
187	0x3dcda4da	0.100412086
188	0xbc66b920	-0.014082223
189	0xbe0480a4	-0.12939698
190	0x3d7915c3	0.06081177
191	0xbd7df742	-0.06200338
192	0xbd814a43	-0.063129924
193	0xbd07d60b	-0.03316311
194	0xbe0b4a98	-0.13602674
195	0xbdfa2562	-0.122141615
196	0xbcc44ef4	-0.023963429
197	0xbc60278e	-0.013681306
198	0xbe1927d6	-0.14956602
199	0x3c1cc667	0.009568787
200	0xbd430ce5	-0.04761972
201	0xbd820aed	-0.0634974
202	0xbd7a5aea	-0.06112186
203	0x3d4a93c6	0.049457334
204	0xbdbd2b4a	-0.09236772
205	0xbdf08b12	-0.117452756
206	0xbdf0574d	-0.11735401
207	0xbdc7614d	-0.097353555
208	0xbdb6ff60	-0.08935428
209	0xbdb7b046	-0.08969168
210	0xbdf50b5f	-0.119650595
211	0x3cd34eee	0.025794473
212	0x3dede1eb	0.11615356
213	0x3dd85187	0.10562425
214	0xbdf295e4	-0.118449956
215	0x3da1d087	0.079011016
216	0xbdd79427	-0.10526305
217	0x3d58bab3	0.052912425
218	0xbde1963b	-0.11014982
219	0xbe0148c7	-0.12625419
220	0xbd8c51b8	-0.06851524
221	0xbddcac38	-0.107750356
222	0xba2cfc64	-0.00065988884
223	0x3ce1dadf	0.027570186
224	0xbd90a0ae	-0.07061897
225	0xbc16d926	-0.009207046
226	0x3cf5d0a0	0.030006707
227	0xbdae87f4	-0.08522025
228	0x3df330a2	0.1187451
229	0x3ba48063	0.0050201877
230	0x3dda4442	0.106575504
231	0x3df5bdfb	0.119991265
232	0x3d49c4c8	0.04925993
233	0xbda2c064	-0.07946852
234	0xbd2e2ebe	-0.042525046
235	0x3cfbe69e	0.030749615
236	0x3d2ef95a	0.04271827
237	0x3c632065	0.013862704
238	0xbe017e49	-0.1264583
239	0x3da38cb7	0.079858236
240	0xbcd3c730	-0.025851816
241	0x3e000fee	0.12506077
242	0x3dfab382	0.1224127
243	0x3c8d2dfd	0.017233843
244	0x3da865f1	0.08222569
245	0xbc7e03a1	-0.015503795
246	0xbe14f22f	-0.1454551
247	0xbe2d12d7	-0.16901718
248	0x3d95c118	0.0731222
249	0x3db1a84d	0.08674679
250	0xbd5978c1	-0.053093676
251	0x3cb972f2	0.022637818
252	0xbdefc0df	-0.11706709
253	0xbdbc2e09	-0.09188468
254	0xbe0893d5	-0.13337643
255	0xbdf23682	-0.11826803

conv.0.bias f4 [16]
0	0xbd836801	-0.064163215
1	0xbd900556	-0.07032268
2	0xbd4cfc7d	-0.05004548
3	0xbd337bcd	-0.043819238
4	0xbdbacad2	-0.09120716
5	0xbe10bf94	-0.14135581
6	0xbd96a095	-0.07354847
7	0xbdd37c5f	-0.10326456
8	0xbdd7c9ee	-0.10536562
9	0xbc869a82	-0.016431097
10	0xbd98937a	-0.07450004
11	0x3a9d1bdd	0.0011986453
12	0xbd434d46	-0.047681116
13	0xbd43ec82	-0.047832973
14	0x3d1bdf67	0.03805485
15	0x3c0ee7bc	0.008722242

conv.1.weight f4 [16]
0	0x3f7e6c00	0.99383545
1	0x3f80bcab	1.0057577
2	0x3f753d84	0.9579699
3	0x3f80d3bf	1.006462
4	0x3f7cc985	0.98744994
5	0x3f8479f8	1.0349722
6	0x3f808dcd	1.0043274
7	0x3f86755b	1.0504564
8	0x3f73a273	0.9516975
9	0x3f848541	1.0353166
10	0x3f844d6c	1.0336127
11	0x3f7d2348	0.9888196
12	0x3f79fc71	0.9765082
13	0x3f757350	0.9587908
14	0x3f81468c	1.0099654
15	0x3f7924e5	0.9732192

conv.1.bias f4 [16]
0	0xbc371ef7	-0.011176816
1	0x3c0ff7de	0.0087871235
2	0xbd3eb1ae	-0.046556167
3	0xbcc2ecfc	-0.023794644
4	0xbd620dbd	-0.055188883
5	0x3cbe2cb5	0.023214677
6	0x3c337ff8	0.010955803
7	0x3cccd00a	0.025001545
8	0x3c885f25	0.016646931
9	0xbce48f9b	-0.027900508
10	0x3d4b98bb	0.049706202
11	0xbcff8487	-0.031191124
12	0xbc5870b6	-0.013210466
13	0xbd8e4ad3	-0.06947865
14	0xbc819de3	-0.015822357
15	0xbc4b4014	-0.012405414

conv.1.running_mean f4 [16]
0	0xbe59911f	-0.21246766
1	0x3e94f0a0	0.29089832
2	0xbd7ac3cb	-0.06122188
3	0x3e03c665	0.1286865
4	0xbdc18f9c	-0.094512194
5	0xbdc746bf	-0.097302906
6	0x3f23223c	0.6372411
7	0xbdd68628	-0.10474807
8	0xbe4e5fc0	-0.20153713
9	0xbba7f1b5	-0.0051252493
10	0xbec8ac3e	-0.3919391
11	0x3d27cae4	0.040964976
12	0x3ea36710	0.31914568
13	0x3e0ae035	0.1356209
14	0x3ef7cdcf	0.48399207
15	0x3cb05e13	0.021529233

conv.1.running_var f4 [16]
0	0x3b969184	0.0045949835
1	0x3c8c2ffe	0.017112728
2	0x3b13e2c5	0.0022565585
3	0x3b9619ef	0.0045807282
4	0x3aaf1d38	0.0013360148
5	0x3b6de4cc	0.0036299704
6	0x3d651744	0.05593039
7	0x3a72543d	0.000924412
8	0x3b6ae5dd	0.0035842576
9	0x3b5ce41c	0.00337053
10	0x3c1ff409	0.009762772
11	0x3b5cc6d8	0.0033687856
12	0x3ca3cd96	0.019995492
13	0x3bbcb37f	0.0057587023
14	0x3c892548	0.01674141
15	0x3ba1847a	0.0049291225

conv.3.weight f4 [32, 16, 3, 3]
0	0xbd9174d9	-0.07102365
1	0xbca1cef6	-0.019752007
2	0xbc47c39e	-0.012192635
3	0xbdffbf4d	-0.124876596
4	0x3b6a6cfa	0.0035770521
5	0xbd5c3056	-0.053757034
6	0xbdb1d50c	-0.086832136
7	0x3d89be59	0.06725759
8	0x3d6fceb5	0.05854674
9	0xbd9fb003	-0.077972434
10	0x3d7b9683	0.061422836
11	0x3c883f9b	0.016631892
12	0x3cb32872	0.021869872
13	0xbd00e861	-0.031471614
14	0x3cab0ffb	0.020881644
15	0x3d571397	0.052508917
16	0xbdced534	-0.10099259
17	0x3d39e42f	0.04538363
18	0xbc96729a	-0.018365193
19	0xbdb27ddb	-0.08715411
20	0xbdda93bc	-0.10672709
21	0xbb43e2b2	-0.002988976
22	0xbda53100	-0.08065987
23	0xbd3909ae	-0.045175247
24	0xbd8b66cf	-0.068067186
25	0x3db7836d	0.08960614
26	0x3d8ae477	0.067818575
27	0xbdd5675d	-0.104201056
28	0xbdaab6ab	-0.083356224
29	0xbd8a1157	-0.067415886
30	0x3c0fbb35	0.008772661
31	0x3b3ac51f	0.002849884
32	0xbde7589a	-0.11296196
33	0xbd9e0fe8	-0.077178776
34	0xbd15f0f8	-0.03660676
35	0xbd06bdd8	-0.032895893
36	0xbd57c76c	-0.052680418
37	0xbd385761	-0.045005206
38	0xbd8b94be	-0.0681548
39	0xbd72578a	-0.059165515
40	0xbba4caa6	-0.0050290404
41	0xbdf0cfff	-0.11758422
42	0xbd0bc44c	-0.03412275
43	0xbcdec66d	-0.027194226
44	0xbccd9dab	-0.025099596
45	0xbc5d9b27	-0.013525761
46	0xbdb52f7e	-0.08846949
47	0xbddffecf	-0.10937273
48	0x3c9318fe	0.017956253
49	0x3cfb4348	0.03067173
50	0xbdb26485	-0.08710579
51	0x3dd84162	0.10559346
52	0x3d18e96a	0.037331976
53	0x3d8e43e8	0.06946546
54	0xbd916fc4	-0.07101396
55	0xbdbdb82f	-0.09263646
56	0xbb6d1dd7	-0.0036181116
57	0x3be79d64	0.007068323
58	0x3c3ee3fa	0.011651034
59	0xbd940e10	-0.07229245
60	0xbd09a95e	-0.033608787
61	0x3c8102a1	0.015748324
62	0x3c9bdc7d	0.019026035
63	0xbcb5295f	-0.022114454
64	0xbccec7f6	-0.025241833
65	0xbdd799e8	-0.10527402
66	0x3da0551b	0.078287326
67	0x3ca92df3	0.020651793
68	0xbd051f0a	-0.032500304
69	0x3d845d76	0.06463139
70	0xbcc2612b	-0.023727974
71	0xbabbec47	-0.0014337384
72	0xbdbfd283	-0.09366324
73	0xbd9f97bb	-0.07792612
74	0xbd52f790	-0.051505625
75	0xbd0394a8	-0.03212419
76	0xbc0a554f	-0.008443191
77	0xbdd7d07a	-0.105378106
78	0x3d9394d3	0.0720612
79	0x3cd1d7da	0.025615621
80	0xbdca602b	-0.09881624
81	0x3d09ed9d	0.03367387
82	0xbd767b39	-0.060176108
83	0xbd8e4982	-0.06947614
84	0x3c50d9d4	0.012747247
85	0xbd0d07d9	-0.034431312
86	0xbdb40d54	-0.08791605
87	0x3b20e85e	0.0024552564
88	0x3d1e4e9b	0.038649183
89	0xbc7163c5	-0.01473326
90	0xbd313e22	-0.043272145
91	0xbd4fb8fd	-0.050713528
92	0xbdf5030d	-0.119634725
93	0xbd95fd22	-0.07323672
94	0xbdd97df1	-0.106197245
95	0x3cf6f87c	0.030147783
96	0x3d8a922b	0.067661606
97	0x3c430f99	0.011905574
98	0xbcba2ca1	-0.022726359
99	0x3b8d9622	0.0043208757
100	0xbc6da6b3	-0.014505076
101	0xbdb17151	-0.086641915
102	0xb995da69	-0.00028582223
103	0x3d29e9ec	0.04148285
104	0x3c4c14b9	0.012456113
105	0x3d24e60f	0.040258463
106	0xbcf4f5e2	-0.029902402
107	0xbd7e2975	-0.062051255
108	0xbd92e731	-0.071730025
109	0xba7d543d	-0.00096637366
110	0xbd2363ac	-0.039889976
111	0xbd1bbf55	-0.038024265
112	0x3c2e2101	0.010627986
113	0xbd36f377	-0.04466578
114	0x3d927cea	0.07152732
115	0xbb5f4947	-0.0034070776
116	0x3cad998e	0.021191385
117	0xbddcdf32	-0.107847586
118	0xbcfae5c7	-0.030627145
119	0xbd808c73	-0.062767886
120	0x3cd4148a	0.0258887
121	0x3c654d06	0.013995415
122	0x3b655633	0.0034994006
123	0x3d325ce5	0.043545622
124	0xbc4dbabf	-0.012556731
125	0x3d8e8b0c	0.06960115
126	0x3cfd2732	0.030902479
127	0x3c65040d	0.013978017
128	0xbd216db6	-0.03941127
129	0xbddf18ee	-0.10893427
130	0x3a5a6c28	0.00083321566
131	0xbc346bba	-0.011012012
132	0x3d9cd6a0	0.07658124
133	0xbc09d2e6	-0.0084120985
134	0xbb9b1e50	-0.004733838
135	0x3c099f13	0.008399743
136	0x3ce5716c	0.028008185
137	0x3cc649b3	0.024205064
138	0xbbd6502c	-0.006540319
139	0xbd4c6264	-0.04989852
140	0xbdd442b4	-0.10364285
141	0x3d833797	0.06407087
142	0xbd76f335	-0.060290534
143	0xbdb1ad05	-0.08675579
144	0x3de99cdd	0.114068724
145	0xbc9eb49d	-0.019373232
146	0x3daaf791	0.08348001
147	0x3dac8fe2	0.08425881
148	0x3c8e68fa	0.017384041
149	0x3d562ad0	0.052286923
150	0xbc71c6e7	-0.014756895
151	0x3be197cb	0.00688455
152	0xbb46a427	-0.0030310245
153	0xba914fcb	-0.0011086402
154	0xbb7d550b	-0.0038655426
155	0x3cc703c6	0.024293792
156	0xbd3f0e0c	-0.046644256
157	0x3d7a1fc1	0.06106544
158	0xbd876610	-0.06611264
159	0xbd43ee01	-0.0478344
160	0x3d3e49bc	0.046457037
161	0xbc5dc05e	-0.013534633
162	0xbd1bc367	-0.038028147
163	0xbc31c92f	-0.010851189
164	0x3cd967e6	0.0265388
165	0xbd01e107	-0.031708743
166	0xbac2b816	-0.0014855887
167	0xbd856694	-0.06513706
168	0xbdb17c4d	-0.086662866
169	0x3d3fde02	0.046842583
170	0x3d99627c	0.074894875
171	0x38b9b9f6	8.856125e-05
172	0xbdc111bb	-0.0942721
173	0xbdb441af	-0.08801591
174	0xbd2b2584	-0.041783825
175	0xbd8558c8	-0.06511074
176	0xbde161a7	-0.11004954
177	0x3d56bb3d	0.052424658
178	0xbd97e96f	-0.07417571
179	0xbcb7c319	-0.022431897
180	0xbd0069a0	-0.03135073
181	0x3bdfcc96	0.0068298085
182	0xbd01e901	-0.03171635
183	0xbd31e81c	-0.043434247
184	0x3cab8c33	0.020940876
185	0xbd46d12c	-0.048539326
186	0x3cb1ed6e	0.02171966
187	0x3ce54a4d	0.027989531
188	0xbdd31bca	-0.10308035
189	0x3c9edd18	0.019392535
190	0x3cad1321	0.021127285
191	0x3d821841	0.06352282
192	0x3dfbc092	0.12292589
193	0x3db71c45	0.08940939
194	0xbd7fd04e	-0.062454514
195	0x3dadaa81	0.08479787
196	0x3d77af00	0.060469627
197	0xbdb17ff0	-0.0866698
198	0xbdbe7dc9	-0.09301335
199	0xbc391810	-0.011297241
200	0x3c624622	0.013810666
201	0x3d517d46	0.05114486
202	0x3d28ea0a	0.041238822
203	0xbdc0e07a	-0.094178155
204	0x3c80072a	0.015628416
205	0x3d4779fa	0.04870031
206	0xbd15a909	-0.036538158
207	0x3d121103	0.035660755
208	0xbdb3bd5d	-0.087763526
209	0x3c7f4592	0.015580552
210	0x3be0ca56	0.006860058
211	0x3cdbe08a	0.026840467
212	0x3becec06	0.0072302846
213	0x3be34e95	0.006936858
214	0xbd4255ec	-0.047445223
215	0xbda4eb1c	-0.08052656
216	0x3d8e2be6	0.06941967
217	0xbddf82f6	-0.10913651
218	0x3c2e9f10	0.010658041
219	0xbd459a43	-0.04824282
220	0xbc971c35	-0.018446067
221	0xbd651b2a	-0.05593411
222	0xbd2fc964	-0.04291667
223	0x3d90b689	0.07066066
224	0xbbdbf083	-0.006712021
225	0x3c183e8e	0.009292258
226	0xbdcb92fa	-0.09940143
227	0xbd96e9d6	-0.073688194
228	0xbceb8012	-0.028747592
229	0x3d5ecb2e	0.054392986
230	0x3d4d2dc2	0.050092466
231	0x3d4db54e	0.050221734
232	0x3ba2803d	0.004959135
233	0xbdc16e2f	-0.09444844
234	0xbd2017f3	-0.03908534
235	0xbd990a93	-0.0747272
236	0xbdae1cc1	-0.08501578
237	0xbb0174e3	-0.0019753508
238	0x3d33c759	0.043891285
239	0xbd918e90	-0.0710727
240	0xbd2a8357	-0.04162916
241	0xbd8e4163	-0.06946065
242	0xbd31ac75	-0.04337736
243	0xbd38e5fe	-0.045141213
244	0xbbc96acd	-0.006146765
245	0x3d52f033	0.051498603
246	0xbcd21db3	-0.025648927
247	0x3d00d183	0.031449806
248	0x3d1c8c47	0.038219716
249	0x3cb8c966	0.022556972
250	0xbbd9936f	-0.00663989
251	0xbdd45c99	-0.10369224
252	0xbd3da5c0	-0.04630065
253	0xbd0b589e	-0.03402006
254	0xbdc68dc2	-0.09695007
255	0x3d61c354	0.05511792

conv.3.bias f4 [32]
0	0xbd88a73e	-0.06672524
1	0xbd205813	-0.039146494
2	0xbd33b2c3	-0.043871652
3	0x3d476b8d	0.048686553
4	0xbda6ddb0	-0.08147752
5	0x3c4f6a34	0.012659598
6	0x3d5d93a0	0.054095864
7	0x3d8339cc	0.06407508
8	0x3b1743e6	0.0023081242
9	0xbd6b659c	-0.05746995
10	0xbd665ce6	-0.05624094
11	0x3d932d7b	0.07186409
12	0xbda678b6	-0.081284925
13	0xbd03e83c	-0.032203898
14	0xbd1e45d5	-0.038640816
15	0xbdd8a36d	-0.10578046
16	0xbd868fd5	-0.065704025
17	0xbd459b9d	-0.048244108
18	0x3d7ec6dc	0.062201366
19	0xbcd3226b	-0.025773248
20	0x3d85da78	0.0653581
21	0xbd4c7d5c	-0.04992424
22	0x3cba2186	0.022721063
23	0xbcc1b4d8	-0.023645803
24	0xbbba0b82	-0.0056776414
25	0x3c382709	0.011239775
26	0xbcb0cc4f	-0.021581797
27	0x3d396354	0.045260742
28	0xbd6e5d86	-0.05819466
29	0xbc929393	-0.017892634
30	0x3c7d1096	0.015445849
31	0xbc21e475	-0.009881129

conv.4.weight f4 [32]
0	0x3f794020	0.9736347
1	0x3f7926d9	0.973249
2	0x3f7c2d13	0.9850628
3	0x3f76cb8f	0.96404356
4	0x3f78c590	0.97176456
5	0x3f842e51	1.0326635
6	0x3f813341	1.0093766
7	0x3f839b89	1.028184
8	0x3f7f99d6	0.9984411
9	0x3f7e02a9	0.9922281
10	0x3f8189f1	1.0120221
11	0x3f80fa15	1.0076319
12	0x3f7f5550	0.9973955
13	0x3f818825	1.0119673
14	0x3f838874	1.0276017
15	0x3f807779	1.003646
16	0x3f826412	1.0186789
17	0x3f7f85ce	0.99813545
18	0x3f7d9777	0.9905924
19	0x3f7afbab	0.98040265
20	0x3f8128f3	1.0090622
21	0x3f830902	1.0237124
22	0x3f80338c	1.0015731
23	0x3f727512	0.94709885
24	0x3f7eeeb6	0.99582994
25	0x3f797abc	0.974529
26	0x3f7e9a17	0.9945387
27	0x3f7f7f3f	0.9980354
28	0x3f7bac94	0.9831021
29	0x3f8363f7	1.0264882
30	0x3f7f64b8	0.9976306
31	0x3f780f8c	0.9689872

conv.4.bias f4 [32]
0	0xbd002682	-0.031286724
1	0xbbdb4031	-0.006691002
2	0xbd0dbfac	-0.03460662
3	0xbbf134e3	-0.007361041
4	0xbc91ac5f	-0.017782388
5	0x3d2e466f	0.04254764
6	0x3c105cbe	0.008811174
7	0x3cd9b7cf	0.026576905
8	0x3c05e47e	0.008172153
9	0xbd131435	-0.035907943
10	0x3cf3f009	0.029777544
11	0x3c14bd43	0.009078327
12	0xbc0cae18	-0.008586429
13	0xbc7599d9	-0.014990293
14	0x3c886314	0.016648807
15	0xbd3eb7c4	-0.04656197
16	0xbc125053	-0.008930284
17	0xbc2215a8	-0.009892859
18	0xbb9e56d6	-0.004832129
19	0x3cb53f23	0.022124832
20	0xbb7be5b3	-0.0038436472
21	0xbc61e785	-0.013788109
22	0x3c86bad9	0.016446518
23	0xbd39b79a	-0.04534111
24	0xbc98ae32	-0.01863775
25	0xbd4627d8	-0.04837784
26	0xbc434483	-0.01191819
27	0xbad756e3	-0.0016429093
28	0xbd398abf	-0.045298334
29	0x3cfd0ab9	0.030888902
30	0xbc1928a2	-0.0093480665
31	0x3ad4ee2e	0.00162453

conv.4.running_mean f4 [32]
0	0xbe3f4a5c	-0.1868071
1	0x3d35de33	0.04440136
2	0xbe3bac05	-0.18327339
3	0x3e40f131	0.18842007
4	0xbe9877a5	-0.29778782
5	0xbe92479b	-0.28570256
6	0x3cc38c60	0.023870647
7	0x3d10e485	0.035374183
8	0x3e07e852	0.13272217
9	0x3de9029a	0.11377449
10	0xbd41963d	-0.04726242
11	0x3ee1c3f5	0.44094816
12	0xbe07dfaa	-0.13268915
13	0xbf008af7	-0.50212044
14	0x3ed2e426	0.41189688
15	0x3e038b75	0.12846167
16	0x3e71e548	0.2362262
17	0xbeb4b8e0	-0.35297298
18	0x3e20e6a1	0.15712978
19	0x3e814310	0.25246477
20	0xbf07fcfb	-0.5312039
21	0x3d397b67	0.0452837
22	0xbeaef54f	-0.3417153
23	0xbe1a9c4b	-0.15098684
24	0xbcc59a29	-0.02412136
25	0x3dfb42c8	0.12268597
26	0x3d1b8fc0	0.037978888
27	0xbef3de1b	-0.4763039
28	0x3e85dc27	0.26144525
29	0x3e32df13	0.17467909
30	0x3e76a086	0.24084672
31	0x3e065e99	0.13122024

conv.4.running_var f4 [32]
0	0x3e7c2221	0.24622394
1	0x3e1fa93b	0.155919
2	0x3e234652	0.15944794
3	0x3df566a4	0.11982468
4	0x3e2e60c3	0.17029099
5	0x3ea90ba9	0.33016708
6	0x3e338a8e	0.17533323
7	0x3ea03c0b	0.3129581
8	0x3e665051	0.22491576
9	0x3e8cf9ac	0.27534235
10	0x3ec7dec3	0.3903714
11	0x3ec009c5	0.37507454
12	0x3e356e6b	0.17717902
13	0x3ea9657f	0.33085248
14	0x3ee9837b	0.45608124
15	0x3e19a37a	0.15003768
16	0x3e24e05e	0.16101214
17	0x3e8b165d	0.271655
18	0x3e04543b	0.12922756
19	0x3e7689e5	0.2407604
20	0x3ed9e580	0.42557907
21	0x3e5aa092	0.21350315
22	0x3e9aec4c	0.30258405
23	0x3e9d1db4	0.30686724
24	0x3eb8f956	0.36127728
25	0x3e70768e	0.23482725
26	0x3e2581f2	0.16162851
27	0x3eb6c685	0.35698333
28	0x3e5da108	0.2164346
29	0x3eccd786	0.4000818
30	0x3e6dc158	0.23218286
31	0x3e1a64c4	0.15077502

conv.6.weight f4 [32, 32, 3, 3]
0	0xbd85df69	-0.06536753
1	0xbda45e0f	-0.08025753
2	0xbd299451	-0.04140121
3	0x3d0da5b9	0.034581874
4	0xbc56f950	-0.013120964
5	0xbcc5a38c	-0.024125837
6	0xbd350619	-0.04419527
7	0x3befad53	0.007314363
8	0x3d7b767c	0.061392292
9	0xbd3cfd46	-0.046139978
10	0xbd6bd472	-0.05757565
11	0xbc77ac28	-0.015116729
12	0xbdc7fa6a	-0.097645596
13	0x3c2740ea	0.010208348
14	0xbdc8b7ec	-0.09800705
15	0x3d21223a	0.03933928
16	0x3d9843bc	0.07434794
17	0x3ce33c9f	0.027738867
18	0x3d2eb417	0.042652216
19	0x3b907186	0.0044080643
20	0x3d697c0e	0.057003073
21	0x3c772058	0.015083395
22	0x3d207fa4	0.039184228
23	0xbb836754	-0.0040101204
24	0x3d17ec69	0.037090693
25	0xbc061625	-0.008183991
26	0x3d90bf9a	0.07067795
27	0x3c4444cc	0.011979293
28	0xbce63f8f	-0.028106479
29	0xbd84ab16	-0.064779446
30	0x3bfcf33c	0.0077194255
31	0x3d7499b1	0.059716884
32	0xbd6fd71b	-0.05855475
33	0xbc171f66	-0.009223795
34	0xbbe5a2df	-0.007007941
35	0xbd8aeed6	-0.067838356
36	0x3c10278d	0.008798492
37	0xbd0217d6	-0.031761013
38	0xbd278eaf	-0.040907558
39	0xbd33124d	-0.043718625
40	0x3d077bec	0.033077165
41	0xbcc6be7a	-0.024260748
42	0x3caaa662	0.02083129
43	0xbbab22ce	-0.005222655
44	0x3ce1e369	0.027574258
45	0xbd085a27	-0.0332891
46	0xbd09682f	-0.033546623
47	0xbce5db0f	-0.028058557
48	0x3d08006f	0.03320354
49	0xbcd8270d	-0.026385808
50	0xbd2d3989	-0.042291198
51	0xbda307e8	-0.07960492
52	0xbda100bf	-0.078614704
53	0x3c870eee	0.016486611
54	0x3c873657	0.016505403
55	0xbdfa858d	-0.12232504
56	0xbd00d7aa	-0.031455673
57	0xbdb1cb5f	-0.08681368
58	0xbd46d6ea	-0.0485448
59	0x3a518d13	0.0007993739
60	0x3ca92d77	0.020651562
61	0xbd0d25cd	-0.034459878
62	0xbd130545	-0.035893697
63	0xb9f8c7da	-0.00047451147
64	0xbcc8e388	-0.024522558
65	0xbd8dae02	-0.06917955
66	0x3d8a0103	0.06738474
67	0xbd3ef1b9	-0.046617243
68	0xbd6ac987	-0.057321098
69	0x3d0eb593	0.03484113
70	0xbd4dedb3	-0.050275516
71	0xbd49a359	-0.049228046
72	0xbcb0db40	-0.021588922
73	0xbd31a2bb	-0.043368082
74	0xbdb23abc	-0.08702609
75	0xbd1ec73c	-0.038764223
76	0xbd2f6d56	-0.04282888
77	0xbda55475	-0.080727495
78	0xbd90d77b	-0.0707235
79	0x3d76cb8b	0.060252707
80	0xbc9937e2	-0.018703405
81	0x3c8fb459	0.017542051
82	0x3c877898	0.016536996
83	0x3d0a16ce	0.033713154
84	0xbcc99271	-0.024605962
85	0xbd8b714e	-0.068087205
86	0xbda5791a	-0.08079739
87	0x3d3ba23d	0.04580902
88	0x3bf16a9b	0.0073674447
89	0xbce80e02	-0.028326992
90	0xbd4a640f	-0.04941183
91	0x3d68d636	0.056844912
92	0x3d602b89	0.05472902
93	0xbc37d534	-0.011220265
94	0x3dd39100	0.10330391
95	0x3ce85c6e	0.028364386
96	0xbdc6a89f	-0.09700131
97	0x3ca25607	0.019816412
98	0x3ccb7384	0.024835356
99	0xbd33ba6d	-0.04387896
100	0x3c61c3e9	0.013779619
101	0xbcbb4db3	-0.022864198
102	0x3d598026	0.053100727
103	0xbc5de290	-0.013542786
104	0x3c3ad359	0.011402928
105	0x3c6e249d	0.0145350965
106	0xbd2e9cb8	-0.042629927
107	0xbd7fcbc6	-0.062450193
108	0xbcf77e18	-0.030211493
109	0xbde0dedf	-0.10980009
110	0xbc11dd34	-0.008902837
111	0xbba82e76	-0.0051324917
112	0x3c4d1fce	0.01251979
113	0xbd32a17e	-0.043611042
114	0xbb7a38e4	-0.0038180882
115	0xbce72fbc	-0.028221004
116	0xbd0a5bb4	-0.03377886
117	0xbc21686b	-0.009851555
118	0x3c1bb9ef	0.009504779
119	0xbd772e21	-0.060346726
120	0xbba3cb32	-0.004998588
121	0x3c650c1d	0.013979939
122	0xbd3e04bd	-0.046391238
123	0xbd3f7dc3	-0.046750795
124	0x3c4bd5a1	0.01244107
125	0x3aca6e99	0.0015444338
126	0xbd3fc31d	-0.046816934
127	0xbdb8eabf	-0.09029149
128	0xbdbbaf48	-0.091642916
129	0xbc3ebd18	-0.011641763
130	0xbd349e1a	-0.04409609
131	0xba96a658	-0.0011493666
132	0xbd68ba22	-0.056818135
133	0xbd077ec5	-0.03307988
134	0xbc8734ec	-0.016504727
135	0xbc9f9c19	-0.019483613
136	0x3b07c49f	0.002071656
137	0xbc61178e	-0.013738526
138	0x3cc9fbf4	0.024656273
139	0xbda3d911	-0.080003865
140	0xbc477c67	-0.012175656
141	0x3d9c1bc9	0.07622487
142	0x3c9abea1	0.018889727
143	0xbdac615c	-0.08417007
144	0x3cb98952	0.022648487
145	0xbd09dadf	-0.033655997
146	0xbd7d368d	-0.0618196
147	0x3d1f0de2	0.0388316
148	0xbce35f5c	-0.027755432
149	0xbd9c4b86	-0.076315925
150	0xbcfce03f	-0.030868648
151	0x3d3f611c	0.04672347
152	0x3c883358	0.016626045
153	0xbb0aa31e	-0.0021154354
154	0x3c8eff92	0.01745585
155	0xbb055d98	-0.0020349976
156	0xbd96d6b7	-0.07365172
157	0xbd05efab	-0.03269927
158	0x3cfdc8f2	0.030979607
159	0xbd8febe6	-0.07027416
160	0x3ceab2b7	0.028649671
161	0x3d4348d1	0.047676865
162	0xbd8c539e	-0.06851886
163	0x3c6d88cd	0.014497948
164	0xbd7191b9	-0.058976863
165	0xbd34e967	-0.044167902
166	0x3d13add5	0.03605445
167	0xbda3cfaa	-0.07998593
168	0xbd7525c6	-0.059850477
169	0x3d355de1	0.044278983
170	0xbc06fa92	-0.008238452
171	0xbcfeb899	-0.031093882
172	0x3c52438f	0.01283349
173	0xbda1f897	-0.07908743
174	0x3c840d0e	0.016119506
175	0xbb3b033b	-0.002853586
176	0xbd1f8cdd	-0.038952697
177	0x3c556051	0.013023452
178	0x3d478b8c	0.048717067
179	0x3d2c38f1	0.04204649
180	0xbc6b7f60	-0.01437363
181	0xbc90aee3	-0.017661517
182	0xbd150308	-0.036379844
183	0xbd07f7dd	-0.033195365
184	0xbd86c4f1	-0.06580532
185	0x3cb6cfd0	0.02231589
186	0x3c51d69e	0.012807516
187	0xbbcb40a8	-0.006202776
188	0x3d7aa969	0.06119672
189	0xbbc35944	-0.005961569
190	0xbccafb25	-0.024777958
191	0xbdaf46a3	-0.08558395
192	0xbc9afa26	-0.018918108
193	0xbc159866	-0.009130573
194	0x3c497496	0.012295863
195	0xbde38308	-0.111089766
196	0xbd7d429e	-0.06183111
197	0xbdafac92	-0.08577837
198	0xbd29e285	-0.04147579
199	0xbc132bb8	-0.008982591
200	0x3cad09f0	0.021122903
201	0x3d233164	0.039842024
202	0xbcd9b4ca	-0.026575465
203	0xbd3e38e5	-0.046440978
204	0xbded35eb	-0.1158255
205	0x3c3f9723	0.011693749
206	0xbd985128	-0.07437354
207	0x3c28e504	0.010308508
208	0x3bfd4aea	0.0077298777
209	0xbd0c0614	-0.034185484
210	0xbd86e8d8	-0.0658738
211	0x3ca46cf8	0.020071492
212	0x3c4c8314	0.012482423
213	0xbcc9e169	-0.024643617
214	0x3c562ac8	0.013071723
215	0xba808eba	-0.0009808161
216	0xbd39ce11	-0.045362536
217	0xbab74878	-0.0013983389
218	0xbd9a4190	-0.07532036
219	0xbc917834	-0.017757513
220	0xbd380ce2	-0.04493416
221	0xbc94cc6a	-0.018163878
222	0x3c56c454	0.013108332
223	0xbd11a673	-0.03555913
224	0x3d041ef3	0.032256078
225	0xbd2dd20b	-0.04243664
226	0xbc688031	-0.014190719
227	0xba49b149	-0.0007693959
228	0xba447490	-0.0007494176
229	0x3d4d1368	0.050067335
230	0xbcab67a4	-0.020923443
231	0xbda55ad0	-0.08073962
232	0x3c8c198e	0.01710203
233	0x3cdf79fb	0.027279845
234	0xbddac365	-0.106818
235	0xbd803287	-0.06259637
236	0xbbce0272	-0.0062869126
237	0xbcef7ad0	-0.029233366
238	0x3a9db8ab	0.0012033185
239	0xbd8f6e4a	-0.07003458
240	0xbd29d443	-0.041462194
241	0x3d5a9be4	0.053371325
242	0x3c9059e4	0.017620988
243	0xbc2d59b9	-0.010580474
244	0x3d550738	0.052008837
245	0xbd11569b	-0.035482984
246	0xbc3195f6	-0.010838976
247	0xbd2e9409	-0.042621646
248	0x3d9ebebe	0.07751225
249	0x3d8fdcbb	0.07024523
250	0xbc324849	-0.010881492
251	0x3cd8e3c9	0.026475804
252	0xbd81cd8f	-0.06338035
253	0xbc9d1e79	-0.01917957
254	0xbdc91b2b	-0.09819635
255	0x3c84cbd6	0.016210478

conv.6.bias f4 [32]
0	0xbd1e7f98	-0.0386959
1	0x3bdf397b	0.006812272
2	0xbbbd8400	-0.005783558
3	0x3a88787a	0.0010411881
4	0xbd891790	-0.06693947
5	0xbd9e26f4	-0.077222735
6	0x3cff17b2	0.031139228
7	0x3cdd40d3	0.02700845
8	0x3b2d9562	0.0026486744
9	0x3cda31d6	0.026635092
10	0x3bdf2894	0.006810257
11	0x3d2a03ac	0.041507408
12	0xbc8932d8	-0.016747877
13	0x3d23d274	0.039995626
14	0xbd6bebe4	-0.05759801
15	0xbc543fa6	-0.012954628
16	0xbc4926cd	-0.012277317
17	0xbc4cd1e0	-0.01250121
18	0xbcfb2b35	-0.030660251
19	0xbd03fb19	-0.032221887
20	0xbcf50f4d	-0.029914523
21	0xbbaf930e	-0.0053581065
22	0xbd9696d3	-0.07352986
23	0xbbba3bff	-0.0056834216
24	0xbd3c9cf1	-0.04604811
25	0xbc0b3cb5	-0.00849836
26	0x3d0360be	0.032074682
27	0x3ccf93e6	0.025339078
28	0x3c1eb2a2	0.009686144
29	0x3d89aa23	0.06721904
30	0x3d933ff4	0.071899325
31	0x3d0cc241	0.034364942

conv.7.weight f4 [32]
0	0x3f81a046	1.0127037
1	0x3f861590	1.047533
2	0x3f754454	0.95807385
3	0x3f7ccc39	0.9874912
4	0x3f72d458	0.9485526
5	0x3f7f4a9f	0.9972324
6	0x3f8516b4	1.0397553
7	0x3f82a183	1.020554
8	0x3f7b8e43	0.9826395
9	0x3f78ef27	0.9723992
10	0x3f7bb1d5	0.98318225
11	0x3f7df035	0.9919465
12	0x3f77d4ab	0.9680888
13	0x3f851643	1.0397419
14	0x3f7da457	0.9907889
15	0x3f829536	1.0201786
16	0x3f818d7d	1.0121304
17	0x3f810898	1.0080748
18	0x3f7a0962	0.9767057
19	0x3f75e35e	0.9605006
20	0x3f737125	0.9509452
21	0x3f7f15d6	0.99642694
22	0x3f79a74a	0.9752089
23	0x3f7c54e3	0.98567027
24	0x3f7e33d1	0.99297816
25	0x3f7c0b76	0.9845499
26	0x3f772417	0.96539444
27	0x3f84ed0c	1.0384841
28	0x3f806855	1.003184
29	0x3f7a4e44	0.97775674
30	0x3f81779d	1.0114628
31	0x3f7f4852	0.9971973

conv.7.bias f4 [32]
0	0xbcafc1c1	-0.021454694
1	0x3caf9344	0.021432526
2	0xbd6b8517	-0.05749997
3	0xbc81d5ae	-0.01584896
4	0xbd24af7e	-0.040206425
5	0xbac9061a	-0.0015336901
6	0x3cc803dd	0.024415905
7	0x3cdb766e	0.02678987
8	0xbcbcf9a4	-0.023068257
9	0xbd42d966	-0.04757061
10	0xbd25f719	-0.040518854
11	0xbb252978	-0.002520172
12	0xbd83946b	-0.06424793
13	0x3c98cd21	0.0186525
14	0xbda557d4	-0.080733925
15	0x3ca053c4	0.019571193
16	0xbb8cc1a4	-0.0042955447
17	0x3cbb49c0	0.022862315
18	0xbd04a431	-0.032383148
19	0xbd65b938	-0.05608484
20	0xbd8fbac6	-0.07018046
21	0xbca461f8	-0.020066246
22	0xbcc7d3a6	-0.024392914
23	0xbcaada48	-0.020856038
24	0xbd65ea6c	-0.056131765
25	0xbd064785	-0.03278305
26	0xbc166817	-0.00918009
27	0x3bb13d1e	0.005408897
28	0x3b1e2798	0.0024132486
29	0x3be25518	0.0069071166
30	0xbc08b573	-0.008344042
31	0xbc92e7af	-0.017932741

conv.7.running_mean f4 [32]
0	0xbdb8846b	-0.09009632
1	0xbe9805a3	-0.296918
2	0x3ebc8ef6	0.3682782
3	0xbca2748a	-0.01983096
4	0xbe8c68db	-0.27423748
5	0xbd61951e	-0.05507385
6	0xbeee94ef	-0.46598002
7	0x3d94ed2f	0.07271802
8	0x3ee43874	0.4457432
9	0x3ecdec58	0.40219378
10	0x3e0581f9	0.13037862
11	0x3e75c449	0.24000658
12	0x3ee011cd	0.4376358
13	0x3e063a24	0.13108116
14	0xbe3b39d8	-0.18283784
15	0xbe0397a7	-0.1285082
16	0xbf0f2207	-0.55911297
17	0xbed90579	-0.42386988
18	0xbe061336	-0.13093266
19	0xbe57d930	-0.21078944
20	0xbeb7b844	-0.3588277
21	0x3efadc65	0.48996273
22	0xbed5c381	-0.4175072
23	0xbd0109f2	-0.031503625
24	0xbe56ad9f	-0.20964669
25	0x3eaad809	0.33367947
26	0xbe5d218d	-0.2159483
27	0x3e82aa78	0.25520682
28	0xbdcde9e5	-0.100543775
29	0xbe9169c0	-0.28400993
30	0x3f0010a5	0.500254
31	0x3a3c1d01	0.0007175953

conv.7.running_var f4 [32]
0	0x3f066463	0.5249693
1	0x3f1d1233	0.61355895
2	0x3f3bf45e	0.7341975
3	0x3ea792fb	0.32729325
4	0x3e9c8aa4	0.30574524
5	0x3e98b573	0.29825935
6	0x3eabde7c	0.3356818
7	0x3ea17625	0.3153545
8	0x3ebf0425	0.3730785
9	0x3ec0c3ac	0.37649286
10	0x3e8019ae	0.25019592
11	0x3ec8b1f1	0.3919826
12	0x3e8d291c	0.27570426
13	0x3ec96d42	0.3934117
14	0x3e63e8a6	0.22256717
15	0x3ef54761	0.4790602
16	0x3ee66549	0.4499915
17	0x3ebc3c6e	0.36764854
18	0x3e7b9fb8	0.24572647
19	0x3f0153c2	0.5051843
20	0x3ecd8836	0.40142983
21	0x3ed19afc	0.40938556
22	0x3eac059f	0.3359804
23	0x3e80c4ae	0.25150055
24	0x3e911851	0.28338864
25	0x3ed219f2	0.4103542
26	0x3ec261b8	0.37965178
27	0x3ef9563e	0.4869861
28	0x3eedcdd0	0.46446085
29	0x3f19c15e	0.6006068
30	0x3ed3ee42	0.41392714
31	0x3ea3c63c	0.31987178

conv.9.weight f4 [32, 32, 3, 3]
0	0xbbae2a6e	-0.0053151166
1	0xbd65ed02	-0.05613423
2	0xbce1fbcf	-0.027585892
3	0x3d22f8ee	0.03978818
4	0x3c13956f	0.009007796
5	0x3cd8ee94	0.02648095
6	0xbc8e0ea8	-0.017340973
7	0xb9a487dc	-0.0003138174
8	0x3cedd13c	0.029030435
9	0xbc4deb0b	-0.012568246
10	0xbb5a67dd	-0.0033326067
11	0x3b4d7dd3	0.0031355515
12	0xbd42dfd3	-0.047576737
13	0xbd727bfc	-0.059200272
14	0xbd7e567a	-0.06209419
15	0x3bea0655	0.007141868
16	0x3bea5ebd	0.007152407
17	0x3ca6f586	0.020380747
18	0x3c4bf4ea	0.012448529
19	0xbcb8c11d	-0.022553021
20	0xbd513673	-0.051077317
21	0xbd5c1aa1	-0.053736333
22	0x3cd48d4a	0.025946278
23	0xbc6c2fea	-0.0144157205
24	0xbd84f554	-0.06492105
25	0x3811e17f	3.4780704e-05
26	0xbb9bd001	-0.0047550206
27	0xbd27bc77	-0.04095122
28	0xbda64f52	-0.08120598
29	0x3d58ca9f	0.05292761
30	0xbd7a2e37	-0.06107923
31	0x3c57c01e	0.013168363
32	0xbd0241ed	-0.031801153
33	0x3be15b95	0.0068773725
34	0xbd61dc42	-0.055141695
35	0xbad1ac4e	-0.0015996785
36	0xbd770a53	-0.06031258
37	0xbb91e650	-0.004452504
38	0xbd9934eb	-0.074807964
39	0xbc34f04e	-0.011043621
40	0xbc01c380	-0.007920146
41	0x3c14ccab	0.009082
42	0xbd0cdc5a	-0.03438983
43	0xbd1be703	-0.038062107
44	0xbb6bc6ce	-0.003597665
45	0xbddf7852	-0.10911621
46	0x3c366d03	0.011134389
47	0x3d232223	0.039827477
48	0xbd4f0dc6	-0.050550245
49	0xbd839631	-0.06425131
50	0xbcf5eae3	-0.03001923
51	0xbc092cca	-0.008372495
52	0xbd7bfc83	-0.06152011
53	0x3ca555ef	0.020182578
54	0xbdbaeab8	-0.091268
55	0x3c0a882a	0.008455316
56	0xbdd91aca	-0.10600813
57	0xbcc38b11	-0.023870023
58	0xbbcb0ae1	-0.006196365
59	0xbd5c972d	-0.05385511
60	0x3bf0d052	0.0073490525
61	0xbd19b693	-0.037527632
62	0xbd379394	-0.044818476
63	0xbd0f405e	-0.034973495
64	0xbd856b4f	-0.06514608
65	0xbd8c8e6b	-0.068631016
66	0xbc700d52	-0.014651613
67	0xbcd0ae60	-0.025473773
68	0xbc553f69	-0.013015606
69	0x3c9f9d2b	0.019484123
70	0xbcb843e3	-0.022493308
71	0x3d936a71	0.071980365
72	0xbb9fd607	-0.004877809
73	0xbbbb69b6	-0.005719389
74	0xbd93b82d	-0.07212863
75	0x3c13d8b9	0.009023839
76	0x3c50c583	0.012742403
77	0xbcb0fdd0	-0.021605402
78	0x3b786ead	0.0037907765
79	0xbd077c00	-0.03307724
80	0xbbedf31e	-0.007261648
81	0xbd08f32e	-0.03343504
82	0xbc95299e	-0.018208321
83	0x3cb768d4	0.022388853
84	0xbcc7b5db	-0.024378708
85	0xbd33111e	-0.043717496
86	0xbd88c256	-0.06677692
87	0x3d6da02c	0.05801408
88	0xbc9d407b	-0.019195786
89	0xbd42f833	-0.047599982
90	0xbc661d6f	-0.014045103
91	0xbd466588	-0.04843667
92	0xbdd6edaf	-0.10494553
93	0xbd93d0d2	-0.07217564
94	0x3a56d445	0.0008195083
95	0x3c077711	0.008268134
96	0x3d3bb468	0.045826346
97	0xbc97b090	-0.018516809
98	0x3d9933f0	0.074806094
99	0xbda675a3	-0.08127906
100	0xbd27865a	-0.040899612
101	0x3cb73526	0.02236421
102	0xbcab2359	-0.020890879
103	0x3cefdc54	0.029279865
104	0xb99cef06	-0.00029932725
105	0x3b217cd3	0.0024641051
106	0xbcc6488c	-0.024204515
107	0xbdb79ce9	-0.08965475
108	0xbdb86372	-0.09003343
109	0xbcf06863	-0.02934665
110	0x3d2c68cf	0.04209214
111	0xbd2c04df	-0.041996833
112	0xbc528425	-0.0128488885
113	0xbd5bd4cf	-0.053669747
114	0xbd170820	-0.036872983
115	0x3d273ca4	0.040829316
116	0xbd88c72a	-0.066786125
117	0xbd4e054f	-0.05029803
118	0xbccbbfb4	-0.024871685
119	0xbd8f52bb	-0.069982015
120	0x3ca0dff8	0.019638047
121	0xbd3a5c76	-0.045498334
122	0xbca97e28	-0.020690039
123	0xbda4ca75	-0.08046428
124	0xbdbc75b4	-0.092021376
125	0xbd54d5cc	-0.051961705
126	0x3befb22c	0.007314941
127	0x3d8b3bc9	0.067985125
128	0x3c7e25b7	0.015511922
129	0xbb882733	-0.0041550635
130	0x3c2dc3b8	0.010605745
131	0x3ca64734	0.020297624
132	0x3d9c8ccd	0.07644043
133	0x3d13e05b	0.036102634
134	0xbd88892f	-0.06666791
135	0x3c926df8	0.017874703
136	0xbd1fca6e	-0.03901141
137	0xbcfb4639	-0.030673133
138	0xbd63cde9	-0.055616293
139	0xbca4aded	-0.020102466
140	0xbe049357	-0.1294683
141	0xbd94b30f	-0.07260715
142	0xbdb11583	-0.08646681
143	0xbcbcb5f3	-0.023035979
144	0xbc914237	-0.017731769
145	0xbc661b47	-0.014044589
146	0x3bd2f984	0.006438436
147	0xbc4dfadf	-0.012572019
148	0xbd32db36	-0.043666087
149	0xbd09ff4d	-0.03369074
150	0xbccf6a7e	-0.025319334
151	0xbda26ace	-0.079305276
152	0xbd10b2f0	-0.035326898
153	0xbd8d1808	-0.06889349
154	0xbcd38167	-0.02581854
155	0x3d3146a6	0.043280266
156	0xbc499b88	-0.012305148
157	0xbd2b30a0	-0.04179442
158	0xbbe62ee1	-0.0070246314
159	0xbd097350	-0.033557236
160	0xbd69f817	-0.057121363
161	0xbd81c150	-0.063356996
162	0xbd906c2b	-0.070518814
163	0xbd72d77e	-0.05928754
164	0xbd166887	-0.03672078
165	0x3aad8b61	0.0013240391
166	0xbc7c550c	-0.015401136
167	0x3d13083c	0.035896525
168	0xbd9f3ef9	-0.07775683
169	0x3d2109dc	0.039316043
170	0x3c1a8d71	0.009433136
171	0xbbbba3b8	-0.005726304
172	0xbbfe9286	-0.007768932
173	0xbcf5f85a	-0.03002565
174	0xbd30a342	-0.043124445
175	0xbdbffa01	-0.09373856
176	0x3d09a5da	0.033605434
177	0xbd78fda6	-0.060788773
178	0x3d2b4aad	0.041819263
179	0xbd4f168e	-0.05055862
180	0xbd61371f	-0.05498421
181	0x3cb10edc	0.02161353
182	0x3b75f500	0.0037530065
183	0x3d51fa21	0.051263932
184	0xbd050152	-0.032471962
185	0xbce893c3	-0.02839077
186	0x39e56d50	0.00043759728
187	0x3d339035	0.0438387
188	0xbcddcf7a	-0.027076472
189	0xbd2ae021	-0.041717652
190	0xbda77f27	-0.08178549
191	0xbd382a68	-0.044962317
192	0xbd5885a8	-0.05286184
193	0x3b54bc3e	0.0032460834
194	0xb9974019	-0.0002884872
195	0xbcb316fe	-0.02186155
196	0x3a594255	0.00082877773
197	0xbd78ae37	-0.06071302
198	0xbcb22f3e	-0.021751042
199	0xbd1213ee	-0.035663538
200	0xbd386e51	-0.04502708
201	0x3d789cee	0.060696535
202	0xbd81a40c	-0.063301176
203	0xbd72e76d	-0.059302736
204	0xbd898149	-0.06714112
205	0x3cf66686	0.030078184
206	0xbd1fb579	-0.038991425
207	0xbd474e5c	-0.048658714
208	0xbc865aa0	-0.016400635
209	0xbc107442	-0.0088167805
210	0xbd7b2ce2	-0.0613221
211	0x3cd21b7d	0.025647873
212	0xbd8a4158	-0.067507446
213	0x3c83181c	0.016002707
214	0x3c6765e4	0.014123414
215	0x3bb09212	0.0053885067
216	0x3d41dc2f	0.047329124
217	0xbc1d95f5	-0.009618272
218	0x3c606924	0.0136969425
219	0x3c77bfee	0.015121443
220	0xb9c866db	-0.00038223606
221	0xbd7075b4	-0.058706
222	0x3c0508b1	0.008119748
223	0x3d690c27	0.056896355
224	0x3db0e379	0.08637137
225	0xbd136b51	-0.035991017
226	0xbd06b963	-0.032891642
227	0xbcab04e0	-0.020876348
228	0x3ca488b1	0.02008471
229	0x3d05e2f7	0.032687154
230	0xbb479009	-0.0030450842
231	0xbc7247db	-0.0147876395
232	0xbd26e0a5	-0.04074158
233	0xbd9d3c4b	-0.076775156
234	0xbdb437cd	-0.08799706
235	0xbcaef61f	-0.021357594
236	0xbc679110	-0.014133707
237	0x3ce44f43	0.027869826
238	0x3c8a02ff	0.016847132
239	0xbd727100	-0.059189796
240	0xbba105ea	-0.004914035
241	0xbd8d8db9	-0.06911797
242	0xbc81708d	-0.015800739
243	0x3bdb75bd	0.006697385
244	0x3bbc0656	0.00573806
245	0xbc99fb73	-0.018796658
246	0x3bbbc372	0.005730086
247	0x39df67a6	0.000426111
248	0x3c6c8c77	0.014437786
249	0xbd455fca	-0.048187055
250	0xbd0249ad	-0.031808544
251	0x3d1c7147	0.038193967
252	0x3b0f5cba	0.0021875338
253	0xbd2c98d1	-0.042137925
254	0xbdaf8052	-0.08569397
255	0x3ce9062c	0.028445326

conv.9.bias f4 [32]
0	0x3bb72415	0.005589018
1	0xbc9f403a	-0.019439805
2	0x3bb24a04	0.0054409523
3	0xbcfbaa64	-0.030720897
4	0xbd28b9e2	-0.041192897
5	0xbd164d86	-0.036695026
6	0xbd95d814	-0.07316604
7	0x3d8e293f	0.06941461
8	0xbd52c0aa	-0.05145327
9	0xbc03f8ee	-0.008054955
10	0x3c5fa581	0.013650299
11	0x3d58fdb1	0.052976314
12	0x3d204c68	0.039135367
13	0xbc807a15	-0.015683213
14	0x3c9f9f62	0.01948518
15	0xbc509d25	-0.012732779
16	0x3d6c1d1b	0.057644945
17	0xbc9fa621	-0.019488396
18	0xbc8f9753	-0.017528212
19	0x3b3eae3c	0.002909555
20	0xbd61d9bf	-0.0551393
21	0xbcb44c85	-0.022009144
22	0xbd889fd7	-0.06671112
23	0xbc981df4	-0.01856897
24	0x3c9244ef	0.017855136
25	0x3d940b13	0.07228675
26	0x3933e7d0	0.00017157127
27	0x3d18f47a	0.037342526
28	0x3d781384	0.060565487
29	0xbc200df4	-0.009768952
30	0x3cb58ec6	0.022162806
31	0xbcdedbb9	-0.027204381

conv.10.weight f4 [32]
0	0x3f7bd45a	0.983709
1	0x3f804419	1.0020782
2	0x3f7fb086	0.9987873
3	0x3f7e385c	0.9930475
4	0x3f78d962	0.972067
5	0x3f82ffac	1.0234275
6	0x3f7b0a05	0.98062164
7	0x3f80ac00	1.005249
8	0x3f7c1686	0.9847187
9	0x3f7f8ca7	0.99823993
10	0x3f78cad8	0.97184515
11	0x3f7cea63	0.98795146
12	0x3f81a6e3	1.0129055
13	0x3f7bfbc8	0.9843106
14	0x3f80eeb7	1.007285
15	0x3f843df8	1.0331411
16	0x3f853a30	1.0408382
17	0x3f7ff3c6	0.99981344
18	0x3f79b572	0.9754249
19	0x3f7f94c0	0.9983635
20	0x3f7b3357	0.98125213
21	0x3f78b085	0.9714435
22	0x3f78fd75	0.97261745
23	0x3f7b64e8	0.98200846
24	0x3f7d063d	0.98837644
25	0x3f814adf	1.0100974
26	0x3f71599f	0.94277376
27	0x3f7a8984	0.9786608
28	0x3f8271cf	1.0190982
29	0x3f80223d	1.0010449
30	0x3f7e9dbe	0.99459445
31	0x3f7df7f0	0.9920645

conv.10.bias f4 [32]
0	0xbd7a170a	-0.061057128
1	0x3bea7dec	0.0071561243
2	0xbc6d7593	-0.014493364
3	0xbcbad7ed	-0.02280804
4	0xbd944d51	-0.072413094
5	0xbb037790	-0.0020060278
6	0xbd1abc06	-0.03777697
7	0xbd0dd23e	-0.03462433
8	0xbda7f62e	-0.08201252
9	0xbcceca8d	-0.025243068
10	0xbc487495	-0.012234827
11	0xbb9a615d	-0.0047113136
12	0x3cd2ab88	0.025716558
13	0xbd353698	-0.044241518
14	0xbbb7b29e	-0.0056060096
15	0x3d07af10	0.033125937
16	0x3c7825f2	0.015145766
17	0xbceb7ab4	-0.028745033
18	0xbd421792	-0.04738576
19	0xbb818c0e	-0.0039534634
20	0xbd23449b	-0.03986035
21	0x3bc1a88a	0.005909984
22	0xbce71687	-0.028208984
23	0xbce9aac6	-0.028523814
24	0x3c23bcb9	0.009993725
25	0xbc891b54	-0.016736664
26	0xbcadce93	-0.021216666
27	0xbcbf4a7a	-0.023350943
28	0xbcd274cb	-0.025690457
29	0x3af54e46	0.0018715344
30	0xbd79cd37	-0.060986724
31	0xbbc58bec	-0.006028643

conv.10.running_mean f4 [32]
0	0x3d8d30a9	0.06894047
1	0xbed8c49e	-0.42337507
2	0x3f0cbc21	0.5497456
3	0x3c52ad2f	0.012858673
4	0x3dd47107	0.10373121
5	0x3e882ab5	0.26595083
6	0xbef1e9a4	-0.47248566
7	0x3f3171df	0.6931438
8	0x3e87b2b7	0.26503536
9	0xbe466991	-0.19376208
10	0x3d0da0e2	0.034577258
11	0x3e013e78	0.12621486
12	0xbec98990	-0.39362764
13	0x3d0b09e4	0.03394498
14	0x3e4b397d	0.19846149
15	0xbe318a29	-0.1733786
16	0xbeb95ebe	-0.36205095
17	0xbe8031fc	-0.25038135
18	0xbf0bbf0c	-0.5458839
19	0x3eb5e0cd	0.35523072
20	0xbe962f3a	-0.29332906
21	0xbd0e52f4	-0.03474708
22	0xbe862239	-0.26197985
23	0x3cc36617	0.023852391
24	0x3edf4bc5	0.43612495
25	0x3d9a6c8f	0.07540237
26	0xbcc8ef40	-0.024528146
27	0xbe00d3b2	-0.12580755
28	0x3eb9713a	0.36219198
29	0x3dcb3003	0.09921267
30	0xbd2ecf23	-0.04267801
31	0xbf862a3a	-1.0481637

conv.10.running_var f4 [32]
0	0x3ea0104c	0.31262434
1	0x3ef94fee	0.48693794
2	0x3f1dfa6f	0.61710256
3	0x3eb05a51	0.34443906
4	0x3e7f2e70	0.24920058
5	0x3ecc57aa	0.39910632
6	0x3eb3e94c	0.3513893
7	0x3edb4632	0.42826992
8	0x3e96c095	0.29443803
9	0x3ef171aa	0.4715703
10	0x3e9e9292	0.309712
11	0x3ef1fc6f	0.47262904
12	0x3fa94e71	1.3227063
13	0x3e6514ca	0.22371212
14	0x3ebddc3b	0.37082085
15	0x3f47e163	0.7807829
16	0x3e71cdee	0.23613712
17	0x3ea1cd8a	0.31602126
18	0x3ec3eedb	0.3826817
19	0x3ef2f14d	0.47449723
20	0x3e9adc66	0.30246276
21	0x3f180694	0.5938504
22	0x3e840610	0.25785875
23	0x3eb12171	0.34595826
24	0x3eb58ed4	0.35460532
25	0x3f063bd5	0.52435046
26	0x3eafb428	0.34317136
27	0x3e720c6b	0.2363755
28	0x3ed2f1f8	0.41200233
29	0x3eef451a	0.46732408
30	0x3e9ca06e	0.30591148
31	0x3fafb29e	1.3726385

conv.12.weight f4 [32, 32, 3, 3]
0	0x3d788cd6	0.060681187
1	0x3cf9ec1a	0.03050809
2	0xbd148f6a	-0.036269583
3	0x3bf30b84	0.0074171443
4	0x3cf56107	0.029953493
5	0xbceb7316	-0.0287414
6	0xbdc3a7f3	-0.09553518
7	0xbc9e331e	-0.019311484
8	0xbd76d33f	-0.060260054
9	0x3ceb440d	0.028718973
10	0x3d2ef931	0.042718116
11	0xbd2b4993	-0.041818213
12	0x3c52b6cb	0.012860964
13	0xbd336c0b	-0.04380421
14	0xbc7eaa4b	-0.015543531
15	0x3cd5ad4e	0.026083615
16	0xbd5dbd6b	-0.05413572
17	0xbc4093c7	-0.011753983
18	0x3d4ba5f9	0.04971883
19	0x3d90b6d9	0.070661254
20	0x3d70d56c	0.058797285
21	0xbd2cc4cb	-0.042179864
22	0x3d796d2c	0.06089513
23	0x3cd63339	0.026147472
24	0xbd6d87e0	-0.05799091
25	0x3d833479	0.06406493
26	0x3cee024f	0.029053835
27	0x3ce14b42	0.027501706
28	0xbc401fe5	-0.011726354
29	0x3cbbbf38	0.022918329
30	0x3d2d2b37	0.04227754
31	0xbcbba77c	-0.022907011
32	0x3c0f14a2	0.008732947
33	0xbdaa77d1	-0.083236344
34	0xbd3f1b39	-0.04665682
35	0xbc29bbc7	-0.010359711
36	0xbd74de06	-0.05978205
37	0x3d248dcf	0.0401743
38	0xbd90ac81	-0.070641525
39	0xbb0f052e	-0.0021823156
40	0xbca8f8e1	-0.020626487
41	0x3bd135bb	0.006384579
42	0x3d8d0ea3	0.06887557
43	0x3d17da08	0.037073165
44	0x3d6d4061	0.057922725
45	0xbcbd5405	-0.023111353
46	0x3d0f5118	0.034989446
47	0xbc2344c4	-0.0099651255
48	0xbd00c17a	-0.031434514
49	0x3cf3781f	0.029720364
50	0xbd4fa16a	-0.050691046
51	0xbd874040	-0.066040516
52	0x3d0615a3	0.032735478
53	0xbd8a08eb	-0.06739982
54	0xbc8646a4	-0.016391106
55	0xbc3095bd	-0.010777888
56	0xbd9020b5	-0.07037488
57	0x3d05efef	0.03269952
58	0xbd681548	-0.05666092
59	0x3abeb216	0.0014548923
60	0xbd177b67	-0.03698292
61	0xbd6bf32c	-0.057604954
62	0xbd54a74d	-0.051917363
63	0xbd517a14	-0.051141813
64	0xbd5edc30	-0.054409206
65	0x3c53bf03	0.012923959
66	0x3d4e45d8	0.050359577
67	0xbd1c82eb	-0.03821079
68	0xbccea219	-0.025223779
69	0xbd3ed9bb	-0.046594363
70	0x388e6937	6.7906854e-05
71	0xbd199a78	-0.03750083
72	0xbc5d454e	-0.013505293
73	0x3cc86572	0.024462435
74	0x3d7f354a	0.06230668
75	0xbd402752	-0.0469125
76	0x3c8b86ff	0.017032145
77	0xbcfedbfd	-0.031110758
78	0xbc14a6c8	-0.009072967
79	0x3db3d51e	0.08780883
80	0xbc2433c8	-0.010022111
81	0x3d545707	0.05184081
82	0x3d4ff855	0.050773937
83	0x3cdea9c0	0.027180552
84	0xbc0c20b5	-0.00855272
85	0x3d35b1ba	0.044358946
86	0x3aeab10a	0.0017905545
87	0x3d615687	0.05501416
88	0x3cb150b7	0.021644933
89	0x3c0ba349	0.008522817
90	0x3d6720dc	0.05642782
91	0x3ca73777	0.02041219
92	0x3d03adb4	0.032148078
93	0xbd1c63fb	-0.038181286
94	0x3d17b44c	0.03703718
95	0x3d2da4a2	0.042393334
96	0x3ba0d560	0.004908249
97	0x3d5b8258	0.053591102
98	0x3d8f32d6	0.06992118
99	0xbd92ed78	-0.071742
100	0xbdcbe753	-0.09956231
101	0xbda0c6d0	-0.078504205
102	0xbc5d8793	-0.013521093
103	0xbcd90e9d	-0.026496226
104	0x3c83e891	0.016102107
105	0x3d027e5f	0.031858798
106	0xbd8a0982	-0.06740095
107	0xbd998086	-0.07495217
108	0xbca6f094	-0.020378388
109	0x3d1dc474	0.03851743
110	0xbd58ac2e	-0.05289858
111	0x3d28d26d	0.041216303
112	0xbcde2359	-0.027116464
113	0x3d5c1467	0.053730395
114	0x3c9316cf	0.017955212
115	0x3c60d2d3	0.013722139
116	0xbd1f32e4	-0.038866892
117	0xbd5d2816	-0.053993307
118	0x3cfd9476	0.03095458
119	0x3cbeb1a3	0.023278063
120	0x3d236d88	0.03989938
121	0xbcf6690f	-0.030079393
122	0xbd580af5	-0.052744824
123	0x3dbb66aa	0.09150441
124	0xbd0a9227	-0.033830788
125	0xbd7e5171	-0.062089387
126	0x3c363486	0.011120921
127	0xbc6e953a	-0.014561946
128	0x3d8f9eae	0.070126876
129	0xbd059e77	-0.032621827
130	0x3ce2ac8e	0.027670171
131	0x399e5a76	0.00030203507
132	0x3d535573	0.051595163
133	0xbcbbef3e	-0.022941228
134	0xbd78ce9b	-0.06074391
135	0xbb9a686c	-0.004712155
136	0x3b9cfaea	0.0047906535
137	0x3cd0b4b6	0.025476795
138	0xbd943b42	-0.07237865
139	0x3994db6c	0.00028392242
140	0x3cb2361f	0.021754323
141	0x3d1ad910	0.037804663
142	0xbc8f3c87	-0.017484916
143	0x3ce93f90	0.028472692
144	0x3d620dc3	0.055188905
145	0x3dc6a3e2	0.09699227
146	0x3d8de281	0.06927968
147	0xbcef8243	-0.029236918
148	0xbb83e537	-0.0040251273
149	0x3b0abfca	0.0021171444
150	0xbd982e37	-0.0743069
151	0xbd06340c	-0.03276448
152	0xbd14b4eb	-0.03630535
153	0xbc95908c	-0.018257402
154	0x3d1772ff	0.036974903
155	0x3c9912b6	0.01868568
156	0xbcf75c0f	-0.030195264
157	0x3cd2e03d	0.02574169
158	0x3bdacb57	0.006677072
159	0x3d46a7b2	0.04849977
160	0xbd37ae51	-0.044843975
161	0x3ca4df73	0.02012608
162	0xbc3e5c5b	-0.011618699
163	0xbd0b51e6	-0.03401365
164	0x3cbea935	0.023274044
165	0x3982d851	0.000249567
166	0xbcdbea35	-0.026845077
167	0x3cbf8f42	0.02338374
168	0xbc09658d	-0.008386028
169	0xbbd9f8a6	-0.0066519557
170	0x3c718bd2	0.014742808
171	0x3cc962d9	0.024583267
172	0xbd680358	-0.056643814
173	0xbd44dac8	-0.04806021
174	0xbcdc0004	-0.026855476
175	0x3cef30f6	0.029198151
176	0x3d4a0b34	0.04932709
177	0xbced340b	-0.02895548
178	0x3d8e666d	0.0695313
179	0xb8ee6d2c	-0.00011369059
180	0x3d72c6e6	0.059271716
181	0x3caa2ec7	0.020774258
182	0x3c2ffa53	0.010740834
183	0x3db7fa23	0.08983257
184	0x3d16316c	0.036668226
185	0xbc195ad5	-0.009360035
186	0x3db2a9f7	0.087238245
187	0xba1a563b	-0.0005887483
188	0x3d5510ef	0.052018102
189	0xbcb95ebf	-0.022628186
190	0x3cfc2bd6	0.030782621
191	0xbd87668e	-0.06611358
192	0xbd1e39a0	-0.038629174
193	0xbbb161dd	-0.0054132775
194	0x3a3bfdbf	0.0007171295
195	0xbbcc30e3	-0.0062314137
196	0x3cef6f90	0.029228002
197	0x3d13af2c	0.03605573
198	0xbd013e85	-0.031553764
199	0x3d97d963	0.0741451
200	0xbc89545b	-0.016763857
201	0xbc6100fc	-0.013733145
202	0x3d0a4dee	0.033765726
203	0x3ccd9194	0.025093831
204	0x3dac85f7	0.08423989
205	0x3d9a2a5d	0.075276114
206	0x3db60746	0.08888106
207	0xbd77430f	-0.060366686
208	0x3ca5de1a	0.020247508
209	0x3c0ab16e	0.008465154
210	0xba47f989	-0.0007628431
211	0x3c47d4ef	0.012196763
212	0x3d1bc4f2	0.03802962
213	0x3dc639c6	0.09678988
214	0x3d8c111a	0.06839199
215	0x3c52ec7d	0.012873766
216	0x3d87adfc	0.06624982
217	0xbc48be73	-0.012252438
218	0xbca88d4a	-0.020575184
219	0xbc3a142a	-0.011357347
220	0xbd49468e	-0.04913955
221	0xbd3a2ef5	-0.045454938
222	0x3d156bd2	0.03647978
223	0xbd2f5c88	-0.042812854
224	0xbcb28534	-0.021792032
225	0xbc9ff080	-0.019523859
226	0xbdb69d09	-0.08916671
227	0x3ceff9b3	0.02929387
228	0x3c38858d	0.01126231
229	0xbc4b1e93	-0.012397426
230	0x3d127137	0.0357525
231	0x3bb6feb2	0.0055845613
232	0xbd31102b	-0.04322831
233	0x3c82e8a0	0.015980065
234	0xbd11c0cb	-0.035584252
235	0x3c091e43	0.008369031
236	0xbcafe7bf	-0.02147281
237	0xbd5caf36	-0.05387803
238	0xbcb50503	-0.022097116
239	0x3d2fd4cf	0.04292756
240	0x390248a8	0.00012424833
241	0xbc7f04a0	-0.0155650675
242	0x3d387e3a	0.045042254
243	0xbd0da51f	-0.0345813
244	0xbb84cf6e	-0.004053048
245	0x3cf8b0f8	0.030357823
246	0x3d75101d	0.05982982
247	0x3d0e7bdc	0.03478609
248	0x3d8e7b57	0.06957119
249	0x3c3096e1	0.01077816
250	0x3c957af6	0.018247109
251	0x3d3c4e51	0.045973126
252	0x3cb49a89	0.022046344
253	0x3d201e64	0.039091483
254	0xbd265ea6	-0.040617608
255	0xbd3a69b2	-0.045510955

conv.12.bias f4 [32]
0	0xbb9c0f9a	-0.004762602
1	0x3c5918e7	0.013250566
2	0xbd729e13	-0.059232783
3	0xbc0fa6da	-0.008767808
4	0x3cdb18ef	0.026745288
5	0xbb513b6e	-0.0031926292
6	0xbcb7feee	-0.022460427
7	0xbcdd7a1f	-0.027035771
8	0xbc0aa1ec	-0.008461457
9	0xbd318b41	-0.043345693
10	0x3c0857be	0.008321701
11	0x3cd835f0	0.026392907
12	0x3cabee3f	0.020987628
13	0x3c66ede9	0.014094808
14	0x3cd9488e	0.026523855
15	0x3c984284	0.018586405
16	0x3c9a9b79	0.018872963
17	0xbbe9d693	-0.007136175
18	0xbd1a6fea	-0.037704386
19	0x3c0f804d	0.008758617
20	0x3cdce3f4	0.026964165
21	0xbd409ba9	-0.04702345
22	0xbd7e3a3a	-0.062067248
23	0xbc5ab9f4	-0.013349999
24	0x3d897b7b	0.06713005
25	0x3d8c88bd	0.06862018
26	0xbd146bb5	-0.03623553
27	0xbc945e8f	-0.018111495
28	0xbceedcba	-0.029157985
29	0x3c5a6abd	0.013331112
30	0x3d121e4e	0.035673432
31	0x3d98adfb	0.07455059

conv.13.weight f4 [32]
0	0x3f76c486	0.9639362
1	0x3f804429	1.0020801
2	0x3f7f9df4	0.9985039
3	0x3f795f79	0.97411305
4	0x3f789c43	0.97113436
5	0x3f78d8c6	0.9720577
6	0x3f7d5a8e	0.989663
7	0x3f7791dd	0.96706945
8	0x3f786d7c	0.9704206
9	0x3f79c4ec	0.97566104
10	0x3f78f231	0.97244555
11	0x3f7b1c2e	0.98089874
12	0x3f7dcedd	0.99143773
13	0x3f7ff326	0.9998039
14	0x3f80d2dd	1.006435
15	0x3f7c4dfe	0.98556507
16	0x3f7226e3	0.94590586
17	0x3f809301	1.0044862
18	0x3f7ebf50	0.9951067
19	0x3f82f24b	1.0230192
20	0x3f79af04	0.9753268
21	0x3f7f8e75	0.9982675
22	0x3f82a93e	1.0207899
23	0x3f76d6e8	0.9642167
24	0x3f81fe17	1.0155667
25	0x3f84f864	1.0388303
26	0x3f7f3d1f	0.9970264
27	0x3f8339c5	1.0252005
28	0x3f798c39	0.9747959
29	0x3f7a7fc6	0.97851217
30	0x3f821d9b	1.0165285
31	0x3f8690d1	1.0512944
