results/direct_cnn_vit_lat32_mFalse_ipmFalse_res18_vps8_fidmFalse_ffdmFalse_cnn-1-4000.pth (torch, 358354 bytes, 62 tensors)

conv.0.weight f4 [16, 6, 3, 3]
000000 30 7b b4 bd 17 7c 71 3d a5 a4 f9 bd f0 99 a6 3d
       -0.08812559 0.058956232 -0.121896066 0.0813483
000010 62 89 c3 bd 26 d2 7e bd ed 18 df bd e2 d3 5d 3a
       -0.09547688 -0.062212132 -0.10893426 0.0008462054
000020 8c 41 3d 3b 6c 31 28 3d b6 3e 17 3d 37 20 b5 bd
       0.002887818 0.041062757 0.03692504 -0.08844035
000030 70 92 8b 3b 0b a1 4f bc 17 4a cb bd 4d ca ba bd
       0.0042594 -0.012672673 -0.09926241 -0.09120617
000040 06 8c 41 3d 79 85 08 3d f8 91 88 3d 01 a9 96 bd
       0.047252677 0.033330414 0.06668466 -0.07356454
000050 21 f2 af 3d a0 b8 cb bd 75 a5 00 3e fa b4 01 be
       0.08591104 -0.09947324 0.12563117 -0.12666693
000060 0b 28 39 bd 0f c5 00 3e ff 3e 8a bd 00 11 d5 bc
       -0.045204204 0.12575172 -0.06750297 -0.026009083
000070 72 47 c2 bd 22 65 31 3d fe 6f e5 bd 6d 97 a1 bd
       -0.09486283 0.04330934 -0.112030014 -0.0789021
000080 59 78 a5 bd 21 67 2f 3d f6 21 67 bd da db 64 3d
       -0.08079595 0.04282296 -0.056428872 0.05587373
000090 97 79 2d 3d 4a 76 30 bd b5 7e 06 be 93 f7 a8 3c
       0.042352285 -0.04308156 -0.13134272 0.020625865
0000a0 a0 46 d3 3d 69 c9 c6 3d 40 60 0a be af d7 4f 3c
       0.10316205 0.09706385 -0.13513279 0.0126857
0000b0 a1 93 c1 3c c6 8e a8 bd 8b a0 33 3d 7c a4 b0 bd
       0.023629965 -0.08230357 0.043854278 -0.08625123
0000c0 e2 3b a5 bd cf aa 79 3c 4e 83 2d bd b2 db f7 3d
       -0.08068062 0.015238478 -0.04236155 0.121024504
0000d0 24 e4 e5 bd ae f6 fe 3d 72 db 53 3c 89 ca 97 bc
       -0.11225155 0.12449394 0.012930738 -0.018529193
0000e0 98 fe 89 3d 12 73 d9 3c b5 4d 16 3d 69 f0 ce bd
       0.06738013 0.026544128 0.0366952 -0.10104448
0000f0 7c 9f 32 bd aa f6 bb bd 6b 31 00 3e 87 c6 a4 bb
       -0.043609127 -0.09177907 0.12518851 -0.005028549
000100 cb e5 d5 bd d2 bc 9c bb 78 57 e9 3d 9a 8f 92 bd
       -0.1044422 -0.0047832513 0.113936365 -0.07156296
000110 31 a6 e1 3d 9a c6 43 bd 3d 97 9b 3d d7 8b 80 bc
       0.110180266 -0.047796823 0.07597206 -0.01569168
000120 b9 50 a1 bd aa a2 aa 3d 8a c8 6f bd 61 b9 c5 3c
       -0.07876725 0.08331807 -0.05854086 0.024136247
000130 31 17 b4 3d fa 73 33 bd 04 07 28 bd ea 1f f5 bd
       0.08793486 -0.043811776 -0.041022316 -0.11968978
000140 f7 a6 ae bd 2a 4e 45 bd a0 6b 01 3e 19 a8 f0 bd
       -0.0852794 -0.048170246 0.12638712 -0.11750812
000150 1e 06 1d 3d 10 77 ab bd 6d 7a e3 3d 80 dc f2 bd
       0.038335912 -0.08372319 0.11107335 -0.11858463
000160 92 0c c9 3d fe 3c 8e bc 42 bd 21 3d 7b c2 94 3d
       0.09816851 -0.017363068 0.03948713 0.07263657
000170 96 f2 a0 bd 7c 2f aa 3d 01 e3 e1 bd 56 fc 90 3d
       -0.078587696 0.08309838 -0.11029626 0.07079379
000180 15 0f ad bd 9a 1a fe 3d ba 22 b7 3c 55 fa f9 3d
       -0.08450142 0.124074176 0.022355426 0.1220595
000190 ef b1 eb bd 3c 6b a1 bd 8f fc c6 3d 02 7e 32 3c
       -0.115085475 -0.078817815 0.097161405 0.0108943
0001a0 06 92 05 be b6 ba f1 bd e5 45 06 bd 8f 11 63 3d
       -0.13043985 -0.118031904 -0.0327815 0.055436667
0001b0 3f 67 e7 bc dd b3 b2 3d 91 32 b9 bd b6 34 cd bb
       -0.028247474 0.087257124 -0.09042848 -0.006262387
0001c0 ef 0e b4 bd cb 1f 4e bd 48 80 0a 3d 72 b6 b6 bd
       -0.08791911 -0.05032329 0.033813745 -0.089215174
0001d0 ee 19 bd 3d 5d 5a 16 3d 1a b7 fc bd ab b7 83 3d
       0.09233461 0.03670727 -0.12339611 0.06431516
0001e0 85 67 fb 3d f8 69 ff 3d 07 aa 02 3e 17 2d 56 3d
       0.12275604 0.12471384 0.12760173 0.052289095
0001f0 33 a4 de bd c1 1b db 3d e9 2b 9f bd 8f 1c 18 bc
       -0.10871162 0.10698653 -0.07772047 -0.009284153
000200 5b f3 dc bd 92 42 9e 3d e4 08 b5 3b 6d 43 b1 3d
       -0.10788604 0.07727541 0.0055247415 0.086554386
000210 c3 46 03 be 65 e8 33 3c 11 8d 3c 3d 5e 61 f3 3d
       -0.12819962 0.0109807 0.04603297 0.11883806
000220 91 42 78 3d 97 ec 23 bd 56 04 68 bd 93 33 7d bd
       0.060610358 -0.04002055 -0.05664476 -0.061816763
000230 df d5 e4 3d ad 0e be bd fd ad 8a bc 29 49 a4 bc
       0.11173605 -0.09280143 -0.016928667 -0.020054417
000240 e4 22 b5 3d 5c c2 f6 bd 94 6c 9e bc 4b 83 a2 3c
       0.088445455 -0.1204879 -0.019338883 0.019837996
000250 48 8f 60 3d 55 6f e5 bc d2 75 b1 3d c0 79 4f bd
       0.054824144 -0.028007189 0.086650506 -0.05065322
000260 bc 65 59 bd b5 b0 c8 3d 55 fd f8 bd a9 a1 ff bd
       -0.053075537 0.09799329 -0.12157694 -0.12482006
000270 da 3d 54 3d e0 9a a3 bc 47 b9 00 be a8 a5 ea 3d
       0.0518168 -0.019971311 -0.12570678 0.11457378
000280 3c 03 7b bd 99 80 06 be 73 b7 c2 3d 0f 4b bd bd
       -0.06128238 -0.13134994 0.095076464 -0.09242832
000290 9a 40 1d bd 16 81 3b 3d c5 17 cd 3d 80 06 2d 3d
       -0.038391687 0.045777403 0.10014299 0.042242527
0002a0 f6 dd 89 3d f4 43 c7 3d 1b d8 b1 bd 22 b1 0d bb
       0.06731789 0.09729758 -0.08683797 -0.0021620472
0002b0 49 a0 d9 3b 13 7f d6 3d c8 e3 11 3d e9 63 d8 3d
       0.006641422 0.10473456 0.03561762 0.10565931
0002c0 1b a5 57 3d 22 f4 c0 3d 03 d7 21 3d 69 b5 dd bd
       0.05264769 0.09421565 0.03951169 -0.10825617
0002d0 40 80 b9 3d 7a 3f af bd 97 64 34 3d af 52 38 3d
       0.09057665 -0.08557029 0.044041242 0.04500073
0002e0 35 17 e2 3d 76 5d 96 3b 60 cf 2d 3d c5 d3 f9 3d
       0.11039583 0.004588778 0.042434096 0.12198595
0002f0 32 33 0b 3d 08 46 f9 bd 31 c9 a4 bd e8 14 4b 3d
       0.03398437 -0.121715605 -0.08046187 0.049580485
000300 bd b3 b4 bd e7 d3 c4 3d a1 11 eb 3d bd c9 a0 3c
       -0.08823345 0.0961073 0.11477972 0.019627446
000310 49 a2 cc bd da 5f 03 3e 60 13 48 3c b6 fd 33 bd
       -0.09991891 0.12829533 0.012211651 -0.04394313
000320 a5 bc 04 3e d8 a2 01 bd a1 b0 02 bd b5 00 09 be
       0.12962587 -0.03164944 -0.031906728 -0.13379176
000330 04 99 79 bd 70 7f fe bd 3d b8 00 bd 5b d5 81 3d
       -0.060936943 -0.124266505 -0.031425703 0.063395225
000340 7d b7 56 3d a2 23 e9 bd 34 e8 fb bd 42 20 01 bd
       0.05242108 -0.113837495 -0.123001486 -0.031524904
000350 80 2f 06 be 47 59 5b 3d 68 71 8c 3c d4 45 b6 bb
       -0.13104057 0.05355194 0.01714392 -0.0055625234
000360 e5 dd af 3d 85 9f 62 bd 01 f0 66 3c 7a 07 82 bb
       0.08587245 -0.05532791 0.014095307 -0.0039681764
000370 86 7d 91 3d fd 06 0a be cd cf 91 bd 0b be 94 bd
       0.0710402 -0.13479228 -0.07119713 -0.0726281
000380 0b 64 f2 3c 80 1c bd 3d bc b1 a3 3b 4b f1 08 be
       0.02958872 0.092339516 0.004995553 -0.13373296
000390 22 23 3d 3d cb 4b e3 3d 74 f2 f7 3d f0 d0 f1 3d
       0.046176083 0.11098441 0.12106791 0.1180743
0003a0 41 a1 8d bd ef 12 c2 bd fe 9e cd b7 ab f6 da 3d
       -0.06915522 -0.094762675 -2.451194e-05 0.106915794
0003b0 18 31 9d 3d 3a 13 a2 3d b1 9c 7f 3d a7 7e 03 be
       0.076753795 0.079138234 0.062405292 -0.12841283
0003c0 bf c5 00 3d 54 08 95 bd 4b 40 b2 bc 7f 21 c8 bd
       0.031438585 -0.07276979 -0.021759173 -0.09772014
0003d0 bb eb 5a 3d 8a 28 87 bc 0f 7f b9 3d f6 a4 fe bd
       0.053447466 -0.016498823 0.09057438 -0.124338076
0003e0 a9 b1 e9 bd ad b3 04 3e e3 e7 e9 bc 14 d4 e1 bd
       -0.11410839 0.12959166 -0.028552955 -0.11026779
0003f0 38 33 08 3e be 0e cb bd a1 77 e0 bd 0f 68 81 3c
       0.13300788 -0.09914921 -0.109603174 0.01579669

conv.0.bias f4 [16]
000000 78 a9 1d bd 5b a4 6f bc da 38 33 bd a0 1b f0 bd
       -0.038491696 -0.014626588 -0.04375539 -0.11724019
000010 12 15 47 bd 5a 8a db bc 4b ba 0b 3d 7c 8d d2 3d
       -0.04860408 -0.02679937 0.03411321 0.10280892
000020 f7 8e 6d 3d 9d 0f e8 bd e7 da 2f bd 93 0d c5 3d
       0.05799767 -0.11331103 -0.04293337 0.0962173
000030 3c cf 5c bd 5c 28 ec bd 38 b5 a7 bd c9 7d 02 bd
       -0.05390857 -0.115311354 -0.081888616 -0.03185824

conv.1.weight f4 [16]
000000 00 00 80 3f 00 00 80 3f 00 00 80 3f 00 00 80 3f
       1.0 1.0 1.0 1.0
000010 00 00 80 3f 00 00 80 3f 00 00 80 3f 00 00 80 3f
       1.0 1.0 1.0 1.0
000020 00 00 80 3f 00 00 80 3f 00 00 80 3f 00 00 80 3f
       1.0 1.0 1.0 1.0
000030 00 00 80 3f 00 00 80 3f 00 00 80 3f 00 00 80 3f
       1.0 1.0 1.0 1.0

conv.1.bias f4 [16]
000000 00 00 00 00 00 00 00 00 00 00 00 00 00 00 00 00
       0.0 0.0 0.0 0.0
000010 00 00 00 00 00 00 00 00 00 00 00 00 00 00 00 00
       0.0 0.0 0.0 0.0
000020 00 00 00 00 00 00 00 00 00 00 00 00 00 00 00 00
       0.0 0.0 0.0 0.0
000030 00 00 00 00 00 00 00 00 00 00 00 00 00 00 00 00
       0.0 0.0 0.0 0.0

conv.1.running_mean f4 [16]
000000 70 85 0f bf ae 78 0e be 14 c3 10 be 53 d3 14 3e
       -0.56062984 -0.13913223 -0.14136916 0.14533739
000010 61 21 8a be e9 3d 61 be 8e bc 82 bd 4e 8c 86 bd
       -0.2697859 -0.21996273 -0.0638362 -0.0656973
000020 4d 22 c1 3d 55 00 1e 3e 5d 49 0c bd f5 c0 11 3f
       0.094303705 0.15429814 -0.034249652 0.56935054
000030 d1 a5 d6 be 7d 22 dc 3d 5d fb 32 bf af 1f 91 3e
       -0.41923383 0.107487656 -0.699148 0.28344485

conv.1.running_var f4 [16]
000000 5f 9c d3 3c 46 52 16 3b 49 26 8e 3b 3d ba db 3b
       0.0258314 0.0022937222 0.00433806 0.006705551
000010 c5 b5 02 3c 99 43 90 3b 0e 57 49 3b c9 c8 bf 3b
       0.007977908 0.0044025895 0.0030722055 0.005852793
000020 9e 2d e8 39 af f8 1a 3c fc 5b 70 3b 8f 50 bb 3c
       0.00044284476 0.009458705 0.003667592 0.022865562
000030 56 d2 69 3c 3c 79 c0 3b 1c 29 28 3d 4b 54 4d 3c
       0.014271339 0.0058738273 0.04105483 0.012532304

conv.3.weight f4 [32, 16, 3, 3]
000000 ab 7d 8e 3c 90 77 5c bd d8 7e 27 3d 66 31 97 3d
       0.017393908 -0.05382496 0.040892452 0.07382469
000010 b0 4a 32 bd d6 80 28 bd 46 51 86 3d 40 15 fb 3c
       -0.04352826 -0.041138493 0.065584704 0.030649781
000020 20 91 3e bd cb 15 5e bc 74 aa a2 3d cb 64 3e bc
       -0.04652512 -0.013555001 0.079426676 -0.011620711
000030 b2 17 93 3d 0b af f3 bc bb c9 30 3d 1e 8f 6b bd
       0.07182254 -0.029746553 0.043161135 -0.057509534
000040 a0 25 47 3d 9e 48 8d 3d c8 77 58 3d d6 ca 2f 3d
       0.048619866 0.06898616 0.052848607 0.04291805
000050 56 d2 9c bd b0 7f 74 3d ec 71 a8 3d d6 17 2f 3b
       -0.07657306 0.059692085 0.08224854 0.0026717088
000060 a0 d9 ac bc c7 7e a1 3d e0 5b 68 3c a3 5c 1e bd
       -0.021099865 0.07885509 0.014182061 -0.038662564
000070 eb bb 9f 3d 06 39 0a 3d d0 62 30 bd 03 f8 36 bd
       0.077995144 0.033745788 -0.043062985 -0.044670116
000080 00 92 72 3a 26 d8 16 3d 36 6f 12 bc 36 e7 0f bd
       0.0009253323 0.03682723 -0.008937648 -0.03513261
000090 a8 d6 4c 3d 46 61 56 bd 6b f5 dc bb eb 02 87 3d
       0.0500094 -0.05233886 -0.0067431233 0.065923534
0000a0 5a c7 8e bd 32 44 90 3d 6e 6e 37 3d c0 6a c2 bc
       -0.06971617 0.07044257 0.04478305 -0.023732543
0000b0 c0 33 a5 3b 93 db 12 bd 3b bf 3f bd 86 d3 25 bd
       0.0050415695 -0.035853934 -0.04681323 -0.040484928
0000c0 9f 32 99 bd be ab 2e bd 08 15 13 3d 26 1b bd 3c
       -0.07480358 -0.042644255 0.03590873 0.023084234
0000d0 80 f1 48 bb c0 f9 54 3d d6 43 72 bb 80 96 97 bc
       -0.0030661523 0.051995993 -0.0036966703 -0.018504381
0000e0 84 9a 8f bd c6 b1 f3 3c 48 1a 3a 3d 1f a9 83 bd
       -0.070118934 0.029747855 0.04543522 -0.06428742
0000f0 50 bb 37 bd 7b c6 90 bd 6b 79 dd 3b b8 81 96 3d
       -0.04485637 -0.07069107 0.006758859 0.07348961
000100 ba b8 a4 bd 0b 9f 72 bd 1e 2a 6c 3d 06 c7 9c bd
       -0.08043046 -0.059233706 0.057657354 -0.07655148
000110 ee b3 4e bd b0 63 2e bd 0e 1f 04 3d 37 ea 93 bd
       -0.050464563 -0.04257554 0.03225618 -0.07222407
000120 40 ed 09 3c 80 7a 95 bc 58 33 09 3d 73 2c 67 bd
       0.008418381 -0.01824689 0.03349623 -0.056438874
000130 42 7b a4 bd 30 45 d6 3c c7 ee 99 bd ab ac 47 3c
       -0.08031322 0.026156038 -0.07516246 0.012187163
000140 6e a5 12 3d 18 78 86 3d 10 1c a7 bc ca c9 99 3d
       0.035802297 0.06565875 -0.020399123 0.07509191
000150 eb de ae bb 40 c6 85 bc 06 26 54 bd 40 7e a1 bc
       -0.0053366325 -0.016329885 -0.051794074 -0.019713521
000160 1b e5 0c 3d 76 46 da bc 0b 3b 63 3d 00 43 4e 3d
       0.03439818 -0.026644927 0.05547623 0.050356865
000170 2b 05 80 3d fe 44 6a 3d 56 1f 63 3d 03 5f 15 bd
       0.06250986 0.057194702 0.055449806 -0.036467563
000180 5b 84 cd 3c d6 94 8c bb eb ff ab bb 56 6d c1 3a
       0.025087526 -0.0042902036 -0.0052490137 0.0014757316
000190 86 75 71 3d 88 46 4c bd ab 59 b4 3c e3 d4 16 bd
       0.05894997 -0.04987195 0.022015413 -0.03682412
0001a0 00 91 0b 3b 80 86 9a 3b eb 2f 56 3d 00 bd 28 3b
       0.0021296144 0.0047157407 0.052291792 0.0025747418
0001b0 43 ba 8f bd 88 d7 13 bd df 2f aa bd 03 1f 44 bd
       -0.070179485 -0.03609422 -0.08309912 -0.047881138
0001c0 56 a4 af bb e2 c4 a3 3d 2e 2f 3f bd 00 5e 1c ba
       -0.0053601665 0.07996537 -0.046675853 -0.0005964935
0001d0 68 a2 7d 3d 40 4b 8c 3c a6 8d e6 3c 97 36 95 bd
       0.06192246 0.017125726 0.028143715 -0.07285803
0001e0 cb 9d 7c 3d 40 7e 4c 3d 38 d9 70 bd 9b 6e 73 bd
       0.06167392 0.04992509 -0.058800906 -0.059431653
0001f0 56 15 45 bb 63 7e 7d 3d 3b 77 91 bc 6f e7 9d bd
       -0.0030072532 0.06188811 -0.017757049 -0.07710158
000200 88 b3 58 bd 70 9a f4 3c e8 a8 7e bd 40 15 bf 3c
       -0.05290559 0.029858798 -0.0621728 0.023325562
000210 c0 8c d9 3b 50 e9 98 bd 2a 70 aa 3d 8f 87 9b 3d
       0.006639093 -0.07466376 0.08322175 0.07594215
000220 70 d8 ee bc 90 d8 e1 3c 8e d9 52 bd 56 1b 42 bb
       -0.02915594 0.027569085 -0.051477008 -0.0029618344
000230 1b 87 08 3d 4e d7 7b bd 73 a4 7c bd c0 0e 19 3d
       0.03333197 -0.061484627 -0.06168027 0.037367582
000240 ab 5c de 3b c6 06 5e bd 73 c2 62 bd 2e ea 13 bd
       0.006785949 -0.05420568 -0.055361222 -0.036112003
000250 b6 d4 a6 3c ee be 39 bd ab b0 b1 ba 5e 7f 59 3d
       0.0203651 -0.0453481 -0.001355668 0.053099982
000260 8b 76 b2 bc 82 9f 99 3d 20 1a 77 bd 66 c3 44 3d
       -0.021785041 0.07501127 -0.06032765 0.04803791
000270 40 6e a5 3d 5b ee 98 bc 66 0a 85 3c 80 b0 b8 3b
       0.08077669 -0.018668344 0.01624031 0.005636275
000280 83 6e 7b bd 43 8e 63 bd 56 3d 5a 3c 46 e0 6c 3d
       -0.06138469 -0.055555593 0.013320288 0.05783107
000290 d6 41 e5 bb 00 2f 38 bd db 36 c7 bc 26 bf 15 bd
       -0.0069963736 -0.044966698 -0.02431815 -0.036559246
0002a0 50 7b 3f bd 56 3a b6 3c 9e ff 08 3d ba 2e 98 bd
       -0.04674846 0.022244614 0.0334469 -0.074307874
0002b0 fb 1e 82 bd 90 e7 bf bc 5a b6 90 bd 66 27 d2 bc
       -0.06353565 -0.023425847 -0.07066031 -0.025653552
0002c0 ab ab b9 3b 46 03 d0 bc b0 23 1c bd eb 8a 4a bd
       0.0056662164 -0.025392186 -0.03811997 -0.04944889
0002d0 60 eb 1d 3c 9a 13 8c 3d 9e 03 12 bd 30 4c a7 bd
       0.009638637 0.06839676 -0.03564798 -0.081688285
0002e0 e8 90 1e bd 06 5a 4e 3d 96 26 e0 3b 1b 17 9a 3c
       -0.038712412 0.05037882 0.0068405373 0.018809846
0002f0 18 d0 2b bd 3b bd b8 3c cb 2a 77 3c 0b ac 41 bd
       -0.0419465 0.02255117 0.015085886 -0.047283214
000300 d0 32 6b 3d 56 1f 1c ba 56 2e bc bb 14 fe 87 3d
       0.057421505 -0.0005955597 -0.0057428284 0.066402584
000310 56 cc 4c bc be c4 13 3d e0 d0 c0 bc 54 16 8c 3d
       -0.012499889 0.0360763 -0.0235371 0.06840196
000320 16 a1 41 bc 60 3e 9d 3d ae 2a 56 3d 06 39 87 3c
       -0.011818191 0.07677913 0.052286796 0.016506683
000330 63 8d 7e bd f8 aa 4a bd 98 42 86 bd a8 d4 44 3d
       -0.062146556 -0.049479455 -0.065556705 0.048054367
000340 83 45 8e bd d3 65 8b 3d 48 d6 73 bd eb 60 6d bd
       -0.06946852 0.06806531 -0.059530526 -0.057953756
000350 ab 88 18 bb 0f 09 9b 3d ab 44 44 ba 56 ce 0c bc
       -0.002327482 0.07570087 -0.0007487039 -0.008594116
000360 8b 9d cd bc 66 fe 62 3d 53 8a 40 bd 08 60 5b 3d
       -0.025099536 0.055418395 -0.047006916 0.05355838
000370 06 fd 35 3d 20 88 1b 3c fb 79 40 3d 1c 2e 8a bd
       0.044430755 0.009492904 0.04699133 -0.06747076
000380 80 2d b8 bb 6b 6f ce bb b6 7c 30 3c 00 5c f4 3b
       -0.0056206584 -0.006299903 0.010771921 0.0074572563
000390 78 85 86 3d 38 22 02 3d d0 e1 1e 3d b0 5e d1 bc
       0.06568426 0.031770915 0.03878957 -0.025557846
0003a0 00 e8 53 3b 60 b0 80 bc 70 f0 95 bc 60 42 aa bd
       0.0032334328 -0.015709102 -0.018303126 -0.08313441
0003b0 ab c6 88 39 5b a6 ed 3c db a5 5d bd 18 2e 09 bd
       0.0002608796 0.029009989 -0.05411325 -0.033491224
0003c0 66 26 24 3d 58 9d 92 3d 6e 86 2a bd 3a 21 82 3d
       0.040075682 0.07158917 -0.04163211 0.06353994
0003d0 a4 4a 8b bd 00 66 59 bb f6 ee 04 bd 00 91 92 3c
       -0.06801346 -0.003317237 -0.032454453 0.017891407
0003e0 10 2b 8c 3d 26 0f 92 3d b6 35 f4 bc bf a1 82 3d
       0.06844151 0.071317956 -0.029810768 0.06378507
0003f0 0b 5c 7b 3d 2b b5 6d bd fb 16 97 bc 8a 67 89 3d
       0.061367076 -0.058034103 -0.018443575 0.06709202

conv.3.bias f4 [32]
000000 33 99 06 bd d3 e1 2b 3d 9e ab 93 bd e0 a7 58 3d
       -0.032860946 0.04196341 -0.07210468 0.052894473
000010 60 a7 84 bc 68 7a 9e bd 16 6b b8 bb 53 d9 00 bd
       -0.016193092 -0.07738191 -0.005628 -0.031457257
000020 2b 73 4f 3b 60 8e 3f 3c f6 a1 57 bc 4b f2 94 bd
       0.0031654339 0.01169166 -0.013161173 -0.07272776
000030 8b f8 d0 bc 3e 01 a8 bd 2b a3 cf 3b 03 76 29 bd
       -0.02550914 -0.08203362 0.00633659 -0.04137231
000040 40 14 1f bc 94 71 9c bd 56 8f bf bb ef 00 80 3d
       -0.009709418 -0.07638851 -0.0058459444 0.06250178
000050 02 52 98 3d 7c 45 85 bd d6 c1 08 bd 88 cf 60 bd
       0.07437517 -0.06507394 -0.03338798 -0.054885417
000060 1b 5b 8f bd 96 e9 8b 3b 9b 00 a8 3d d6 09 ec 3b
       -0.06999799 0.004269789 0.082032405 0.007203321
000070 10 92 8a bc 4e b3 60 3d 16 4c 6e bd a0 75 25 bd
       -0.016915351 0.0548585 -0.05817803 -0.04039538

conv.4.weight f4 [32]
000000 00 00 80 3f 00 00 80 3f 00 00 80 3f 00 00 80 3f
       1.0 1.0 1.0 1.0
000010 00 00 80 3f 00 00 80 3f 00 00 80 3f 00 00 80 3f
       1.0 1.0 1.0 1.0
000020 00 00 80 3f 00 00 80 3f 00 00 80 3f 00 00 80 3f
       1.0 1.0 1.0 1.0
000030 00 00 80 3f 00 00 80 3f 00 00 80 3f 00 00 80 3f
       1.0 1.0 1.0 1.0
000040 00 00 80 3f 00 00 80 3f 00 00 80 3f 00 00 80 3f
       1.0 1.0 1.0 1.0
000050 00 00 80 3f 00 00 80 3f 00 00 80 3f 00 00 80 3f
       1.0 1.0 1.0 1.0
000060 00 00 80 3f 00 00 80 3f 00 00 80 3f 00 00 80 3f
       1.0 1.0 1.0 1.0
000070 00 00 80 3f 00 00 80 3f 00 00 80 3f 00 00 80 3f
       1.0 1.0 1.0 1.0

conv.4.bias f4 [32]
000000 00 00 00 00 00 00 00 00 00 00 00 00 00 00 00 00
       0.0 0.0 0.0 0.0
000010 00 00 00 00 00 00 00 00 00 00 00 00 00 00 00 00
       0.0 0.0 0.0 0.0
000020 00 00 00 00 00 00 00 00 00 00 00 00 00 00 00 00
       0.0 0.0 0.0 0.0
000030 00 00 00 00 00 00 00 00 00 00 00 00 00 00 00 00
       0.0 0.0 0.0 0.0
000040 00 00 00 00 00 00 00 00 00 00 00 00 00 00 00 00
       0.0 0.0 0.0 0.0
000050 00 00 00 00 00 00 00 00 00 00 00 00 00 00 00 00
       0.0 0.0 0.0 0.0
000060 00 00 00 00 00 00 00 00 00 00 00 00 00 00 00 00
       0.0 0.0 0.0 0.0
000070 00 00 00 00 00 00 00 00 00 00 00 00 00 00 00 00
       0.0 0.0 0.0 0.0

conv.4.running_mean f4 [32]
000000 c7 04 b1 bd 68 e6 89 bd 76 b1 07 3d 7f de 5d 3e
       -0.08643489 -0.067334 0.033128224 0.21666907
000010 35 1a 16 3e a2 67 85 3c b2 a5 04 be d2 59 34 bd
       0.14658435 0.016284768 -0.12953833 -0.04403097
000020 cb 78 70 3d 8a cb 09 3d 33 c7 00 bc 7c bc 27 3e
       0.058708947 0.033641376 -0.007859993 0.16380495
000030 25 69 fc bd ef 9d 1f be ce ab 37 3c ba 30 8c 3e
       -0.12324742 -0.1558759 0.011210395 0.27380925
000040 f6 bf f8 bd 5f 0b d2 3d 24 c2 0d 3e 20 99 4e be
       -0.12145989 0.10256075 0.1384359 -0.201756
000050 53 b5 7e 3e 68 bd 84 bd ae e0 a7 bd cc d9 bb bc
       0.24873857 -0.06481439 -0.08197151 -0.022931002
000060 80 54 66 3d ae 74 3b 3e 76 1c 4f 3e 4a a0 b0 3d
       0.05623293 0.18306229 0.202257 0.08624323
000070 11 f5 4d 3e b2 e8 ba 3d 19 25 d5 bd d2 68 bb 3d
       0.20113017 0.09126414 -0.104074664 0.09150852

conv.4.running_var f4 [32]
000000 8a e9 c2 3d 72 f0 96 3d 28 4b bc 3d fa 3d 1b 3e
       0.095172 0.0737008 0.091940224 0.15160361
000010 75 3b 8d 3d 77 d7 86 3d a0 d6 67 3d ad 4b 82 3e
       0.06896106 0.065840654 0.056601167 0.2544836
000020 37 fd 5a 3e a7 f5 0a 3e 88 6b a3 3d 75 d1 7b 3e
       0.21385656 0.13570271 0.07979494 0.2459162
000030 76 a8 72 3d 2f 72 a3 3d 48 49 e3 3d 80 4a 1a 3e
       0.059242688 0.07980763 0.11097962 0.15067482
000040 b4 f5 dd 3d e4 75 96 3e 89 00 45 3e c2 41 34 3e
       0.1083788 0.29386818 0.19238485 0.1760321
000050 56 41 4b 3e 7a b0 87 3d 1b 9f e1 3d 02 be 0d 3e
       0.19849142 0.06625457 0.11016675 0.13842013
000060 85 b4 8a 3d af 3b 9f 3d 7d 3b a7 3d 41 f8 a4 3d
       0.067727126 0.077750556 0.08165643 0.08055163
000070 97 1c 9b 3e 1c 6c c3 3d 33 13 43 3d 2d 90 e4 3d
       0.3029525 0.095421046 0.04762573 0.11160312

conv.6.weight f4 [32, 32, 3, 3]
000000 7c 42 70 3d 14 ed 76 bc ac e6 7e bc 68 75 06 3d
       0.058657154 -0.015071172 -0.015557926 0.03282681
000010 6b bc b7 bc 7e c8 57 bd 33 c4 5e bd f5 cf 70 bd
       -0.022428712 -0.05268144 -0.05438633 -0.058792073
000020 69 ca 23 3d bc 66 83 3c 85 3f 6f bd e9 65 c2 bc
       0.039987955 0.016040199 -0.058410186 -0.023730235
000030 bd 68 dd ba 66 4c 6d 3d f2 50 2d bc b3 4c 2a bc
       -0.0016892176 0.057934187 -0.010578381 -0.010394263
000040 f1 bd 39 3d 22 c7 58 bd 1a b8 4f bd f1 57 c8 bc
       0.045347158 -0.052924283 -0.050712682 -0.024455996
000050 5d dd cf bc 15 4c 3a bc 5e 84 b7 bc c9 60 16 bd
       -0.025374109 -0.011370678 -0.022401985 -0.036713395
000060 d7 63 4f bd 43 c9 08 bd aa e7 54 bd 06 df 0a 3d
       -0.050632324 -0.033395063 -0.051978745 0.033904098
000070 f4 2f c3 bc f2 5c f6 bc 02 76 ab 3c e2 c0 d3 bc
       -0.023826577 -0.030073617 0.020930294 -0.02584881
000080 34 6b 30 bd 43 1d c5 bb 61 a5 45 bd 07 c2 8c bc
       -0.043070987 -0.006015451 -0.04825342 -0.017182363
000090 0b 49 03 bd 23 56 14 3d 93 e5 5b bd 43 6c 47 bd
       -0.03205208 0.03621496 -0.053685736 -0.04868723
0000a0 4a 7c 99 3c d1 bd f4 3c 1f 7a b3 bc a7 62 5d 3d
       0.018736023 0.029875668 -0.021908818 0.05404916
0000b0 76 5e 29 3d 46 82 09 3d f6 f9 8a bc 0c 44 63 bd
       0.04134985 0.033571504 -0.016964894 -0.055484816
0000c0 6a 68 de 3c c2 3d 85 3c cd d6 47 3d 54 20 57 3d
       0.027149398 0.0162648 0.048788834 0.052521065
0000d0 e3 af f0 3c 40 47 ce bc a7 9a 40 3d 96 9f d7 3a
       0.029380744 -0.025180459 0.047022488 0.0016450759
0000e0 de dd 83 3c 03 08 cf 3b 4b 92 0d bd a6 97 1e 3d
       0.016097005 0.0063180937 -0.034563344 0.038718842
0000f0 70 60 46 bd 58 08 a9 bc 23 f0 ae 3b e3 15 6a 3b
       -0.048431814 -0.020633861 0.005338685 0.0035718612
000100 46 40 69 3d 4c 5e ca 3b b7 e9 55 3d cd c4 1f bd
       0.05694606 0.006175792 0.05222484 -0.039006043
000110 78 a8 b5 3c b1 38 1f bd 9a f6 eb 3c cb 51 14 bd
       0.022175059 -0.038872425 0.028804112 -0.036210816
000120 06 15 69 3d 13 0e 49 3d 14 13 2f bd a9 48 f6 bc
       0.056904815 0.049085688 -0.042742804 -0.030063944
000130 95 59 24 bd c7 66 09 3d c0 0c 6d 3d bd 33 d8 bc
       -0.040124495 0.03354528 0.057873487 -0.026391858
000140 a9 a1 3f 3d 14 c6 66 bd 13 bf 88 bc ca 20 4c 3d
       0.04678503 -0.056341246 -0.016692674 0.049835958
000150 e4 96 6e bd 42 21 ff bc 40 fa 40 bb d4 54 1b 3d
       -0.05824937 -0.031143788 -0.0029446036 0.037922695
000160 b3 93 14 3d ea 2d 56 bd 99 f4 68 bd 5c da 61 bd
       0.03627367 -0.05228988 -0.05687389 -0.055139884
000170 9d 50 30 3d 33 1a 2b bc f6 96 24 bb f4 b6 bd 3c
       0.04304563 -0.010443258 -0.0025114394 0.023158528
000180 5b d2 12 3d 5e 74 67 3d be ff 30 3d 7e 24 60 3d
       0.03584514 0.05650746 0.043212645 0.0547223
000190 8a 7b 2e bd 70 64 62 bd 7f a3 fd bb a1 cd 65 bd
       -0.042598285 -0.055271566 -0.0077404375 -0.056104306
0001a0 e1 03 37 3d 66 fd 22 bd d4 b2 09 bd c5 39 5c 3c
       0.044681434 -0.03979244 -0.03361781 0.013441508
0001b0 c9 a5 84 bc 1b 29 11 3d ff 5f aa ba 32 9b 69 bd
       -0.016192334 0.03543959 -0.001299858 -0.05703277
0001c0 40 28 0d bd 78 6b 06 bb a4 f0 6b 3d 04 f3 81 3b
       -0.034462214 -0.0020510834 0.05760254 0.0039657373
0001d0 7d 47 48 bc 76 33 4c 3b 92 f9 8d bc 20 e8 32 3d
       -0.012224075 0.0031158603 -0.017330918 0.043678403
0001e0 55 c8 98 bc d1 13 40 3d 10 ad 18 bc 95 4b 36 bd
       -0.018650213 0.0468939 -0.009318605 -0.044505674
0001f0 fa c5 bc 3c 9f 70 c2 bc a2 8a 2c 3c f5 17 6e 3d
       0.023043621 -0.023735343 0.0105310995 0.058128316
000200 1c 5e 37 bb 05 c8 82 bc 47 75 5e bd 14 e2 6b bd
       -0.0027979678 -0.015964517 -0.054311063 -0.05758865
000210 74 22 34 3d d0 c4 36 3c f0 e7 53 3d d3 b6 01 3c
       0.04397817 0.011155322 0.051734865 0.007917124
000220 19 58 b0 3c b1 20 64 bd 3a 48 b5 bc 91 77 b7 3b
       0.021526383 -0.05569524 -0.022129167 0.00559897
000230 17 d4 2f bd 7d cd 05 bc d3 29 ae bc 52 bc 10 bd
       -0.042926874 -0.008166668 -0.021260178 -0.035335846
000240 d4 67 b5 3b de 7c e1 3c 22 5a 3b 3d 72 b2 75 bc
       0.005536059 0.027525362 0.045740254 -0.014996158
000250 68 ba 96 3b b5 c7 46 bc b4 79 88 bc ff 69 67 bd
       0.004599858 -0.012132575 -0.016659595 -0.05649757
000260 e1 89 24 3d 87 09 10 bd df 02 4f 3d bf da 98 3c
       0.040170554 -0.035165336 0.050539847 0.018658994
000270 d6 17 8c 3c 9c 71 5b bd 1d b4 68 3d 0f 6f 45 bd
       0.01710121 -0.053575143 0.056812394 -0.048201617
000280 91 6d 88 3c 1a 9a 45 bd 13 15 1a bd b1 23 42 3d
       0.016653808 -0.048242666 -0.037617754 0.04739732
000290 af 96 90 3a c8 c5 22 bd 4f da 06 3d 45 dd 6f 3c
       0.0011031235 -0.0397394 0.03292304 0.014640157
0002a0 17 d3 30 bd 44 c4 27 3d 78 ea 34 3d 3b ad 6b 3d
       -0.04317006 0.040958658 0.04416892 0.057538252
0002b0 30 82 69 3d 01 49 48 3d cf c6 21 3d ce e9 b6 3c
       0.057008922 0.048897747 0.03949624 0.022328284
0002c0 b9 1d 88 3c 6c 46 e2 bb 16 0d 9b bb 3c 46 24 bc
       0.016615735 -0.0069053676 -0.0047317846 -0.010026511
0002d0 38 1c 77 bc 12 db ed bc 01 77 7d bc ab fc dc 3c
       -0.0150824115 -0.029035125 -0.015470267 0.02697595
0002e0 20 f5 8f bc d5 90 d4 bc c6 c7 f3 3b f2 74 70 3c
       -0.01757294 -0.025947968 0.0074395863 0.014676319
0002f0 dd 29 89 3b 06 fb e5 bc 89 e6 21 3d 44 9a 35 bb
       0.0041858987 -0.028073799 0.039526496 -0.0027710358
000300 6b 95 31 3d ee d4 51 bc 0c 76 30 bc 16 9e e7 3b
       0.043355387 -0.012807114 -0.010770332 0.007068406
000310 5d fd 12 3c 74 d4 18 3b 78 30 01 3d 77 6f 96 bc
       0.008971539 0.0023319991 0.031540364 -0.018363697
000320 57 12 d0 3c 35 a3 d0 3c 95 ac 33 bd cf 32 85 3a
       0.02539937 0.025468448 -0.04386576 0.0010162237
000330 bd 55 62 3d 7d d0 81 3b 2e 9c 25 3c 6f 0d 29 3d
       0.055257548 0.0039616213 0.010108037 0.041272577
000340 8d 0b 28 3b 46 91 c6 3c 26 78 f3 bc 1e 78 ad 3c
       0.002564165 0.024239194 -0.029720377 0.02117544
000350 6b fe 70 3d d4 29 a2 bb 42 b8 64 bd b4 54 8a bc
       0.058836382 -0.004948834 -0.055839784 -0.016886093
000360 04 fe 4b 3c 0e 46 f6 3c db ed 63 bd cf fc d9 bb
       0.012450699 0.030062702 -0.05564676 -0.0066524516
000370 44 f5 39 3d 24 ce 94 bb 15 3b 96 bc 24 09 8f 3c
       0.04539992 -0.0045411754 -0.01833872 0.017460413
000380 97 84 47 3d 0b 59 00 3c fa 4f 58 3c 67 06 c0 3c
       0.048710432 0.0078337295 0.013202662 0.023440553
000390 19 78 e9 bc d7 13 ea bc c9 4e 7c bb 63 5e 64 3d
       -0.02849965 -0.028573913 -0.0038499108 0.055754077
0003a0 90 81 26 bd 70 37 59 bc 91 b0 14 3d 8f f8 c1 bc
       -0.040650904 -0.013257846 0.0363012 -0.023678092
0003b0 ec 7c 6c 3d be c0 2d 3d 15 81 62 bd 37 70 d3 bc
       0.057736322 0.04242014 -0.055298883 -0.025810344
0003c0 cc 12 50 3d 86 fd 91 3c a0 9d 46 bd e8 f4 42 3d
       0.050799176 0.017821085 -0.048490167 0.047596842
0003d0 55 c3 40 3b c7 63 39 3d 2f 4b 90 3c 57 5e 66 3d
       0.0029413302 0.04526117 0.017613975 0.056242313
0003e0 b0 5d 4e 3c 06 7e dc bc 7f a7 49 bd f0 6d f2 3c
       0.012595579 -0.026915561 -0.049232002 0.029593438
0003f0 f6 64 6d bd 5d 27 ec 3c 1a cb fa bc 8c d7 26 bd
       -0.057957612 0.028827364 -0.030614424 -0.040732905

conv.6.bias f4 [32]
000000 f8 46 a4 bc 5b c1 31 3c a6 0e a9 3b 7a 9d 29 3d
       -0.020053372 0.010849322 0.005159217 0.041409947
000010 27 6a 49 bd 48 1d 6b bb f8 23 ce bc 1c 04 84 3b
       -0.0491735 -0.0035875607 -0.025163636 0.00402881
000020 e8 8e 67 3d 95 0e c1 3c 8f 09 64 bb d2 b5 d4 bc
       0.05653277 0.023566524 -0.0034795736 -0.025965605
000030 a8 f7 27 3d 38 e6 5c 3d a2 91 79 bc 5d 92 0a bd
       0.041007668 0.05393049 -0.0152324755 -0.03383099
000040 b1 cc 19 3d 51 b5 4f 3d 6c 5a 12 3d 38 f7 dd 3c
       0.037548725 0.050710026 0.035730764 0.027095422
000050 b4 5f 63 3d 59 4c 48 3d ac d0 43 bd eb df 84 3c
       0.05551119 0.048900936 -0.047806427 0.016220054
000060 5c 5b 51 3d 06 a8 98 3b 40 97 93 bc 0a c3 3a 3d
       0.051112518 0.004658702 -0.018016458 0.04559616
000070 db f7 1f bd d5 97 37 3d 6c 5f bf 3b cf a9 66 bd
       -0.039054733 0.044822533 0.0058402326 -0.056314286

conv.7.weight f4 [32]
000000 00 00 80 3f 00 00 80 3f 00 00 80 3f 00 00 80 3f
       1.0 1.0 1.0 1.0
000010 00 00 80 3f 00 00 80 3f 00 00 80 3f 00 00 80 3f
       1.0 1.0 1.0 1.0
000020 00 00 80 3f 00 00 80 3f 00 00 80 3f 00 00 80 3f
       1.0 1.0 1.0 1.0
000030 00 00 80 3f 00 00 80 3f 00 00 80 3f 00 00 80 3f
       1.0 1.0 1.0 1.0
000040 00 00 80 3f 00 00 80 3f 00 00 80 3f 00 00 80 3f
       1.0 1.0 1.0 1.0
000050 00 00 80 3f 00 00 80 3f 00 00 80 3f 00 00 80 3f
       1.0 1.0 1.0 1.0
000060 00 00 80 3f 00 00 80 3f 00 00 80 3f 00 00 80 3f
       1.0 1.0 1.0 1.0
000070 00 00 80 3f 00 00 80 3f 00 00 80 3f 00 00 80 3f
       1.0 1.0 1.0 1.0

conv.7.bias f4 [32]
000000 00 00 00 00 00 00 00 00 00 00 00 00 00 00 00 00
       0.0 0.0 0.0 0.0
000010 00 00 00 00 00 00 00 00 00 00 00 00 00 00 00 00
       0.0 0.0 0.0 0.0
000020 00 00 00 00 00 00 00 00 00 00 00 00 00 00 00 00
       0.0 0.0 0.0 0.0
000030 00 00 00 00 00 00 00 00 00 00 00 00 00 00 00 00
       0.0 0.0 0.0 0.0
000040 00 00 00 00 00 00 00 00 00 00 00 00 00 00 00 00
       0.0 0.0 0.0 0.0
000050 00 00 00 00 00 00 00 00 00 00 00 00 00 00 00 00
       0.0 0.0 0.0 0.0
000060 00 00 00 00 00 00 00 00 00 00 00 00 00 00 00 00
       0.0 0.0 0.0 0.0
000070 00 00 00 00 00 00 00 00 00 00 00 00 00 00 00 00
       0.0 0.0 0.0 0.0

conv.7.running_mean f4 [32]
000000 7e 2f 6f 3d af 18 0e 3d 2f 4a d4 3d ad 5f 8a 3d
       0.0583949 0.03469151 0.10365712 0.0675653
000010 68 fd 9e bc 68 01 8b 3d 68 72 83 3c a2 60 ca 3e
       -0.019407943 0.067873776 0.016045764 0.3952685
000020 6b 29 c0 3d be 90 a7 3e c8 32 32 3e e7 35 41 be
       0.093829 0.32727617 0.17402184 -0.18868218
000030 0a 6f a7 3d 86 cd 08 be fa 6c fd bb 4f b1 96 3d
       0.08175476 -0.13359651 -0.0077339383 0.07358038
000040 02 92 83 be 46 a6 f4 3c a1 9c 1f 3e 20 27 4d 3e
       -0.25697333 0.029864442 0.15587093 0.20034456
000050 54 3f 99 3e 7a 53 de 3d c1 db 89 3d e7 0c 04 be
       0.29931128 0.10855766 0.06731368 -0.12895547
000060 59 34 84 3e 5c b8 78 3d d4 55 f2 bd 75 fd 9b 3e
       0.25821188 0.060722694 -0.11832777 0.3046681
000070 b7 8a 53 be 1f 43 26 3d ac 96 87 bc 3a 12 41 3d
       -0.20658384 0.040591355 -0.016551338 0.047136523

conv.7.running_var f4 [32]
000000 2e 90 0c 3e e6 75 c8 3d ca 20 06 3e 5a 82 f8 3d
       0.13726875 0.09788112 0.13098446 0.121342376
000010 87 30 b3 3d 56 43 0e 3e 93 46 b0 3d a3 1b 5e 3e
       0.0874949 0.13892874 0.08607211 0.2169023
000020 7a 03 fe 3d 6e 65 53 3e 97 d4 9f 3d d2 81 d7 3d
       0.12403007 0.20644161 0.0780422 0.10522808
000030 fa a8 bc 3d 49 c9 17 3e ce 96 aa 3d 31 33 4b 3e
       0.09211917 0.14822878 0.08329545 0.19843747
000040 94 3a 3b 3e 96 3b a6 3d 0b f5 e2 3d 1d 34 12 3e
       0.18284065 0.08116834 0.110818945 0.14277692
000050 5e 11 13 3e f6 e4 c8 3d 32 a1 f3 3d 33 76 f0 3d
       0.14362094 0.09809296 0.1189598 0.11741295
000060 7a 6a 10 3e 54 a1 ac 3d 18 43 ae 3d 15 36 21 3e
       0.14103118 0.084292084 0.08508891 0.15743287
000070 7b 26 21 3e 92 74 ab 3d 94 66 b4 3d be fd ed 3d
       0.15737335 0.083718434 0.08808628 0.11620663

conv.9.weight f4 [32, 32, 3, 3]
000000 6f fe c0 3c 09 3d 02 3d 1c 3b 88 bc 2d 3c ac bb
       0.023558823 0.03179649 -0.016629748 -0.005256197
000010 6a 03 5a bd 90 1c 49 bb 14 60 a7 ba 60 5f 03 bd
       -0.053225912 -0.003068719 -0.0012769722 -0.03207338
000020 b9 80 2d 3d 4f 70 dc bb 78 4a 4b 3d d8 a3 ed 3c
       0.042359088 -0.0067272554 0.049631566 0.02900879
000030 c0 fe 92 3c 66 53 68 bd 0f 62 9c 3c 6a 8c ac 3c
       0.01794374 -0.05672016 0.019089727 0.021063048
000040 8d 03 12 ba e2 e2 76 3c 5d 0d 05 3c e4 87 fe ba
       -0.0005569987 0.0150687415 0.008120862 -0.0019419161
000050 a5 56 89 bc 00 85 6f ba af 8d 97 3c 46 20 56 3c
       -0.016764948 -0.0009136945 0.018500177 0.013069218
000060 11 40 01 3d bd 92 07 bd 3e b9 60 bd 30 50 e0 bc
       0.03155524 -0.033098925 -0.05486416 -0.027381986
000070 9d 72 7c bb ed 6f 4b 3d 05 5a c0 3c 00 d7 63 3c
       -0.0038520463 0.049667288 0.023480425 0.01390624
000080 f0 12 0b 3d 05 4b 8f bc ab f7 36 3c 9f 6d 09 3d
       0.033953607 -0.017491827 0.011167447 0.03355181
000090 51 39 ba 3c 45 f0 3f 3d 2b ab 14 bc ef c4 d3 bc
       0.022732409 0.04686 -0.009074013 -0.025850741
0000a0 d2 84 6e 3c 8a 90 f8 3b 6f 30 3a bd 96 d6 09 bd
       0.014558034 0.00758559 -0.045456346 -0.03365191
0000b0 00 02 78 bc db 2a a1 bc c2 92 1a 3c 41 d0 6a bd
       -0.015137196 -0.019673755 0.009434404 -0.057327513
0000c0 b3 50 23 bd 39 da 66 bd 31 03 5c 3d 56 79 71 bc
       -0.039871883 -0.056360457 0.05371398 -0.014738401
0000d0 d5 f2 16 3d 52 9d 03 bd 95 fe 16 3d 54 15 17 bc
       0.036852676 -0.032132454 0.036863882 -0.009221394
0000e0 06 09 6d bd 37 e7 76 3b 36 b8 67 3d 3e b0 09 bc
       -0.057869934 0.0037674436 0.05657216 -0.008403836
0000f0 e9 3d 47 bc c9 89 d1 3c 0c c0 0c bd ce 8a 1c bc
       -0.012160757 0.025578396 -0.034362838 -0.009554578
000100 b1 ee 6f 3d da 90 c9 bc 56 67 0f bc 5d c9 38 3d
       0.058577243 -0.024605203 -0.008752665 0.04511391
000110 23 e8 de bc b3 08 4e 3d b5 d0 76 bc e2 ac 05 bd
       -0.0272103 0.050301265 -0.015064408 -0.032635577
000120 d6 2b c0 bc c8 ac 00 3d 5d 5c 09 3d 5e a3 14 bd
       -0.023458403 0.031414777 0.03353535 -0.03628861
000130 3c a0 ae 3c 49 43 d4 bc 0f c2 a8 bc 6a 52 b8 bc
       0.02131664 -0.02591099 -0.020600347 -0.022500236
000140 3f 3c 25 3c 23 6a 57 bc 57 d2 bf 3c 1b 6b 1c bb
       0.010085165 -0.013147864 0.023415728 -0.002386755
000150 1c f0 64 3d 34 9b 4e bc ca 2c f6 3c 10 5c 3b 3d
       0.05589305 -0.0126102455 0.030050654 0.045742095
000160 8f b3 11 3d 67 c9 63 3d 59 d0 af bc 7b e7 65 3d
       0.03557163 0.055611994 -0.021461653 0.05612896
000170 28 ed 2b 3c 21 37 17 3d c4 86 33 3d 93 a4 10 3d
       0.010493554 0.03691781 0.043829694 0.0353132
000180 4c b9 57 bd a4 88 50 3d 63 80 5f bd d4 9e 8f bc
       -0.052666947 0.05091156 -0.0545658 -0.01753179
000190 72 2b f5 3b 91 a5 39 bd 83 4d 78 bc 5e 8b 55 3c
       0.0074819857 -0.045323912 -0.015155199 0.013033716
0001a0 15 f9 61 3c ba 83 f3 3c dc 31 c6 3c cf d4 0a bc
       0.013792296 0.029725898 0.024193697 -0.008473589
0001b0 29 94 1f bd 52 b7 5f bc 85 12 ae bc ad cf ab 3c
       -0.038959656 -0.013654547 -0.021249065 0.020973051
0001c0 89 41 7f bc e6 a2 c3 bc 45 c1 88 3c 92 c2 57 bd
       -0.01557959 -0.023881387 0.01669372 -0.05267579
0001d0 3a fe 6f 3d 32 61 56 bd 82 5e b8 3c 65 89 1a 3d
       0.05859206 -0.052338786 0.022506002 0.037728686
0001e0 d5 1e b5 bc 59 94 39 3d 63 67 51 bd f2 ca b1 3c
       -0.022109428 0.04530749 -0.051123988 0.021703217
0001f0 a1 f3 13 3d 6a 4d 57 bd 13 9d e2 3c 83 8a 50 bd
       0.036121015 -0.052564062 0.02766279 -0.050913345
000200 7e e0 15 3d 32 42 4d bc b4 62 41 bd 87 82 68 3d
       0.036591046 -0.012527989 -0.04721327 0.056765106
000210 44 33 a1 bc 1f 5b 5b bd 57 5c 52 bd fd f8 30 bd
       -0.019677766 -0.053553697 -0.051357593 -0.043206204
000220 2d c6 90 3b 16 f1 3c bd b7 8d 2a bd ea c1 cb 3c
       0.0044181556 -0.046128355 -0.041639056 0.024872739
000230 77 2f 9a 3b d4 b9 65 3d 4a 35 61 3d 52 5a e7 3c
       0.0047053653 0.056085423 0.05498246 0.02824131
000240 2a fa 5d 3b 1e eb e8 3c e8 7c e4 3c 63 b7 56 bd
       0.0033871033 0.028432425 0.027891591 -0.052420985
000250 ee e0 22 bd 73 2f ed 3c f2 37 dd 3a d6 c5 2a bd
       -0.03976529 0.02895329 0.0016877635 -0.041692577
000260 d1 af 56 bd 1d 98 c8 3c cd 7e 24 bc 7b 75 48 bd
       -0.052413765 0.024486596 -0.010039997 -0.048940163
000270 15 5c d6 bb 3b c4 02 3d 1d fc 85 bc 07 1d cd bc
       -0.0065417388 0.03192542 -0.016355569 -0.025038255
000280 31 f5 2b bd e9 15 10 3d 28 6b fb bc 58 a6 25 bc
       -0.04198188 0.035177145 -0.030690745 -0.01011046
000290 56 34 f1 bc 56 70 66 3d d4 17 ce 3c 4a b8 42 3c
       -0.029443901 0.056259476 0.025157847 0.011884758
0002a0 16 2c 14 bd b6 a5 3b 3c 67 3c 93 bc 05 e8 df 3b
       -0.036174856 0.011453083 -0.017973138 0.006833079
0002b0 d0 7e 56 bd a1 83 f6 3c fc 63 f4 3c 91 47 24 bd
       -0.05236703 0.030092062 0.029832833 -0.040107314
0002c0 67 c5 39 3d 0c f6 06 bd 51 1c 60 bc b2 87 75 bc
       0.045354273 -0.032949492 -0.013678626 -0.014985966
0002d0 8a 38 5e 3c 20 32 70 bc ca 49 27 bd 58 a0 a4 bc
       0.013563285 -0.014660388 -0.040841855 -0.02009599
0002e0 91 66 b1 bc 51 f6 e2 bc 11 4e be 3c b9 38 c6 bc
       -0.021655353 -0.027705343 0.023230584 -0.02419697
0002f0 1e f7 00 3d 49 77 5e bd b1 a6 8d 3c ac d8 df bc
       0.03148567 -0.054312978 0.017291399 -0.027324997
000300 cb 09 34 bd 2c 3b 09 3d 70 22 89 3b bd 8a 7a bc
       -0.04395465 0.033503696 0.0041850135 -0.015291867
000310 68 20 07 3d 8e f8 23 3d 17 33 52 3d 1e cf e3 3c
       0.03298989 0.040031962 0.051318254 0.027808722
000320 b3 12 e1 3c 8c 2e b3 bc 3c 7e e6 3c f9 0d 01 bc
       0.027474737 -0.021872781 0.028136365 -0.0078768665
000330 e7 69 1f bd 33 8f 39 3c 12 63 4a 3d dd dc 36 3d
       -0.038919356 0.011325645 0.049410887 0.044644225
000340 ff 1d 94 3c 36 80 86 3b c2 50 d0 3b 88 7e 56 bd
       0.01808071 0.0041046394 0.0063572833 -0.052366763
000350 56 e6 a5 bc 64 9a 00 bd b0 71 14 3d 53 7f 31 bd
       -0.020251434 -0.03139724 0.036241233 -0.043334316
000360 71 ee 57 bd 43 2c 1d bb 1a f0 39 3d ca 62 32 bd
       -0.05271763 -0.002398268 0.045394994 -0.043551244
000370 ca a9 89 bb 00 a6 ef 3b 16 91 e4 bb 3f 33 9e 3c
       -0.0042011486 0.00731349 -0.0069753034 0.019311545
000380 e9 50 6b bd 97 62 0f 3d c3 ef 78 3a b6 13 2e 3d
       -0.05745021 0.035006132 0.00094961765 0.042499267
000390 9d e6 b9 3c 79 e9 4b bd 46 16 58 3d db b7 0e bd
       0.022692973 -0.049783204 0.052755617 -0.034843307
0003a0 2c 3b 22 3d 9a 7b 6f bd 4c fc 34 bd 26 e9 36 bd
       0.039607212 -0.058467485 -0.04418592 -0.04465594
0003b0 d4 a7 b9 bc 61 5c 48 bc 54 c7 50 3d 04 7c d4 3b
       -0.022663034 -0.012229056 0.050971344 0.0064845104
0003c0 7a d5 2f b6 9b 44 ed 3c f0 8f 49 3d 74 c7 ee bc
       -2.6201292e-06 0.028963378 0.049209535 -0.029147841
0003d0 82 84 37 bd 17 ef 6c bc 44 40 38 bd 7f 4d 52 3d
       -0.044804104 -0.0144613 -0.044983163 0.051343437
0003e0 b5 31 33 3d af bb 2a ba 0e 92 47 3c 25 23 78 3c
       0.043748576 -0.00065129524 0.012180818 0.015145098
0003f0 80 06 68 bb 85 0c 4c 3d bc 05 13 bc cc 70 ad bc
       -0.0035404265 0.049816627 -0.008973535 -0.02117195

conv.9.bias f4 [32]
000000 9e dc 5f 3c 3f 93 0a 3d 15 a0 b2 3c 7d 12 31 3d
       0.013663439 0.03383183 0.021804849 0.043230522
000010 9d 58 06 3d 35 0c f8 3c c8 01 5d bd 5c ca 21 3d
       0.032799352 0.030279258 -0.053956777 0.039499626
000020 42 4c a4 3c 37 f9 59 bc 72 42 9c 39 93 58 24 3d
       0.020055894 -0.013304046 0.00029804144 0.040123533
000030 73 c9 33 bd 4d 66 8e 3c 9e 1c 54 3c cf b6 18 bd
       -0.04389329 0.017382765 0.012946276 -0.037283715
000040 8f 5d 51 3d ad 0a 47 3d e6 b0 e0 3b 65 f3 df 3b
       0.051114615 0.048594166 0.0068570254 0.006834435
000050 95 7a 4b 3d da b9 5f bd 79 04 2c bd a3 e2 e2 bb
       0.04967745 -0.0546206 -0.041996453 -0.00692399
000060 98 3f d0 3c 76 d2 ff 3c f9 31 36 3d 80 57 55 bd
       0.025420949 0.031228285 0.04448125 -0.0520854
000070 b4 e4 12 bc b2 dd 29 3d 7e 88 3e bd 55 dc 10 3d
       -0.00896566 0.04147119 -0.046516888 0.035366375

conv.10.weight f4 [32]
000000 00 00 80 3f 00 00 80 3f 00 00 80 3f 00 00 80 3f
       1.0 1.0 1.0 1.0
000010 00 00 80 3f 00 00 80 3f 00 00 80 3f 00 00 80 3f
       1.0 1.0 1.0 1.0
000020 00 00 80 3f 00 00 80 3f 00 00 80 3f 00 00 80 3f
       1.0 1.0 1.0 1.0
000030 00 00 80 3f 00 00 80 3f 00 00 80 3f 00 00 80 3f
       1.0 1.0 1.0 1.0
000040 00 00 80 3f 00 00 80 3f 00 00 80 3f 00 00 80 3f
       1.0 1.0 1.0 1.0
000050 00 00 80 3f 00 00 80 3f 00 00 80 3f 00 00 80 3f
       1.0 1.0 1.0 1.0
000060 00 00 80 3f 00 00 80 3f 00 00 80 3f 00 00 80 3f
       1.0 1.0 1.0 1.0
000070 00 00 80 3f 00 00 80 3f 00 00 80 3f 00 00 80 3f
       1.0 1.0 1.0 1.0

conv.10.bias f4 [32]
000000 00 00 00 00 00 00 00 00 00 00 00 00 00 00 00 00
       0.0 0.0 0.0 0.0
000010 00 00 00 00 00 00 00 00 00 00 00 00 00 00 00 00
       0.0 0.0 0.0 0.0
000020 00 00 00 00 00 00 00 00 00 00 00 00 00 00 00 00
       0.0 0.0 0.0 0.0
000030 00 00 00 00 00 00 00 00 00 00 00 00 00 00 00 00
       0.0 0.0 0.0 0.0
000040 00 00 00 00 00 00 00 00 00 00 00 00 00 00 00 00
       0.0 0.0 0.0 0.0
000050 00 00 00 00 00 00 00 00 00 00 00 00 00 00 00 00
       0.0 0.0 0.0 0.0
000060 00 00 00 00 00 00 00 00 00 00 00 00 00 00 00 00
       0.0 0.0 0.0 0.0
000070 00 00 00 00 00 00 00 00 00 00 00 00 00 00 00 00
       0.0 0.0 0.0 0.0

conv.10.running_mean f4 [32]
000000 ad 7c 49 be cd 32 d3 3d 6e 98 6d 3d 02 58 e3 3d
       -0.19676466 0.10312424 0.058006696 0.111007705
000010 99 10 14 3c 50 8f 7c 3d d4 5f d6 3d 2d 9c 24 3e
       0.00903716 0.06166011 0.104674965 0.16075201
000020 00 06 df bd ae 82 df 3d e4 55 91 3e 36 83 42 be
       -0.10889816 0.10913597 0.28385842 -0.18995366
000030 4f 33 15 be ea a8 cc bb 96 15 70 bc 6a 79 55 3d
       -0.14570354 -0.006245722 -0.014653584 0.052117743
000040 dd 1c 03 3d 7c 71 a8 3e 97 23 c8 3d 15 26 ef bd
       0.032009948 0.32899082 0.09772413 -0.116771854
000050 a5 73 6d be 04 cc 6c 3d 8c f6 95 be 9b 5f cc 3e
       -0.23188646 0.057811752 -0.29289663 0.3991669
000060 6f 68 11 3c 78 9b 67 be c4 a7 30 bd 01 2d fa bd
       0.008874997 -0.226179 -0.043128744 -0.12215615
000070 b2 b7 5f bd a5 dc d1 3c aa 8e 3d 3d 9a 71 c0 3e
       -0.054618545 0.025617907 0.046278633 0.3758667

conv.10.running_var f4 [32]
000000 77 04 c1 3d d6 22 bb 3d e0 7d d4 3d 51 18 ae 3d
       0.0942468 0.09137504 0.10375571 0.08500732
000010 2b 8b aa 3d 5f 6b ee 3d 7c 88 d9 3d d2 ea 55 3e
       0.083273254 0.11641573 0.106217355 0.20890358
000020 1e 8d dd 3d 64 e6 de 3d f6 5d 26 3e bc 46 c6 3d
       0.108179316 0.10883787 0.16246781 0.0968146
000030 62 1d cc 3d eb 10 e6 3d 41 58 e1 3d 3c 04 c2 3d
       0.09966542 0.112336956 0.11003161 0.09473464
000040 c6 8e c5 3d 4a 85 5e 3e 75 c6 20 3e 7c 36 bc 3d
       0.096463725 0.21730533 0.15700705 0.091900796
000050 47 04 0b 3e da 96 d6 3d 65 b5 ee 3d dd 23 f8 3d
       0.1357585 0.104779914 0.11655692 0.121162154
000060 d7 70 d2 3d 41 55 e9 3d c4 09 ad 3d cb e3 dc 3d
       0.10275429 0.11393214 0.08449128 0.107856356
000070 89 f3 fb 3d 98 a3 db 3d f2 d2 bc 3d e7 89 4e 3e
       0.1230231 0.107245624 0.09219922 0.20169793

conv.12.weight f4 [32, 32, 3, 3]
000000 67 2e ad bc 6f ca 96 3c ba 76 65 3d 05 ff 07 bc
       -0.02114029 0.018407075 0.05602143 -0.0083005475
000010 f4 72 1e 3d 95 d3 d6 3b b3 1c 5d 3d ef 6f 06 3d
       0.038683847 0.0065559843 0.053982448 0.032821592
000020 05 9a 56 3d 9a dd 03 bd b9 a5 b2 3c fb 81 31 3c
       0.05239298 -0.032193758 0.021807538 0.010834212
000030 bb 7b 2b 3d fa 05 97 bc f5 24 63 bc 6f 8d 45 bd
       0.041866045 -0.018435467 -0.013863792 -0.048230585
000040 30 f0 81 3a c2 41 f1 bc ef ad 38 3d 74 0c 29 bd
       0.00099135 -0.029450301 0.04508775 -0.04127164
000050 f6 64 42 bd 2a 7c 69 3d f4 ca a6 bc 7a 87 53 3d
       -0.047459565 0.057003178 -0.020360447 0.051642872
000060 4c 0f 3f 3d f7 ef 68 bc e8 92 53 bc 1d 4a 5e 3d
       0.046645448 -0.014217368 -0.012913443 0.0542699
000070 16 8a e9 3c f8 98 6c bc 4c 17 fd 3c d3 f5 99 3c
       0.028508227 -0.0144407675 0.030894898 0.018793976
000080 94 5b 38 bc ac 4c 10 bd 9f 80 a1 3c 6b 3c 6c 3d
       -0.011252303 -0.03522937 0.019714652 0.057674807
000090 c5 ce 4a 3d 48 72 ba 3c fe 93 36 bb fa 4d d9 ba
       0.049513597 0.022759572 -0.0027859206 -0.0016579025
0000a0 db c7 f0 3c e8 4b 48 bc 88 6f 6c bd 54 3a 81 bc
       0.029392174 -0.012225129 -0.057723552 -0.015774883
0000b0 2a e6 05 3d 5d d0 e7 3c 24 33 5c 3c cc a3 f3 3c
       0.032690205 0.028297598 0.013439927 0.02974119
0000c0 62 a5 23 3d 37 0f 02 bd 68 76 33 3d 96 4e 82 bc
       0.039952643 -0.03175279 0.043814093 -0.015906613
0000d0 30 9c 7c 3c 66 fb 5b ba ed 7b 37 bd ae 1c 5a 3d
       0.015418097 -0.00083916483 -0.04479592 0.053250007
0000e0 cf 83 24 bc ec 64 9f bc bc 23 45 bd 8e 5a e5 bb
       -0.010041191 -0.019457303 -0.048129782 -0.0069993204
0000f0 e7 12 40 3d f9 fe d1 3b d6 56 f0 3b 0f f2 16 bd
       0.046893027 0.006408569 0.0073345704 -0.03685194
000100 9e 39 16 3d 6d ba 35 3d 10 aa 3d 3d 35 37 4d 39
       0.03667604 0.044367243 0.046304762 0.0001957089
000110 a1 20 3f bd fd 9e 1d bc 60 e9 39 3d 17 1e 2b 3c
       -0.046661977 -0.009620425 0.04538858 0.010444186
000120 0d 33 4c bc 56 0a 2f 3d fc 81 59 bd b2 7f 1b bd
       -0.012463343 0.042734466 -0.05310248 -0.037963577
000130 35 62 42 bd 1a 62 03 bd 47 1f 05 bc 4b ef 6e bd
       -0.04745694 -0.03207598 -0.008125133 -0.058333676
000140 af 19 c5 bc 95 17 50 bd 80 f5 ae bc 0b 9e 68 bd
       -0.024060098 -0.05080374 -0.021357298 -0.056791347
000150 d5 d1 64 bd 35 50 7e 3c 3d c7 02 3c fe 5c 38 3d
       -0.055864174 0.0155220525 0.007982072 0.04501056
000160 4e 1b 16 3c 15 e7 e1 bb 7e 7a 9a bc 64 46 1e 3d
       0.009161783 -0.006894002 -0.018857237 0.03864135
000170 56 fe 0d bd a3 96 1a 3d af 0b 5f 3d b8 78 e4 3c
       -0.03466638 0.037741315 0.0544545 0.027889594
000180 8b b7 23 3d 2e 89 38 bd 7a fb d6 3b 3f a2 69 bd
       0.039969962 -0.0450527 0.00656074 -0.057039496
000190 71 e2 75 bc 4e e3 50 bb 94 bf 64 bc b4 15 3d 3a
       -0.015007601 -0.0031873765 -0.013961691 0.0007213012
0001a0 de cb 04 bd dd f7 4d 3d 3b f9 0d bd 80 48 62 3d
       -0.032420985 0.05028521 -0.034661513 0.055244923
0001b0 70 4d 62 3c 59 65 cf b9 bd df 31 3d 11 ba 5c 3d
       0.013812408 -0.00039557627 0.043426264 0.053888384
0001c0 92 bb 60 3d 4d a8 ff bc 72 4a 65 bd e5 85 58 3c
       0.05486638 -0.031208182 -0.0559792 0.013215517
0001d0 7b 3b 52 3d 6a d4 2f 3d 45 50 e5 3c fa 4e 2c bd
       0.051326256 0.042927183 0.027992377 -0.042067505
0001e0 66 4a 61 3c 53 bd 6f bd 0b dc 32 3d 03 bc 28 3d
       0.013750648 -0.058530163 0.04366688 0.041194927
0001f0 55 7a c3 3c 66 f9 d5 bc 65 59 18 bd 9f ce 64 3d
       0.023862043 -0.026119899 -0.03719463 0.05586111
000200 67 ad ae 3c c7 f0 15 3d a4 d3 20 bd ab ba 34 3d
       0.021322919 0.036606576 -0.039264336 0.044123333
000210 13 e3 8d bc 09 4d 67 bc 06 b3 00 3d 0e 7a 56 bd
       -0.017320191 -0.014117488 0.03142073 -0.052362494
000220 a6 9a 8b bc c4 b5 10 bd 37 9f 42 bb 85 67 3d bd
       -0.017041516 -0.035329595 -0.002969695 -0.046241302
000230 33 15 63 3d 90 7a ac bc ad f4 1a 3d 6a 22 b6 3c
       0.05544014 -0.021054536 0.037830997 0.022233207
000240 95 a6 38 3d 66 25 66 3d 01 ca f7 3c dc e6 ee bc
       0.04508074 0.05618801 0.03024769 -0.029162817
000250 9f 9b fa 3b 35 22 65 bd 26 31 7c bc a8 74 a0 3c
       0.007647946 -0.055940825 -0.015392577 0.019586876
000260 0b d3 0f bd 83 85 52 bd 2c a1 c7 3c c5 3b af 3c
       -0.035113376 -0.051396858 0.024368845 0.021390805
000270 2c ad 22 3d 69 e9 cd 3c 7e 16 89 3c 51 b2 7e 3c
       0.03971593 0.025135713 0.016734358 0.015545444
000280 14 4e 6d 3d cd f4 ba 3c 9e 14 5e 3d 0b e4 4e 3d
       0.05793579 0.022821808 0.05421888 0.050510447
000290 16 8c cc 3a a3 1a ca 3c 8f 3f e9 bc 48 19 4f 3d
       0.0015605714 0.024670905 -0.02847269 0.05056122
0002a0 10 f5 5a 3c 95 a2 4c bd f6 5b 80 bc f2 4a 68 bd
       0.0133640915 -0.049959738 -0.01566885 -0.0567121
0002b0 7c ec 3f 3d 43 11 33 bd a4 60 1a 3c 06 1e 9a 3b
       0.04685639 -0.043717634 0.009422455 0.004703286
0002c0 73 2c 61 3d 1a 09 25 3c 46 c3 3d 3d 4b 8a 0f 3d
       0.05497403 0.010072971 0.046328805 0.035043996
0002d0 88 2b 54 3d bf 3e 17 bd a0 1b c4 3c 40 e4 f5 3c
       0.051799327 -0.036925074 0.023938954 0.030016065
0002e0 66 58 ac 3c f7 0f 40 3c 84 03 ab bb 00 b9 d9 bc
       0.021038245 0.011722556 -0.005218925 -0.026577473
0002f0 5b 94 55 bc 79 fb 0b bd f8 f5 19 3d 43 e8 9d 3c
       -0.013035859 -0.03417537 0.03758809 0.01927579
000300 60 37 20 3c 76 2b 5a bd 37 7f 4e 3d 26 9a 11 bd
       0.009778827 -0.053264104 0.05041429 -0.035547398
000310 67 36 83 bb c3 9a ff bc 05 37 1e 3d af 8c 0b 3d
       -0.004004288 -0.031201726 0.03862669 0.034069713
000320 b1 b9 02 bd 97 65 09 bd b3 06 5a bd 06 0a 19 bd
       -0.03191537 -0.03354415 -0.053229045 -0.037363075
000330 2c c4 7f bc 90 36 34 bc 9b 80 f4 3c 0a 3d 15 bc
       -0.015610736 -0.010999337 0.02984648 -0.009108791
000340 88 e8 6b bd a1 88 cf 3c 18 32 8e 3b ad e3 d8 bb
       -0.057594806 0.025333704 0.0043394677 -0.006618938
000350 f2 97 da bc cf f7 bb bc 51 63 26 bd 56 44 f2 bb
       -0.026683781 -0.022945313 -0.04062206 -0.0073934
000360 2c 6a a9 3c 8a 78 2b 3c bf 86 b4 bc bf a7 66 bd
       0.02068051 0.0104657505 -0.022036908 -0.05631232
000370 91 cc 12 bd d2 07 9f bc 10 70 51 bd 26 70 3b 3d
       -0.03583962 -0.019412909 -0.05113226 0.04576125
000380 84 12 20 bc 6b 33 ef bc 1f fb 06 bd 7d 92 0b 3d
       -0.0097700395 -0.029199323 -0.03295433 0.03407525
000390 0e 77 dd 3c 51 bf 6f bd 81 ae 6b 3c 4b 86 ed 3b
       0.027034309 -0.058532063 0.014384867 0.007248675
0003a0 0a 4f 14 3c 3d 50 6a bd 46 0e 8a 3c 22 16 1c 3c
       0.0090520475 -0.057205427 0.01685251 0.009526761
0003b0 3f 1c 6c 3d e7 69 e4 bb d2 84 d9 3c e3 98 42 bd
       0.057644125 -0.0069706324 0.026552591 -0.047509085
0003c0 48 1d 67 3d 4a 1f 92 3c ba d2 81 3c bd 6c 4f 3d
       0.05642441 0.017837185 0.015847553 0.05064081
0003d0 65 e1 50 3d dd 6e 52 3d 59 47 ef 3c 93 07 1a 3d
       0.050996203 0.05137526 0.029208826 0.03760488
0003e0 5d 45 1c 3d aa e8 dd bc cf 5d 70 3d a4 24 be bb
       0.038152087 -0.027088482 0.058683213 -0.0058027077
0003f0 89 a7 17 3d 2e c0 2b bd c4 d4 5f bd ce 85 a7 bc
       0.03702501 -0.041931324 -0.05464627 -0.020449545

conv.12.bias f4 [32]
000000 16 26 45 3d 1f a5 17 3d 03 6e 6b ba cb 3c 2d bd
       0.048132025 0.037022706 -0.00089809316 -0.042294305
000010 b1 16 22 3d d9 51 5e bb 96 72 57 3d 78 dc de 3c
       0.03957242 -0.0033923297 0.052599512 0.027204737
000020 db c2 14 bd cb c4 c7 3a 65 e7 4e bd 7f 5c e4 bc
       -0.03631864 0.0015241144 -0.050513644 -0.027876137
000030 ab 07 9c 3c f5 2e dc bb ed 58 65 3d c9 ca 04 3d
       0.019046625 -0.006719465 0.05599301 0.032419953
000040 5b 54 36 3c fe 09 3a 3d 37 fa 06 3d b7 d6 86 bc
       0.01112851 0.045419686 0.032953467 -0.016459806
000050 fc f9 0e bd 67 2a cc bc 0c 78 2e 3c b2 d6 6d 3d
       -0.034906372 -0.024922563 0.010648739 0.058066078
000060 08 9d f8 bc 32 47 12 bd 75 43 d9 3c 07 ff 4c bd
       -0.030348316 -0.03571243 0.026521424 -0.0500479
000070 95 ef aa bc d5 dd cd bc 94 80 32 3d ae a0 37 3d
       -0.020866195 -0.025130192 0.043579653 0.04483097
