results/latent_cnn_unet_lat32_mFalse_ipmFalse_res50_vps8_fidmFalse_ffdmFalse_idm-1-6000.pth (torch, 357278 bytes, 61 tensors)

conv.0.weight f4 [16, 6, 3, 3]
0	0xbe1479ad	-0.1449954
1	0xbc73bc68	-0.0148764625
2	0x3cab0372	0.020875666
3	0xbd949139	-0.072542615
4	0x3d7f2206	0.062288307
5	0x3d8f7dd5	0.070064224
6	0x3db347dd	0.08753941
7	0x3d4c08ee	0.049813204
8	0x3cf1d394	0.029519834
9	0xbd1a7993	-0.0377136
10	0x3dbe7cee	0.09301172
11	0x3de494c7	0.111611895
12	0xbe153104	-0.14569479
13	0xbdb62b14	-0.08894935
14	0xbd77142b	-0.060321968
15	0xbdd1d9a6	-0.10246591
16	0x3d2e4388	0.04254487
17	0xbd083942	-0.03325773
18	0xbd2440ed	-0.04010098
19	0x3dbd443d	0.09241531
20	0xbdc8e6b2	-0.09809627
21	0xbdcbc185	-0.0994902
22	0x3d03fa1d	0.03222095
23	0x3dbbe97a	0.091753915
24	0xbe1a544c	-0.15071219
25	0xbe17cae1	-0.14823486
26	0xbcec2725	-0.02882726
27	0x3d84690e	0.0646535
28	0x3c2fb4a1	0.010724218
29	0xbdc7f33b	-0.097631894
30	0xbd45dfb2	-0.048309036
31	0x3d1f6eb8	0.03892395
32	0x3dd9f5c8	0.10642582
33	0x3d0b32e8	0.033984095
34	0xbc372b06	-0.011179691
35	0xbd5f4f62	-0.054519065
36	0xbe1683c1	-0.14698698
37	0xbd472492	-0.04861886
38	0xbdab3a4d	-0.08360729
39	0xb8ab05ce	-8.1549966e-05
40	0xbe01d8f9	-0.12680425
41	0xbdc4c26d	-0.09607396
42	0x3d1c7ca0	0.03820479
43	0xbd679e97	-0.056547727
44	0xbc5e4caf	-0.0135680875
45	0xbdb25dc4	-0.087092906
46	0xbd691c48	-0.056911737
47	0x3d38e7d3	0.04514296
48	0xbe0d3254	-0.1378873
49	0xbde727f3	-0.112869166
50	0xbd949f4f	-0.07256948
51	0x3ccb59fd	0.024823183
52	0x3c8cc4dd	0.017183715
53	0x3dae501d	0.08511374
54	0xbd3d2574	-0.046178296
55	0x3d65de67	0.056120303
56	0x3d246b89	0.040141616
57	0xbd724708	-0.059149772
58	0x3deb0d97	0.114772014
59	0x3d963df7	0.073360376
60	0x3df1b703	0.11802485
61	0xbe0fee44	-0.14055735
62	0x3d57d2dc	0.052691326
63	0xbd18595b	-0.03719459
64	0xbd4fb50e	-0.050709777
65	0xbe0f3722	-0.13985875
66	0x3d6ba021	0.057525758
67	0x3d97d493	0.07413592
68	0x3df0d5d6	0.11759536
69	0x3d7d51a2	0.06184543
70	0x3dbb3428	0.091408074
71	0x3dcb192c	0.099169105
72	0xbd23b0a3	-0.039963376
73	0x3d565bd8	0.052333683
74	0xbd45909c	-0.048233613
75	0xbd1072e8	-0.035265833
76	0x3dafa8ea	0.0857714
77	0xbd85a4e5	-0.06525592
78	0xbb6d2286	-0.0036183908
79	0x3bfd8f41	0.0077380245
80	0x3d62dfe1	0.05538929
81	0x3d09e6ac	0.03366725
82	0x3ccdde8e	0.025130536
83	0x3d1c5bc7	0.038173463
84	0xbe122288	-0.14270985
85	0xbdd0393d	-0.10167167
86	0xbcb81933	-0.022472953
87	0xbdead16b	-0.114657246
88	0xbc458c06	-0.01205731
89	0x3dd57322	0.104223505
90	0x3d4d82e7	0.050173666
91	0xbddce9c5	-0.107867755
92	0xbb4951dc	-0.0030718958
93	0xbd81f56d	-0.063456394
94	0xbdc2bd50	-0.09508765
95	0x3da66b14	0.08125892
96	0xbd10db2d	-0.035365272
97	0xbba3d945	-0.005000266
98	0x3db4656b	0.088084064
99	0xbdc2fa79	-0.0952043
100	0xbc940324	-0.018067904
101	0xbc6b2113	-0.014351147
102	0xbde20956	-0.11036937
103	0xbe14da70	-0.14536452
104	0x3b49a498	0.0030768272
105	0x3d8adb21	0.06780077
106	0xbdc4abe8	-0.09603101
107	0xbdaa9fb7	-0.083312444
108	0x3d7f3db5	0.062314708
109	0xbdd57f4c	-0.104246706
110	0xbd309b9d	-0.043117154
111	0x3d99d390	0.075110555
112	0xbdf3c545	-0.119028606
113	0xbbcd7bcc	-0.0062708613
114	0x3c2c886b	0.010530571
115	0x3da42944	0.08015683
116	0xbd792c03	-0.06083299
117	0xbd64ffcf	-0.05590802
118	0x3c0731b0	0.0082515925
119	0x3d9e111a	0.077181056
120	0xbcc5cafa	-0.024144638
121	0xbdfe791a	-0.12425442
122	0xbdeaf001	-0.11471558
123	0x3b12170e	0.0022291574
124	0x3dc5adf1	0.09652317
125	0xbd9ebb8b	-0.07750615
126	0xbd9e3671	-0.077252276
127	0xbba368b2	-0.004986846
128	0xbc62934d	-0.013829065
129	0xbd843b08	-0.06456572
130	0x3d751d23	0.05984224
131	0xbbae2776	-0.0053147627
132	0x3d6c2872	0.05765576
133	0x3d0c0b49	0.03419045
134	0x3d99a4d6	0.07502143
135	0xbe37fa65	-0.17966612
136	0xbda13621	-0.078716524
137	0xbdd1790d	-0.10228167
138	0xbd7ab7f8	-0.061210603
139	0xbd33caf7	-0.043894734
140	0xbe004ee6	-0.12530097
141	0xbda5a313	-0.080877446
142	0x3db16f89	0.08663852
143	0x3c1da7f2	0.009622561
144	0x3d1f4a0d	0.03888898
145	0xbca96068	-0.020675853
146	0x3d8112da	0.06302424
147	0xbe2b5ce2	-0.1673465
148	0x3ca46efc	0.020072453
149	0xbd2c6b46	-0.04209449
150	0xbe391985	-0.18076141
151	0xbd9da07f	-0.07696628
152	0x3d1c3a63	0.03814162
153	0xbe39329d	-0.18085714
154	0xbdf4d475	-0.119545855
155	0xbd0aaa77	-0.033853974
156	0xbe120c4f	-0.14262508
157	0xbe23a930	-0.15982509
158	0xbd535db0	-0.05160302
159	0xbe0b089c	-0.13577503
160	0x3dbcd26b	0.092198215
161	0xbe12649a	-0.14296189
162	0xbde1e5df	-0.110301726
163	0xbd900461	-0.07032085
164	0x3c376ac2	0.011194887
165	0xbde397ca	-0.11112936
166	0xbde5cdda	-0.11220904
167	0x3cadeda0	0.021231472
168	0xbe139842	-0.1441355
169	0xbe39d251	-0.18146636
170	0xbd33ce2a	-0.043897785
171	0x3d6cb62c	0.05779092
172	0xbcfb1162	-0.030647937
173	0xbda8c4b8	-0.08240646
174	0xbd947911	-0.07249654
175	0xbd5e4c99	-0.054272268
176	0xbd302a3c	-0.043009028
177	0xbcd7fb76	-0.026365023
178	0xbd24bb1a	-0.040217496
179	0xbe26b633	-0.16280441
180	0xbdd1b064	-0.10238722
181	0xbb11c87f	-0.002224475
182	0xbd0d3047	-0.03446987
183	0x3c290974	0.010317195
184	0xbdac25c0	-0.08405638
185	0xbe229e78	-0.15880764
186	0x3d862b09	0.06551177
187	0xbd6d2e84	-0.05790569
188	0xbdb62de4	-0.08895472
189	0x3d91236e	0.07086836
190	0xbddfb921	-0.109239824
191	0xbbf283e7	-0.007400978
192	0xbd3153d5	-0.04329284
193	0x3db47bc0	0.08812666
194	0x3dec058a	0.11524494
195	0xbc16b535	-0.009198477
196	0x3d0f7ce0	0.0350312
197	0x3d850e93	0.064969204
198	0xbe04af6c	-0.12957543
199	0x3dd3b970	0.10338104
200	0xbdbf6f97	-0.09347456
201	0x3d46ff3c	0.048583254
202	0x3d420630	0.047369182
203	0x3d33d051	0.043899838
204	0x3dedde23	0.11614635
205	0x3d0295af	0.03188103
206	0xbce91f66	-0.028457355
207	0x3d753c61	0.059872035
208	0x3c8aa227	0.016923023
209	0x3d055121	0.032548074
210	0xbcde7fe4	-0.027160592
211	0x3d113b95	0.035457212
212	0x3d8d23fc	0.06891629
213	0x3da34db2	0.079738036
214	0x3d68d8c6	0.056847356
215	0x3c9f3ab0	0.019437164
216	0xbda8e49a	-0.08246727
217	0x3da253f5	0.0792617
218	0x3d8173a3	0.06320884
219	0x3de53caa	0.111932114
220	0x3e07a6df	0.1324725
221	0xbbe2d7ca	-0.0069226967
222	0x3bd8b1dd	0.006613
223	0xbda683b5	-0.0813059
224	0x3d7b1146	0.06129577
225	0xbd6bfe9f	-0.057615872
226	0x3e10702a	0.14105287
227	0x3d9fb39b	0.07797929
228	0x3cb2af80	0.0218122
229	0xbb9fda59	-0.004878324
230	0x3c3dba91	0.011580125
231	0xbd8cc855	-0.06874148
232	0xbd29a334	-0.04141541
233	0xbdc88621	-0.09791208
234	0xbc75c7e1	-0.015001268
235	0xbd52d62d	-0.051473785
236	0x3dc8550f	0.09781849
237	0x3de1f045	0.11032156
238	0xbc223606	-0.0099005755
239	0xbc0ad775	-0.0084742205
240	0x3de5742d	0.112037994
241	0x3df7d6fa	0.121015504
242	0x3de3814d	0.111086465
243	0xbcc16144	-0.02360595
244	0x3a475013	0.00076031795
245	0xbe0bfd18	-0.13670766
246	0xbda2c356	-0.079474136
247	0xbdde75ee	-0.10862337
248	0xbc67f15f	-0.014156668
249	0x3d442bb6	0.04789325
250	0xbcd8d4f7	-0.026468737
251	0x3d05a988	0.03263238
252	0xbe09150d	-0.13386936
253	0x3d5b071c	0.053473577
254	0xbdbea749	-0.09309251
255	0xbda30d5a	-0.07961531

conv.0.bias f4 [16]
0	0x3dc302f9	0.09522051
1	0x3c9300ed	0.017944777
2	0xbe283d39	-0.16429605
3	0x3cb487f6	0.022037487
4	0xbdeb3aa4	-0.11485794
5	0xbd3a4028	-0.04547134
6	0xbd953afe	-0.072866425
7	0x3dbd42f1	0.09241284
8	0x3db3fc21	0.08788324
9	0xbdcca902	-0.09993173
10	0xbe0809fb	-0.13285057
11	0x3d8b168f	0.06791412
12	0x3de13397	0.10996168
13	0xbe0fd2a6	-0.140452
14	0xbdc730f0	-0.09726131
15	0x3d8f7b18	0.070059

conv.1.weight f4 [16]
0	0x3f7ac885	0.9796222
1	0x3f7c4264	0.98538804
2	0x3f794981	0.97377783
3	0x3f7ad753	0.9798481
4	0x3f7b9223	0.9826986
5	0x3f7b226a	0.98099387
6	0x3f7e812c	0.9941585
7	0x3f7b48c2	0.98157895
8	0x3f74aea9	0.9557901
9	0x3f7de8a2	0.99183095
10	0x3f7ce941	0.9879342
11	0x3f741cb0	0.95356274
12	0x3f7a0cd7	0.9767584
13	0x3f7bcc30	0.9835844
14	0x3f73f6a3	0.9529821
15	0x3f7acf1a	0.9797226

conv.1.bias f4 [16]
0	0xbca18b0f	-0.019719629
1	0x3c04e82b	0.008111994
2	0xbcfa124a	-0.030526299
3	0xbc3ede7a	-0.011649722
4	0x3cce4b69	0.025182443
5	0x3b973072	0.0046139294
6	0xba825193	-0.0009942524
7	0xbc9a4c00	-0.018835068
8	0xbca9633e	-0.020677205
9	0xba5ab62b	-0.0008343185
10	0xbbff086e	-0.0077829873
11	0xbc75e99c	-0.01500931
12	0xbca94707	-0.020663751
13	0xbc8113d0	-0.015756518
14	0xbd3914a5	-0.045185704
15	0x3c30c3be	0.010788856

conv.1.running_mean f4 [16]
0	0xbcbd2494	-0.02308873
1	0x3ec45284	0.38344204
2	0xbe9f952f	-0.31168506
3	0x3dd424ac	0.10358557
4	0xbed46332	-0.4148193
5	0xbedbc912	-0.42926842
6	0xbd4aaf8b	-0.049483817
7	0x3edc0461	0.4297209
8	0xbe7f5a5e	-0.24936816
9	0xbf07fddf	-0.5312175
10	0x3eb9c746	0.36284846
11	0xbf68a295	-0.9087308
12	0x3f38bf00	0.7216644
13	0xbde9658f	-0.11396324
14	0xbe908e46	-0.28233546
15	0xbe8a1626	-0.26970023

conv.1.running_var f4 [16]
0	0x3c015189	0.007892975
1	0x3c54c8d0	0.012987331
2	0x3bc81c48	0.006106887
3	0x3b02a38d	0.001993391
4	0x3c21a0f4	0.009865034
5	0x3c81ffc7	0.015869034
6	0x3a8f95bb	0.0010954657
7	0x3c47ebf9	0.012202256
8	0x3c8d7c39	0.017271148
9	0x3c9ee07b	0.01939415
10	0x3cb0cb67	0.021581365
11	0x3dbf66cf	0.09345781
12	0x3d06db13	0.03292377
13	0x3a55b0bb	0.000815164
14	0x3c0368aa	0.008020559
15	0x3c575804	0.013143543

conv.3.weight f4 [32, 16, 3, 3]
0	0xbcc1b8a4	-0.023647614
1	0xbc82b380	-0.015954733
2	0xbce8f618	-0.02843766
3	0x3d2b835e	0.04187333
4	0xbc55865f	-0.013032525
5	0x3d42fc93	0.047604155
6	0xbd8d9262	-0.06912686
7	0xbd5df7e8	-0.0541915
8	0x3d10e944	0.03537871
9	0x3dcf9402	0.10135652
10	0xbd505910	-0.050866187
11	0x3cd3553e	0.025797483
12	0x3c8b5247	0.017007006
13	0x3d9baebe	0.07601689
14	0x3dc8249e	0.09772609
15	0x3dbe71cc	0.09299049
16	0x3d855e34	0.065121084
17	0x3d260ec6	0.040541433
18	0x3d99b0d5	0.07504431
19	0xbc413cd3	-0.011794287
20	0xbcd27686	-0.025691282
21	0xbc6a0d99	-0.0142854685
22	0x3d6a314e	0.057175927
23	0x3d0825a5	0.033239026
24	0xbbdbd93a	-0.006709245
25	0xbd66a095	-0.056305487
26	0xbcf4d1c6	-0.029885184
27	0xbca0672a	-0.019580442
28	0x3c05f715	0.008176585
29	0xbca890fe	-0.02057695
30	0xb9bd5794	-0.0003611414
31	0xbd1c2ce5	-0.038128752
32	0xbd7359c0	-0.059411764
33	0x3dc8193d	0.09770439
34	0x3d3c74cb	0.04600982
35	0xbd0045fc	-0.031316742
36	0x3d3ea725	0.04654612
37	0x3d83e179	0.0643949
38	0x3d1b78da	0.03795705
39	0x3c834e7b	0.016028633
40	0xbca0b743	-0.019618636
41	0x3d03af0c	0.03214936
42	0x3d5e2d22	0.05424226
43	0x3c854e49	0.01627268
44	0xbd98af80	-0.07455349
45	0x3c592a67	0.013254738
46	0x3d06a00c	0.032867476
47	0x3cea1caa	0.028578121
48	0x3c18ee8b	0.009334217
49	0xbcd1541d	-0.025552804
50	0x3d9aafde	0.07553075
51	0xbda829eb	-0.0821112
52	0xbd0e454f	-0.034734067
53	0x3d010256	0.03149637
54	0x3e024e99	0.12725295
55	0x3e000470	0.12501693
56	0x3d137f1f	0.036009904
57	0x3db657e6	0.08903484
58	0x3e14f1b9	0.14545335
59	0x3db1642e	0.08661686
60	0x3c195837	0.009359411
61	0x3dc8f24e	0.09811841
62	0xbc8ef394	-0.017450131
63	0xbd464a17	-0.0484105
64	0x3daf3ed0	0.085569024
65	0x3da49e93	0.08038058
66	0xbbc549f2	-0.006020778
67	0xbc2ed8bb	-0.01067179
68	0x3da4e250	0.08050978
69	0xbd16def9	-0.036833737
70	0x3ccc4631	0.024935814
71	0x3c8cccbf	0.017187474
72	0x3ab395fe	0.0013701317
73	0xbd8fd581	-0.070231445
74	0xbdaaf2f7	-0.08347123
75	0x3d72ae31	0.059248153
76	0xbd5eda53	-0.05440743
77	0x3d41b0ba	0.04728768
78	0x3d178be6	0.036998652
79	0x3d86e8ee	0.065873966
80	0x3d817f33	0.063230895
81	0x3cd784d9	0.026308464
82	0xbd2c814e	-0.042115502
83	0xbd6d5347	-0.057940748
84	0xbd3a9869	-0.045555506
85	0xbc3e8762	-0.011628957
86	0x3d5483b3	0.05188341
87	0xbcb206e2	-0.021731798
88	0xbd74ff54	-0.059813812
89	0xbc3c9bac	-0.011511724
90	0xbd97c583	-0.07410719
91	0x3ceb9b17	0.028760476
92	0xbcb3b405	-0.021936426
93	0xbc7d4b4a	-0.015459845
94	0x3d80bff7	0.062866144
95	0xbca869e4	-0.020558305
96	0xbd38f3a9	-0.045154247
97	0xbcad3264	-0.021142192
98	0xbcbbf6cb	-0.022944828
99	0x3c908787	0.01764275
100	0xbd3a1d05	-0.04543783
101	0xbbc31bdd	-0.0059542493
102	0x3d482a5e	0.04886853
103	0xbd81754c	-0.06321201
104	0x3ce5beb7	0.028045041
105	0x3d938f67	0.07205086
106	0xbda2586c	-0.079270214
107	0x3d70ed38	0.05881998
108	0xbd21c2bf	-0.039492365
109	0x3bec6997	0.0072147357
110	0x3cb42693	0.02199105
111	0x3d7c4643	0.061590444
112	0xbd31fe76	-0.043455563
113	0x3bd53a4d	0.006507194
114	0x3cbd18ab	0.023083052
115	0x3cd3397b	0.025784245
116	0x3d206806	0.039161704
117	0x3d0c92e8	0.03431979
118	0x3c1ac4fd	0.00944638
119	0x3d763313	0.060107302
120	0xbd953ccd	-0.072869875
121	0xbd081a61	-0.033228282
122	0x3c3c2083	0.011482361
123	0xba304bf1	-0.00067251833
124	0x3d771202	0.060319908
125	0x3da17ade	0.07884763
126	0xbce6af29	-0.028159695
127	0x3ae829f4	0.0017712698
128	0xbdc1eafd	-0.094686486
129	0xbc900acf	-0.017583279
130	0xbd93f43a	-0.07224317
131	0xbce6cd09	-0.02817394
132	0x3ca8fced	0.020628417
133	0xbd234adf	-0.039866325
134	0x3d023e86	0.03179791
135	0xbdb9bdbb	-0.09069391
136	0xbd253ed0	-0.040343106
137	0x3c04f82b	0.0081158085
138	0xbaf06f1d	-0.0018343661
139	0xbd751814	-0.059837416
140	0x3d904efe	0.070463166
141	0x3c561bd0	0.013068154
142	0xbd590fcf	-0.052993592
143	0x3d83975c	0.06425354
144	0xbc67d41e	-0.014149694
145	0xbd803a32	-0.062611
146	0x3aec9247	0.0018048965
147	0x3c0b4651	0.008500651
148	0x3d5807fe	0.052741997
149	0x3d68f63a	0.056875445
150	0xbcae4974	-0.02127526
151	0xbdbbc4ed	-0.0916842
152	0x3d07ce5c	0.033155784
153	0x3d160e63	0.036634814
154	0x3d05e80a	0.032691993
155	0x3d800a8c	0.06252012
156	0x3ccc8b0c	0.024968646
157	0xbcafd5a5	-0.021464178
158	0x3d53d5e6	0.05171766
159	0xbbab1dde	-0.0052220663
160	0x3d9f4d64	0.07778433
161	0xbd991d3d	-0.0747628
162	0xbdbf00f8	-0.09326357
163	0xbdab1c2f	-0.08354985
164	0xbd4ee99b	-0.050515752
165	0x3d4650a9	0.048416767
166	0xbdae9010	-0.085235715
167	0xbda097f4	-0.07841483
168	0xbca3ab52	-0.019979153
169	0x3d857b0e	0.065176114
170	0x3c6cb665	0.014447783
171	0x3d919dd4	0.071101815
172	0xbbf15588	-0.0073649324
173	0xbd2670a5	-0.04063477
174	0x3cd63c2a	0.026151735
175	0xbd49672d	-0.04917066
176	0x3c710ac2	0.0147120375
177	0xbd314ab3	-0.04328413
178	0xbdb6ecf2	-0.089319125
179	0x3c4fbc91	0.012679235
180	0xbda5c822	-0.08094813
181	0xbd39bab9	-0.04534409
182	0x3d10a8cc	0.035317227
183	0x3c9c9387	0.019113315
184	0xbdac132e	-0.08402096
185	0xbcb9aeba	-0.022666324
186	0x3d91f001	0.07125855
187	0x3d9b71fc	0.075901
188	0xbd50072e	-0.050788097
189	0xbd96c201	-0.07361222
190	0x3d005dd3	0.031339478
191	0xbcb3e5d4	-0.021960177
192	0xbdca0069	-0.098633595
193	0xbda5a915	-0.080888905
194	0x3c84363a	0.016139138
195	0xbd31c67b	-0.043402176
196	0xbdb3d6a3	-0.08781173
197	0xbd83172f	-0.06400906
198	0xbc18c837	-0.009325079
199	0xbd8dc701	-0.069227226
200	0x3d155ddb	0.03646646
201	0xbc74f32b	-0.014950554
202	0x3aa3ece8	0.0012506517
203	0xbd16496a	-0.036691107
204	0x3d472387	0.048617866
205	0xbd9bd63d	-0.07609222
206	0xbcb4504f	-0.02201095
207	0xbd097a0d	-0.033563662
208	0x3c954bc3	0.018224603
209	0x3c526858	0.01284226
210	0x3d810797	0.06300276
211	0xbc9127f3	-0.017719245
212	0x3d40bef0	0.047057092
213	0x3d7cd828	0.06172958
214	0xbc457fb2	-0.012054371
215	0xbcee9098	-0.029121682
216	0xbd7d46db	-0.06183515
217	0xbc10e423	-0.0088434545
218	0xbcbe6a8a	-0.023244161
219	0x3c557689	0.013028749
220	0x3cc36c20	0.023855269
221	0x3cdca803	0.026935583
222	0xbd0382e0	-0.032107234
223	0xbd90cfef	-0.0707091
224	0x3d9498a5	0.07255677
225	0x3c93dbd8	0.018049166
226	0xbce5d5d1	-0.028056057
227	0x3d4337cf	0.047660645
228	0x3ce0075c	0.02734726
229	0xbcbe0bec	-0.023199044
230	0x3a140e1a	0.0005647853
231	0x3cca4f1d	0.024695927
232	0xbce612fe	-0.028085228
233	0xbb1d20f1	-0.0023975933
234	0xbd18ad47	-0.037274625
235	0xbd532367	-0.051547434
236	0x3d6dfcd6	0.05810245
237	0xbdd7c9e8	-0.105365574
238	0xbd98bbb1	-0.07457674
239	0x3d49bbdf	0.049251433
240	0xbdd33719	-0.103132434
241	0xbbe142a4	-0.0068743993
242	0xbd48c40e	-0.049015097
243	0xbcdaa15b	-0.026688268
244	0xbb4fa37d	-0.003168314
245	0xbd031497	-0.032002058
246	0x3d7b1174	0.06129594
247	0xbbdd042a	-0.006744881
248	0xbd8300e5	-0.06396655
249	0xbcf43d6e	-0.029814448
250	0x3d547fd8	0.051879734
251	0xbcab85df	-0.020937858
252	0xbd24031d	-0.04004203
253	0x3d14e6dd	0.03635298
254	0x3cc3199c	0.023815922
255	0x3c864846	0.016391885

conv.3.bias f4 [32]
0	0x3d7ee51d	0.06223022
1	0xbce9a4fc	-0.028521053
2	0xbdd8dd43	-0.10589077
3	0xbdab6b13	-0.08370032
4	0xbd2d9070	-0.042374074
5	0xbcd55aa0	-0.02604419
6	0x3d0817dc	0.03322588
7	0xbdaad2b6	-0.08340971
8	0xbdb5b812	-0.08872999
9	0xbbbe9073	-0.0058155595
10	0x3d011d8d	0.031522322
11	0x3d2c0fd4	0.042007282
12	0x3cc1fd90	0.023680478
13	0xbdc0035b	-0.0937564
14	0xbdb55f34	-0.08856049
15	0x3c74ab46	0.014933413
16	0x3d2c616a	0.04208509
17	0x3d532187	0.051545646
18	0xbd6e4665	-0.058172602
19	0x3ce1d11d	0.027565533
20	0xbd1b4eff	-0.037917133
21	0xbcc256eb	-0.023723086
22	0x3d039c50	0.032131493
23	0x3d83e4bc	0.06440112
24	0xbc133731	-0.008985327
25	0xbd2fac06	-0.042888664
26	0x3b4cd61a	0.0031255544
27	0x3d16e64d	0.036840726
28	0x3d972643	0.07380345
29	0xbcf6d134	-0.030129053
30	0x3d02e863	0.031959902
31	0x3d4f4e61	0.050611857

conv.4.weight f4 [32]
0	0x3f80bf39	1.0058357
1	0x3f7ac418	0.97955465
2	0x3f7cfc06	0.9882206
3	0x3f869b6f	1.0516185
4	0x3f79fd42	0.97652066
5	0x3f7796b2	0.9671432
6	0x3f783d6d	0.9696873
7	0x3f7f05d9	0.996183
8	0x3f7e1b09	0.9926
9	0x3f79fec8	0.9765439
10	0x3f7bd168	0.98366404
11	0x3f7a9f30	0.9789915
12	0x3f755de6	0.958464
13	0x3f756b8a	0.95867217
14	0x3f7f081f	0.99621767
15	0x3f7b3aa5	0.9813636
16	0x3f7d155f	0.98860735
17	0x3f7a6f97	0.9782652
18	0x3f7f9c69	0.9984804
19	0x3f7cd1f0	0.9875784
20	0x3f79767b	0.9744641
21	0x3f7c7e25	0.9862998
22	0x3f87aaca	1.0598996
23	0x3f7d68d4	0.9898808
24	0x3f8585de	1.0431478
25	0x3f7d0a19	0.9884353
26	0x3f759b58	0.9594016
27	0x3f807dd7	1.0038403
28	0x3f7cd1d1	0.98757654
29	0x3f7e3c21	0.993105
30	0x3f7bd8c2	0.9837762
31	0x3f7d50d1	0.9895144

conv.4.bias f4 [32]
0	0x3cdc4673	0.026889062
1	0x3906ef7c	0.0001286845
2	0xbcc9ee97	-0.024649901
3	0x3d4bd747	0.04976585
4	0x3c4a3a4b	0.012343
5	0xbcf5be93	-0.0299981
6	0xbc993fa9	-0.018707113
7	0x3cf15b46	0.029462468
8	0xbb8eafea	-0.0043544667
9	0x3c00ab18	0.007853292
10	0xbca9e3a9	-0.02073844
11	0xbc948910	-0.018131763
12	0xbcee0382	-0.029054407
13	0xbcc4ac9c	-0.024008088
14	0xbd4addbd	-0.049527872
15	0xbb198905	-0.0023427617
16	0x3cbda463	0.023149675
17	0xbc6bdbde	-0.014395682
18	0x3bf3652f	0.0074278335
19	0x3bc50e71	0.0060136844
20	0x3c874fca	0.016517539
21	0xbcf3db54	-0.02976767
22	0xbc355775	-0.011068215
23	0x3cf93898	0.030422494
24	0xbcd105f8	-0.025515541
25	0xbc83d7e1	-0.01609415
26	0xbc367b0b	-0.011137734
27	0x3c05441f	0.008133917
28	0x3c4a60d1	0.012352184
29	0x3bab2cb3	0.0052238344
30	0xbc5ccfd8	-0.013477288
31	0xbc1e9957	-0.009680114

conv.4.running_mean f4 [32]
0	0x3dfcceeb	0.12344154
1	0x3ec2c890	0.38043642
2	0x3e0355ec	0.12825745
3	0x3d0fe867	0.035133746
4	0x3d3375d3	0.043813538
5	0xbd047486	-0.032337688
6	0x3e3df641	0.1855097
7	0x3e193049	0.14959826
8	0xbe024ef9	-0.12725438
9	0xbe9b3fa2	-0.30321985
10	0xbdd4cb9c	-0.10390398
11	0xbe8409b5	-0.25788656
12	0x3d6cb9c1	0.057794336
13	0xbcd8264b	-0.026385447
14	0xbdd5f9df	-0.1044805
15	0x3eaa9ebe	0.33324236
16	0xbe8eba59	-0.27876547
17	0xbe15bad9	-0.14622058
18	0xbccc7a71	-0.024960728
19	0x3e863a67	0.26216432
20	0x3e5fcbd4	0.21855098
21	0xbd70bdf0	-0.05877489
22	0xbe15d04f	-0.14630245
23	0xbe84b9a5	-0.25922886
24	0xbecf27b4	-0.4045998
25	0x3e526402	0.20545962
26	0xbe6e4d28	-0.2327162
27	0x3f249423	0.6428854
28	0xbda91156	-0.0825526
29	0xbd3011f1	-0.04298586
30	0x3e8aadf2	0.27085835
31	0xbd1eab80	-0.038737774

conv.4.running_var f4 [32]
0	0x3e135297	0.14386974
1	0x3e8bef1c	0.27330863
2	0x3e34b54d	0.17647286
3	0x3e0bcd85	0.13652618
4	0x3dc809f9	0.09767527
5	0x3e28b63c	0.16475767
6	0x3e4461b4	0.19177896
7	0x3e22b571	0.15889527
8	0x3e78281b	0.24234049
9	0x3e5d3f0d	0.21606083
10	0x3f0d16d2	0.55112946
11	0x3ea725a7	0.32645914
12	0x3e1f5fb6	0.15563855
13	0x3e119937	0.14218603
14	0x3e050e2f	0.12993692
15	0x3ec97a8f	0.39351317
16	0x3e3d52c4	0.18488604
17	0x3e096ae1	0.13419677
18	0x3e20dc3b	0.15709011
19	0x3e076455	0.13221867
20	0x3e7977cc	0.24362105
21	0x3e2948fc	0.16531748
22	0x3ea08ea4	0.31358826
23	0x3e60d6e2	0.21956971
24	0x3e766903	0.24063496
25	0x3e2302ed	0.15919085
26	0x3e839e21	0.2570658
27	0x3f504c61	0.81366545
28	0x3e8974b7	0.2684686
29	0x3eb3b97d	0.35102454
30	0x3e7c42e2	0.24634889
31	0x3e723c08	0.23655713

conv.6.weight f4 [32, 32, 3, 3]
0	0xbc66444a	-0.014054367
1	0x3ddfd1bf	0.10928678
2	0x3d410609	0.047124896
3	0xbc7e3d39	-0.015517526
4	0x3d5a7120	0.05333054
5	0xbb331f69	-0.0027331954
6	0x3d2c1e27	0.042020943
7	0xbcfba299	-0.030717181
8	0x3d591cfc	0.053006157
9	0x3c3f3d9b	0.011672403
10	0xbd94084a	-0.072281435
11	0x3d290582	0.04126502
12	0xbd5cb46d	-0.053883005
13	0xbc38fa67	-0.011290169
14	0x3d070128	0.032960087
15	0x3d2d2eaa	0.04228083
16	0xbc6e694b	-0.014551471
17	0x3d276762	0.040870078
18	0xbd425538	-0.047444552
19	0x3d64952e	0.05580633
20	0x3cbabfe3	0.022796577
21	0xbc86187b	-0.016369095
22	0x3d5c9b15	0.053858835
23	0x3caa52b1	0.020791383
24	0x3d69ef43	0.057112943
25	0x3cb53ff4	0.022125222
26	0xbd379cde	-0.044827335
27	0xbd0ed187	-0.03486779
28	0xbdc060dc	-0.093934745
29	0xbd3dfe3e	-0.046385042
30	0x3d9e8ad3	0.07741322
31	0x38f14f1b	0.0001150651
32	0xbda51458	-0.08060521
33	0xbc4cee46	-0.012507981
34	0xbbf83929	-0.0075751734
35	0x3c3a7107	0.011379487
36	0x3c9f8211	0.0194712
37	0x3c5e843a	0.01358133
38	0x3b83ef5c	0.0040263366
39	0xbc983cc6	-0.018583667
40	0x3c7aaf96	0.015300652
41	0xbd14ce0b	-0.03632931
42	0xbcdd4e2d	-0.027014816
43	0x3d397457	0.045276966
44	0xbcf9d36b	-0.03049632
45	0x3c9aff59	0.018920587
46	0xbd2b1ed5	-0.04177745
47	0x3cef3543	0.029200202
48	0x3bd4b3c2	0.0064911554
49	0x3d374e77	0.044752564
50	0x3d7448cc	0.059639737
51	0x3c818919	0.015812444
52	0x3d246432	0.040134616
53	0xbd00b50f	-0.03142267
54	0x3d6a0455	0.057133038
55	0x3d862cd4	0.06551519
56	0x3bcdc2d2	0.006279328
57	0xbd1485b4	-0.03626032
58	0x3b8d1125	0.0043050223
59	0x3d7f0a39	0.06226561
60	0x3d2a82a0	0.04162848
61	0xbbc01816	-0.0058622463
62	0x3d56bafe	0.052424423
63	0x3d819031	0.063263305
64	0x3d43bf4f	0.047789868
65	0xbcd45773	-0.025920605
66	0x3c1ecb2f	0.009691997
67	0xbc58347f	-0.01319611
68	0x3dd90416	0.105964825
69	0xbb1a32b7	-0.0023528764
70	0x3c6df06b	0.014522652
71	0x3d973c47	0.07384544
72	0x3d035884	0.032066837
73	0xbcd084ec	-0.025454007
74	0xbc809664	-0.015696712
75	0x3cc93482	0.02456117
76	0xbce00fd1	-0.027351292
77	0x3d1aebf2	0.03782267
78	0x3aba9ec7	0.0014237993
79	0x3d197da2	0.03747333
80	0x3d20244b	0.03909711
81	0xbc501c64	-0.012702081
82	0xbca45d35	-0.020063976
83	0x3c72285d	0.014780131
84	0xbd426425	-0.047458787
85	0x3da91f9e	0.082579836
86	0xbb6f7366	-0.0036537289
87	0x3c0680d2	0.008209424
88	0x3d50e0d1	0.05099565
89	0x3d064772	0.03278298
90	0xbd5073b8	-0.050891608
91	0x3d4554cd	0.048176575
92	0x3cee28ad	0.02907213
93	0x3d2f2956	0.04276403
94	0x3ceffc68	0.029295161
95	0x3cd116f1	0.025523635
96	0xbcaf6552	-0.021410618
97	0x3c555ff7	0.013023368
98	0xbcc0b00d	-0.023521448
99	0x3d022e77	0.031782594
100	0xbc1efcc9	-0.009703823
101	0xbd9f90a1	-0.07791258
102	0xbc16d041	-0.009204925
103	0x3dae556f	0.08512389
104	0x3d271f1c	0.040801153
105	0x3d60e320	0.054904103
106	0x3d3e512a	0.046464123
107	0xbc488660	-0.012239069
108	0xbd5264fd	-0.05136584
109	0xbd8977f1	-0.0671233
110	0xbb94928e	-0.0045340722
111	0xbd4f3175	-0.050584275
112	0xb9d724bf	-0.00041035374
113	0xbbe58a64	-0.007005023
114	0xbcf041ef	-0.029328315
115	0xbc2c2ebc	-0.010509189
116	0x3b94032d	0.00451698
117	0xbd12f71a	-0.035880186
118	0xbcb974ff	-0.022638796
119	0x3d035f1a	0.032073118
120	0x3baad0e8	0.005212892
121	0x3d114ffa	0.035476662
122	0x3cb051bc	0.021523349
123	0xbc97f189	-0.01854779
124	0x3c68d39b	0.014210607
125	0xbc2aab85	-0.01041687
126	0x3ba39f47	0.0049933526
127	0x3df90652	0.12159409
128	0x3d763778	0.060111493
129	0x3de24100	0.11047554
130	0x3e14f8eb	0.1454808
131	0x3d7b0bbf	0.0612905
132	0x3dc24174	0.094851404
133	0x3c3c610e	0.011497749
134	0x3cd4f40b	0.025995275
135	0x3cfa98bb	0.030590406
136	0x3cfc8108	0.030823246
137	0x3d2dd3c1	0.042438272
138	0xbd04d958	-0.032433838
139	0xbd13fdb7	-0.036130633
140	0xbc3dfe97	-0.0115963435
141	0x3be17bdc	0.0068812203
142	0x3d7dc93f	0.0619595
143	0x3c88b27c	0.01668667
144	0x3bf9639d	0.007610752
145	0x3cde3856	0.027126472
146	0xbb1613e5	-0.0022900042
147	0xbd70d72f	-0.058798965
148	0xbc8cd8bd	-0.017193193
149	0x3cd56d04	0.02605296
150	0xbd04ff0d	-0.032469798
151	0xbcd4793c	-0.025936715
152	0x3cf5c0c9	0.029999154
153	0x3cc3007d	0.023803944
154	0x3ccbf997	0.024899287
155	0xbc7cc68e	-0.0154281985
156	0x3d1ee7c8	0.038795263
157	0x3d1d29c7	0.03836992
158	0x3c711c82	0.014716269
159	0xbc9adbe4	-0.01890368
160	0x3b15ffba	0.002288802
161	0xbd1065d3	-0.035253357
162	0x3cd05db3	0.025435304
163	0x3dbd413e	0.092409596
164	0x3dd4355d	0.10361741
165	0x3caff7f5	0.02148054
166	0x3d8e5d3b	0.06951376
167	0xbbc22bea	-0.005925645
168	0xbd312ce5	-0.043255705
169	0x3d163dd8	0.036680073
170	0x3cab63d8	0.020921633
171	0x3c89cf83	0.016822582
172	0x3d7d9b48	0.061915666
173	0x3d591db3	0.05300684
174	0x3cfab8ba	0.030605663
175	0xbcb73193	-0.022362506
176	0x3ccd391b	0.025051644
177	0x3c5d2356	0.013497194
178	0xbb50b189	-0.00318441
179	0x3b3e2543	0.002901391
180	0x3d2cd07b	0.04219101
181	0xbc2cfd79	-0.010558479
182	0x3d0b57ee	0.034019403
183	0x3d4085f1	0.047002736
184	0x3cf9a53c	0.030474298
185	0x3bf8b8f2	0.0075904066
186	0x3bac509b	0.0052586324
187	0x3d9791df	0.074008696
188	0x3d0a8b8f	0.0338245
189	0xbcfae937	-0.030628784
190	0xbb81cea8	-0.003961403
191	0xbc10b398	-0.008831881
192	0xbd1648bf	-0.03669047
193	0x3d6c3701	0.057669643
194	0x3db27003	0.08712771
195	0xbc4b7228	-0.012417354
196	0x3c0f88f1	0.008760677
197	0x3ccd6282	0.025071386
198	0x3c445320	0.011982709
199	0xbc70633c	-0.014672097
200	0x3d17d821	0.03707135
201	0x3ce962ae	0.028489437
202	0xbb848599	-0.0040442464
203	0x3d345529	0.044026528
204	0x3dffd282	0.12491323
205	0x3da509af	0.080584876
206	0xbc8f7644	-0.017512448
207	0x3cab3cd0	0.020903021
208	0xbbedfc2a	-0.0072627263
209	0xbddea608	-0.10871512
210	0xbcfa8324	-0.03058011
211	0xbd677e48	-0.056516916
212	0x3d18d6be	0.03731417
213	0xbd72cda8	-0.05927816
214	0x3e13e6b3	0.14443474
215	0x3cf22f14	0.029563464
216	0x3dc1f502	0.0947056
217	0x3cada5e1	0.021197261
218	0xbd137bdf	-0.036006805
219	0xbd1189e9	-0.035531912
220	0xbbc23999	-0.0059272763
221	0xbb261e95	-0.0025347818
222	0x3c9ae718	0.018909022
223	0x3d59a9be	0.053140394
224	0x3d065390	0.032794535
225	0x3cc08ac5	0.02350367
226	0x39a122c6	0.0003073422
227	0xbc4af7c4	-0.0123881735
228	0x3d6db234	0.058031276
229	0x3c18500f	0.009296431
230	0xbb738191	-0.0037156085
231	0xbceec7fb	-0.029148092
232	0x3d4c42ac	0.04986827
233	0xbd30e6e8	-0.04318896
234	0x3ceb6ad2	0.02873746
235	0xbc530f00	-0.012881994
236	0x3d2e0088	0.042480975
237	0xbc955a15	-0.018231431
238	0xbd364bad	-0.044505764
239	0xbcfc30d2	-0.030784998
240	0xbd2177a0	-0.039420724
241	0x3d42aa59	0.047525737
242	0xbba18997	-0.004929732
243	0x3b269730	0.0025419705
244	0x3cacb27d	0.021081204
245	0x3d461481	0.048359398
246	0x3ad94589	0.0016576509
247	0xbd1a9629	-0.03774086
248	0x3c37396e	0.011183126
249	0xba6e90a1	-0.0009100531
250	0x3d5f5e43	0.054533254
251	0x3d11e42e	0.035618
252	0x3d252019	0.040313814
253	0x3cd1f145	0.025627742
254	0xbd26c4a1	-0.040714864
255	0x3d69db7b	0.05709408

conv.6.bias f4 [32]
0	0xbc74f960	-0.014952034
1	0x3db4da9a	0.088307574
2	0xbdaaa2b1	-0.08331812
3	0xbc6b99e9	-0.014379957
4	0xbd364814	-0.044502333
5	0xbd2bb4f0	-0.041920602
6	0x3c0c01d7	0.0085453605
7	0x3dd78ee1	0.10525299
8	0x3c4c4f74	0.012470115
9	0x3c91d1d4	0.01780025
10	0xbd9ac4dd	-0.0755708
11	0x3cd39c4c	0.025831364
12	0x3d2a584e	0.04158812
13	0xbc9c1cf1	-0.01905677
14	0xbc6a3ddf	-0.014296978
15	0xbd2a055f	-0.04150903
16	0xbc422197	-0.011848829
17	0x3d064925	0.0327846
18	0xbd42c1b7	-0.047548022
19	0xbca01130	-0.019539446
20	0xbd58c005	-0.0529175
21	0xbb9d6838	-0.0048036836
22	0x3ca1c468	0.019746974
23	0x3d19d173	0.037553262
24	0xbd52ef09	-0.051497493
25	0xbc92b599	-0.017908858
26	0xbd707830	-0.05870837
27	0xbd2b7cce	-0.04186707
28	0xbcd84e12	-0.026404414
29	0xbd3edb6b	-0.046595972
30	0xbba88308	-0.0051425733
31	0xbd70acb0	-0.058758438

conv.7.weight f4 [32]
0	0x3f813d41	1.0096818
1	0x3f714236	0.94241655
2	0x3f757a29	0.95889527
3	0x3f841b95	1.0320917
4	0x3f738f68	0.95140696
5	0x3f773295	0.9656156
6	0x3f7d511b	0.9895188
7	0x3f792d96	0.97335184
8	0x3f7c87db	0.986448
9	0x3f756bf6	0.9586786
10	0x3f7ad0fc	0.97975135
11	0x3f793639	0.9734836
12	0x3f7f10ab	0.9963481
13	0x3f7a870a	0.97862303
14	0x3f799fc9	0.9750944
15	0x3f798d91	0.9748164
16	0x3f7ed5e4	0.9954512
17	0x3f7a96e5	0.97886497
18	0x3f7dbf30	0.99119854
19	0x3f7aeb82	0.98015606
20	0x3f7c28ab	0.98499554
21	0x3f7d48a1	0.9893895
22	0x3f7cc358	0.9873557
23	0x3f7c46b1	0.98545367
24	0x3f79585f	0.9740047
25	0x3f82b37a	1.0211022
26	0x3f7b7344	0.98222756
27	0x3f771dea	0.9653002
28	0x3f80c085	1.0058752
29	0x3f75613f	0.9585151
30	0x3f894026	1.0722702
31	0x3f7a95eb	0.97885007

conv.7.bias f4 [32]
0	0x3cfc2346	0.030778538
1	0x3d63fbb2	0.055659957
2	0xbcd6c829	-0.02621849
3	0x3c8f633e	0.017503377
4	0xbc7d332a	-0.015454093
5	0x3ab8c533	0.0014096856
6	0xbc4a5819	-0.012350106
7	0x3d63b94f	0.055596646
8	0xbcc3ba80	-0.023892641
9	0xbcab7f4b	-0.020934721
10	0xbc8d7ae6	-0.017270517
11	0xbc6b48a4	-0.014360581
12	0x3c37450a	0.011185894
13	0xbca01280	-0.019540071
14	0xbca854ea	-0.020548303
15	0xbc900f53	-0.017585432
16	0x3c8ac1bb	0.016938081
17	0xbac9b93d	-0.0015390288
18	0x3ada1fe3	0.0016641583
19	0xbcb0102e	-0.02149209
20	0xbca47b65	-0.02007837
21	0xbcb297d4	-0.021800913
22	0x3cae09ad	0.021244848
23	0xbc2b7b8a	-0.010466466
24	0xbcaf5a7b	-0.02140545
25	0xba4699b9	-0.0007576007
26	0xbc802b07	-0.015645517
27	0x39a59800	0.000315845
28	0x3ca039ff	0.019558905
29	0xbbd17b98	-0.0063929074
30	0xbbb9ed69	-0.0056740534
31	0xbca611a7	-0.02027209

conv.7.running_mean f4 [32]
0	0x3eb0d50f	0.3453755
1	0x3e6c06f1	0.23049523
2	0xbcdb9741	-0.026805522
3	0x3ea68a5f	0.32527444
4	0x39914fba	0.00027715956
5	0xbe9427b7	-0.2893655
6	0xbdb655e9	-0.08903105
7	0xbecaf7b8	-0.3964212
8	0xbeaf1c6e	-0.34201378
9	0x3e599bf2	0.21250895
10	0xbdf64c1e	-0.12026237
11	0xbe616f4b	-0.22015111
12	0x3eba0d3e	0.36338228
13	0xbd567320	-0.052355886
14	0xbd3e3d4e	-0.046445183
15	0x3d7b5c89	0.061367545
16	0x3e88d3cd	0.2672409
17	0x3e949f2a	0.29027683
18	0x3e42279c	0.18960422
19	0x3c193dd3	0.009353119
20	0xbe2b2061	-0.1671157
21	0xbe0bdc3a	-0.13658229
22	0xbe4a7369	-0.19770588
23	0x3e1c6abb	0.1527509
24	0xbe39b51e	-0.18135497
25	0xbea0480f	-0.31304976
26	0x3d37c055	0.044861156
27	0x3e13180e	0.14364645
28	0xbdb54c77	-0.08852475
29	0xbe00cf57	-0.12579094
30	0xbef912e5	-0.48647228
31	0xbf18b0da	-0.59644854

conv.7.running_var f4 [32]
0	0x3ed491a5	0.41517368
1	0x3e18ef51	0.14935042
2	0x3e88c732	0.26714474
3	0x3e5a78a7	0.21335088
4	0x3e60f0db	0.21966879
5	0x3def1dff	0.11675643
6	0x3e4870aa	0.19574228
7	0x3f100b84	0.5626757
8	0x3e8d092d	0.27546063
9	0x3e37300b	0.1788942
10	0x3e4ae973	0.19815616
11	0x3e8a46d3	0.2700716
12	0x3e9a89bb	0.30183205
13	0x3e305d99	0.17223205
14	0x3e688047	0.22705184
15	0x3e1bf088	0.15228474
16	0x3ea6fdd1	0.32615522
17	0x3e79dbc8	0.24400246
18	0x3e93b4ba	0.2884882
19	0x3ea2e851	0.31817868
20	0x3e4fbc31	0.20286633
21	0x3e7aac3b	0.24479763
22	0x3e17f21b	0.1483845
23	0x3e3b4b22	0.1829038
24	0x3ee32aed	0.44368687
25	0x3e9320ca	0.28735954
26	0x3e56a924	0.2096296
27	0x3ebd5d76	0.36985368
28	0x3e500be6	0.20317039
29	0x3e7ebd66	0.24876937
30	0x3e97fcaa	0.29684955
31	0x3ed2c9b0	0.411695

conv.9.weight f4 [32, 32, 3, 3]
0	0xbd7661ec	-0.06015198
1	0x3ce5a284	0.028031595
2	0x3c894da9	0.016760664
3	0xbd41c999	-0.0473114
4	0x3c072052	0.008247452
5	0xbd59f995	-0.053216536
6	0xbc0ecf0b	-0.008716355
7	0xbce2cca3	-0.027685469
8	0xbd490106	-0.04907324
9	0x3c0d829c	0.008637097
10	0xbc5eb157	-0.013592086
11	0xbc1f7aff	-0.009733914
12	0xbd6b13b7	-0.05739185
13	0xbb876982	-0.0041324506
14	0xbc1723ac	-0.009224813
15	0x3bfdc38e	0.007744259
16	0x3ce46bdf	0.027883468
17	0x3d1e5892	0.038658686
18	0xbd187a29	-0.037225876
19	0xbd8dcf77	-0.069243364
20	0x3be75eed	0.0070608766
21	0xbd8abaa8	-0.06773883
22	0xbc5a5eeb	-0.013328294
23	0xbb4cab47	-0.003123002
24	0x3d08f36e	0.033435278
25	0x3ccce928	0.025013521
26	0xbcad513a	-0.021156896
27	0x3cf5b72c	0.02999457
28	0x3cb28718	0.021792933
29	0x3ce13b3f	0.027494071
30	0xbd3dd650	-0.046346962
31	0xbd8fd8f1	-0.070238
32	0x3cd5336c	0.026025496
33	0xbda467ca	-0.08027609
34	0xbcc6f6ab	-0.024287542
35	0xbced698b	-0.02898099
36	0xbcaf9d33	-0.021437263
37	0x3d3037b1	0.04302186
38	0x3c2a331a	0.01038816
39	0xbc751122	-0.014957698
40	0x3c29c285	0.0103613185
41	0xbbbbccf8	-0.0057312213
42	0x3d3f3cec	0.04668896
43	0x3d3cc0d7	0.046082344
44	0x3d89ef76	0.06735127
45	0xbd02dccd	-0.031948853
46	0xbd151f29	-0.03640667
47	0xbca00e59	-0.019538091
48	0x3c664a62	0.01405582
49	0x395c7f31	0.00021028217
50	0xbc2e722a	-0.010647336
51	0xbd86d7a9	-0.06584103
52	0xbd2c67f7	-0.042091336
53	0xbd79d9f0	-0.060998857
54	0x3b944874	0.0045252386
55	0xbd3477c0	-0.044059515
56	0xbb34034b	-0.0027467783
57	0xbc98469a	-0.018588353
58	0xbca9afcc	-0.02071371
59	0xbd8969f9	-0.06709666
60	0xbd2c88d0	-0.042122662
61	0xbc9540ef	-0.01821944
62	0xbcffdfc3	-0.031234628
63	0xbb2ad711	-0.002606813
64	0xbc4f4d25	-0.01265267
65	0x3ba912bd	0.0051597045
66	0xbd9ea892	-0.07746996
67	0x3c9ecaad	0.019383753
68	0xbcea5f46	-0.028609883
69	0x3cb5f3e1	0.022211017
70	0xbd59af33	-0.0531456
71	0xbd650a3a	-0.055917956
72	0x3cb56be5	0.022146175
73	0xbb6d6dd8	-0.0036228802
74	0xbcc06667	-0.02348633
75	0xbc574095	-0.013137956
76	0x3c10db23	0.008841309
77	0x3cab3cc4	0.020902999
78	0xbc3d853c	-0.01156741
79	0x3ca3abe3	0.019979423
80	0xbd558b9e	-0.052135102
81	0xbd3a034a	-0.045413293
82	0x3c401044	0.011722628
83	0xbc83d9a4	-0.01609499
84	0x3ce7fac4	0.028317817
85	0x3cc89885	0.02448679
86	0xbd00abbd	-0.031413782
87	0x3c9c28c2	0.019062404
88	0xbd7fdbd2	-0.062465496
89	0x3afafe8f	0.0019149351
90	0xbd1a78d8	-0.0377129
91	0xbc84e81d	-0.016223961
92	0x3c869595	0.016428748
93	0xbd840ddb	-0.06447955
94	0xbc61e2f1	-0.013787017
95	0x3d02c33d	0.031924475
96	0xbd6612c4	-0.05617024
97	0x3cd7e2f2	0.026353333
98	0x3d5f195d	0.054467548
99	0x3d9d0317	0.07666605
100	0x3c72c9b2	0.014818596
101	0x3b974af8	0.0046170913
102	0x3d6ed747	0.058310773
103	0x3d729b36	0.059230052
104	0xbc46e531	-0.012139604
105	0x3d6a9a8c	0.057276294
106	0x3cda3a96	0.026639264
107	0xbc84f352	-0.016229305
108	0xbc1fdf04	-0.009757761
109	0x3d3c25d5	0.045934517
110	0xbd6ae750	-0.057349503
111	0x3d807b8b	0.06273564
112	0x3cac6380	0.021043539
113	0x3cec6d37	0.028860671
114	0xbd55e1c1	-0.05221725
115	0x3ab81d1e	0.0014046764
116	0xbca0fc1d	-0.019651467
117	0x3d425ce9	0.047451887
118	0xbd544b16	-0.05182942
119	0xbcc2a744	-0.0237614
120	0x3d7687ff	0.06018829
121	0xbd1f52b8	-0.038897246
122	0x3d14c050	0.036316216
123	0x3ca52073	0.020157075
124	0xbc67f8fa	-0.014158482
125	0xbc9ea89d	-0.01936751
126	0xbd5b921e	-0.053606145
127	0xbd815163	-0.063143514
128	0x3d4596b7	0.048239436
129	0xbcb6111a	-0.022224952
130	0x3cd4c545	0.025972972
131	0xbb717c1b	-0.0036847654
132	0xbc00f90e	-0.007871879
133	0x3d5bc969	0.053658877
134	0xbcb76673	-0.022387719
135	0x3abc2b42	0.0014356154
136	0xbd250ad3	-0.040293526
137	0x3d971370	0.07376754
138	0x3d2ccb3a	0.042186
139	0x3c813630	0.015772909
140	0x3d9898d8	0.07451028
141	0xbc88aaae	-0.016682949
142	0x3d4f2b0a	0.050578155
143	0x3d8abf0b	0.0677472
144	0x3d8735d3	0.06602063
145	0x3d837933	0.06419601
146	0x3cf8d367	0.030374242
147	0x3c5d5c40	0.013510764
148	0x3d0bb4fc	0.034108147
149	0x3ced157f	0.028940914
150	0xbc9182dc	-0.017762594
151	0x3d67e897	0.0566183
152	0xbcbb63c3	-0.022874719
153	0x3bbf4f9e	0.0058383485
154	0x3b8fb4b1	0.0043855538
155	0x3d886bff	0.066612236
156	0xbb24e1ab	-0.0025158923
157	0x3d6bb535	0.05754586
158	0x3d672bc5	0.056438226
159	0xbd003fe7	-0.031310942
160	0xbd055784	-0.032554165
161	0xbcc465e1	-0.02397436
162	0xbcda1c73	-0.026624894
163	0x3d650b54	0.055919006
164	0x3d79feda	0.06103406
165	0x3c26b91b	0.0101759685
166	0x3d4ba685	0.049719352
167	0xbce7a3ee	-0.02827641
168	0xbc525f28	-0.01284007
169	0xbd5c0608	-0.05371669
170	0x3c93cda5	0.018042395
171	0x3c50622b	0.012718718
172	0x3d87fbd2	0.06639828
173	0x3d85e3cc	0.065375894
174	0x3d73c1ae	0.05951088
175	0x3b04b849	0.0020251444
176	0x3d734e31	0.05940074
177	0xbc139a76	-0.009008994
178	0x3d87cf40	0.06631327
179	0x3d375901	0.044762615
180	0xbd0305a6	-0.03198781
181	0x3a969ed1	0.0011491423
182	0x3b15688e	0.0022797915
183	0xbc84ba3a	-0.016202081
184	0xbcc63c3f	-0.02419865
185	0x3d501d5d	0.050809253
186	0x3cfddbf6	0.030988675
187	0x3d239af2	0.03994269
188	0xbd1264b8	-0.035740584
189	0x3c832463	0.016008561
190	0xbd49c638	-0.0492613
191	0xbd0c7959	-0.034295414
192	0xbbc1bd9d	-0.0059124962
193	0xbce79fa9	-0.028274374
194	0x3bdb66a8	0.006695587
195	0x3d8c0161	0.068362005
196	0x3cc4e694	0.02403573
197	0x3c83e460	0.016100109
198	0xbd606f0f	-0.054793414
199	0x3d59dd02	0.053189285
200	0xbc420fc6	-0.011844581
201	0x3cf478c9	0.029842751
202	0x3d1980cd	0.03747635
203	0xbc44a2b6	-0.012001684
204	0xbd081f23	-0.03323282
205	0x3cee9071	0.02912161
206	0x3d09e440	0.03366494
207	0xbccd5339	-0.025064098
208	0x3cc08a5a	0.023503471
209	0x3c8ce25d	0.017197782
210	0xbc0c0912	-0.008547084
211	0xbceaaf91	-0.02864817
212	0x3d05e761	0.032691363
213	0x3d700631	0.058599655
214	0x3d49ec66	0.049297713
215	0x3c66ba3e	0.01408249
216	0x3d5fb106	0.054612182
217	0xbd2bccfa	-0.041943528
218	0xbcfd16a0	-0.030894578
219	0x3a069efd	0.00051353854
220	0x3cb65e5e	0.022261795
221	0x3d66d205	0.056352634
222	0xbcb04e68	-0.021521762
223	0xbc9fa1d1	-0.01948634
224	0x3da19d6d	0.07891355
225	0xbc8d370c	-0.017238162
226	0x3ca1d4e3	0.019754833
227	0xbd1851ea	-0.037187494
228	0x3d1a6519	0.03769407
229	0x3d4006f2	0.046881624
230	0xbc3582d0	-0.011078551
231	0xbcc4c3e2	-0.024019185
232	0xbd1b420d	-0.037904788
233	0xbcf9ecd3	-0.030508434
234	0x3c90f9cf	0.017697243
235	0x3cb8f3e8	0.022577241
236	0xbd3c9c8f	-0.046047743
237	0xbcb43cd1	-0.022001656
238	0xbcd5de01	-0.026106836
239	0x3d499bb0	0.04922074
240	0x3d56f793	0.0524822
241	0x3d027040	0.03184533
242	0x3d015296	0.0315729
243	0x3d3ae19f	0.045625325
244	0xbc857d2f	-0.016295044
245	0xbd0a3bfc	-0.03374861
246	0x3d40b94e	0.04705172
247	0x3c84c47f	0.016206978
248	0x3cf40120	0.029785693
249	0xbd0ea0b2	-0.03482122
250	0x3d3b9fcf	0.045806702
251	0x3c1c4cd2	0.0095398
252	0x3ccb5ec6	0.024825465
253	0xbc250cbb	-0.010073836
254	0xbd073173	-0.033006143
255	0x3d28c7d1	0.041206185

conv.9.bias f4 [32]
0	0xbb9180e9	-0.004440416
1	0x3c3cccb1	0.011523412
2	0xbd854c9b	-0.06508752
3	0xbd1b0455	-0.03784593
4	0xbc8fe37b	-0.017564526
5	0xbd3aa54b	-0.045567792
6	0xbc678e78	-0.014133088
7	0xbc679fd3	-0.014137226
8	0x3b2eaedb	0.0026654515
9	0x3cafa6b9	0.021441804
10	0x3d297de7	0.041379835
11	0xbcb462d8	-0.022019789
12	0x3c525c8f	0.0128394505
13	0x3cdc12bc	0.026864402
14	0x3c885f35	0.01664696
15	0xbd27ea0d	-0.040994693
16	0xbd2b426e	-0.0418114
17	0xbda03bb1	-0.07823885
18	0xbd4dff6a	-0.05029241
19	0xbc84b34a	-0.016198773
20	0xbd156b89	-0.036479507
21	0xbc1c6add	-0.009546963
22	0xbc8567bc	-0.016284816
23	0x3d477806	0.048698448
24	0x3c8d3c4d	0.017240668
25	0xbd1aa6a7	-0.03775659
26	0xbd82fb58	-0.06395596
27	0xbd3c7ca9	-0.046017323
28	0x3c265c19	0.010153794
29	0xbd326d5f	-0.043561336
30	0x3c1ce640	0.00957638
31	0xb8026de7	-3.109677e-05

conv.10.weight f4 [32]
0	0x3f7a7a2f	0.9784269
1	0x3f7980c3	0.974621
2	0x3f7894b9	0.9710193
3	0x3f7896ed	0.97105294
4	0x3f7cac81	0.9870072
5	0x3f798f72	0.97484505
6	0x3f7f0646	0.9961895
7	0x3f76cc69	0.96405655
8	0x3f7a64a2	0.97809803
9	0x3f7da1b8	0.9907489
10	0x3f80be7d	1.0058132
11	0x3f7fd8af	0.9994001
12	0x3f792969	0.9732881
13	0x3f7d5433	0.989566
14	0x3f73d6b0	0.9524946
15	0x3f7f49f7	0.99722236
16	0x3f7dd4aa	0.99152625
17	0x3f79a714	0.97520566
18	0x3f78936b	0.9709994
19	0x3f81f4fe	1.0152891
20	0x3f7b30e8	0.981215
21	0x3f7a12e3	0.9768507
22	0x3f7ec530	0.99519634
23	0x3f85e2d7	1.0459851
24	0x3f7db8f3	0.99110335
25	0x3f86be4b	1.0526823
26	0x3f7590d2	0.95924103
27	0x3f7e62e2	0.99369633
28	0x3f7bf6be	0.98423374
29	0x3f7a05d1	0.97665125
30	0x3f80cd8d	1.0062729
31	0x3f83e8a5	1.0305372

conv.10.bias f4 [32]
0	0x3c36b21e	0.011150865
1	0xbc8ea917	-0.017414613
2	0xbc99466c	-0.018710338
3	0xbc5a1a87	-0.013311989
4	0xbc2f8716	-0.010713359
5	0xbc60775a	-0.013700331
6	0x3c1b6d99	0.009486579
7	0xbcd21a17	-0.025647206
8	0xbc296291	-0.0103384415
9	0x3c9e4c94	0.019323625
10	0x3cd72b64	0.026265807
11	0x3ce5e92e	0.02806529
12	0xbc83a110	-0.016068012
13	0x3ad41c6c	0.0016182787
14	0x3bec3733	0.0072087287
15	0xbbc7b780	-0.006094873
16	0x3badf849	0.005309139
17	0xbc1cca07	-0.009569651
18	0xbcdb6876	-0.02678321
19	0x3c421600	0.0118460655
20	0xbc563170	-0.01307331
21	0xbc8a38c4	-0.016872771
22	0xbb9298d7	-0.0044737863
23	0x3d27ab8a	0.040935077
24	0x3c249578	0.010045402
25	0x3cc88795	0.024478713
26	0xbc3ebb48	-0.011641331
27	0x399754ab	0.00028864047
28	0xbc4a17ad	-0.012334746
29	0x3c49e321	0.012322218
30	0x3d24e05a	0.04025302
31	0x3d4e3860	0.050346732

conv.10.running_mean f4 [32]
0	0x3e12578f	0.14291213
1	0x3e52996a	0.20566335
2	0x3e059f7f	0.13049124
3	0x3ef4abb1	0.4778724
4	0xbd119223	-0.035539757
5	0xbda6939e	-0.081336245
6	0x3ebeaff5	0.3724362
7	0x3ea29e1e	0.3176126
8	0xbe66128b	-0.22468011
9	0xbedd02e2	-0.43166262
10	0xbe5d7705	-0.21627434
11	0xbe8abd81	-0.27097705
12	0xbd18b308	-0.037280113
13	0xbe8d7ca7	-0.27634165
14	0xbc9183e2	-0.017763082
15	0xbe32d38c	-0.17463511
16	0xbeb24094	-0.34814894
17	0x3e679d2c	0.2261855
18	0x3c0e714e	0.008694006
19	0x3ed70601	0.41996768
20	0xbd13c6c7	-0.03607824
21	0xbe99e3ec	-0.30056703
22	0x3d1460d0	0.03622514
23	0xbe95bb70	-0.29244566
24	0xbe85ec0d	-0.26156655
25	0xbdd79dca	-0.10528143
26	0x3ea9dc32	0.33175808
27	0xbe2c477a	-0.16824141
28	0x3e61d356	0.22053275
29	0x3dee7fe8	0.1164549
30	0x3ea03fc4	0.3129865
31	0x3ec4cd09	0.3843768

conv.10.running_var f4 [32]
0	0x3e4cb178	0.19989574
1	0x3e83c7e3	0.2573844
2	0x3e5481b4	0.20752603
3	0x3e6c7ded	0.23094912
4	0x3e90300c	0.28161657
5	0x3ebf93a9	0.37417343
6	0x3e9b205d	0.3029813
7	0x3e6e2c2d	0.23259039
8	0x3e93d19d	0.2887086
9	0x3e707f39	0.23486032
10	0x3ec230eb	0.37927946
11	0x3eaf65f9	0.34257486
12	0x3e6a7737	0.2289704
13	0x3e7e269f	0.2481942
14	0x3e83f2e4	0.25771248
15	0x3e4c7e47	0.19970046
16	0x3e67d6c7	0.22640525
17	0x3e9382a7	0.28810617
18	0x3e31cf4c	0.17364234
19	0x3ef55a2c	0.47920358
20	0x3e639494	0.22224647
21	0x3e49d192	0.19708851
22	0x3eb4c77e	0.3530845
23	0x3f2096c5	0.62730056
24	0x3eaa53c6	0.3326704
25	0x3ea61807	0.32440206
26	0x3f02542c	0.50909686
27	0x3e906434	0.2820145
28	0x3ec752fe	0.38930506
29	0x3ec5a636	0.3860337
30	0x3e972a02	0.29524237
31	0x3edb8d77	0.42881367

conv.12.weight f4 [32, 32, 3, 3]
0	0xbcae1c20	-0.021253645
1	0x3d06f8be	0.032952063
2	0xbd637aa0	-0.055536866
3	0x3d06c7b7	0.032905307
4	0xbced235c	-0.028947525
5	0x3ce17332	0.02752075
6	0xbd496190	-0.04916531
7	0x3d49e372	0.049289174
8	0xbb39fadd	-0.0028378286
9	0xbd390c60	-0.045177817
10	0xbd43ff09	-0.047850642
11	0xbd1098e7	-0.03530207
12	0x3cc8e88a	0.024524946
13	0x3c840c6d	0.016119206
14	0xbd3f1775	-0.04665323
15	0x3c0f2204	0.008736137
16	0xbd1908cd	-0.03736191
17	0x3d0aa2c4	0.03384663
18	0x3b85e974	0.0040866677
19	0xbc2d0d11	-0.010562197
20	0x3c127487	0.008938915
21	0xbd14d4d8	-0.036335796
22	0xbd4e3410	-0.05034262
23	0xbd7df543	-0.062001478
24	0xbc9edb37	-0.01939164
25	0xbc89dc53	-0.016828692
26	0xbd825eb1	-0.06365717
27	0xbcce35f0	-0.025172204
28	0xbd7b5ffa	-0.061370827
29	0xbd193cf6	-0.037411653
30	0xbcc5305b	-0.02407091
31	0xbd275a62	-0.04085768
32	0x3b97890c	0.0046244916
33	0xbd0e5eff	-0.034758564
34	0xbd486558	-0.048924774
35	0xba8a7117	-0.0010562268
36	0x3d0a2c65	0.033733744
37	0xbd15d783	-0.03658248
38	0xbcc5af75	-0.024131516
39	0xbd35faf8	-0.044428796
40	0xbd7d5ebb	-0.06185792
41	0xbd8115ed	-0.0630301
42	0xbd892cb1	-0.06697977
43	0x3d4fa576	0.050694905
44	0xbca41564	-0.020029731
45	0xbd362608	-0.044469863
46	0x3cd6c239	0.02621566
47	0xbd753550	-0.059865296
48	0xbd1c920a	-0.03822521
49	0xbd9291b4	-0.07156697
50	0xbc916da6	-0.01775248
51	0x3b5e6234	0.0033933045
52	0xbd3d249d	-0.046177495
53	0xbcada3f5	-0.021196345
54	0xbd1c768e	-0.038199
55	0xbbf3d5f6	-0.0074412776
56	0xbd9da080	-0.076966286
57	0xbd6756e5	-0.056479353
58	0xbc9fa749	-0.019488947
59	0x3d1b0189	0.03784326
60	0xbca15fcb	-0.019698998
61	0xbd37c755	-0.044867832
62	0x3cd4009a	0.025879193
63	0xbc9b2c32	-0.018941972
64	0x3bd41558	0.006472271
65	0xbc0b8b9c	-0.008517172
66	0x3ca5c19c	0.020233922
67	0xbd7e67f8	-0.06211087
68	0xbd43ee8b	-0.047834914
69	0xbbf90ac7	-0.0076001617
70	0x3bf7a906	0.007557991
71	0xbdac01cf	-0.083987825
72	0xbd62183b	-0.05519889
73	0xbad94b6d	-0.0016578265
74	0xbb9729b5	-0.004613126
75	0xbd82cb83	-0.06386473
76	0x3a84ecc8	0.0010141367
77	0xbd8ba316	-0.068182155
78	0xbd2f3e7b	-0.042784195
79	0x3d5b6e7e	0.05357217
80	0x3d2bea49	0.04197148
81	0xbd142243	-0.036165487
82	0xbd2834b9	-0.041065905
83	0xbd7f2df4	-0.062299684
84	0xbc60b39d	-0.013714698
85	0xbcb1a7a3	-0.02168638
86	0x3d19dbb6	0.03756305
87	0xbd5cd5dd	-0.053914893
88	0x3cb9bee3	0.02267403
89	0x3a38c47f	0.0007048323
90	0xbd313fd5	-0.043273766
91	0xbc7a5781	-0.015279652
92	0x3d382d54	0.044965103
93	0xbd231edd	-0.039824355
94	0xbd0b9b82	-0.03408385
95	0xbd841e0a	-0.06451042
96	0x3c12f003	0.008968356
97	0xbc14865d	-0.009065238
98	0x3d14ec87	0.036358383
99	0xbd8f0d8b	-0.06985005
100	0xbd631e80	-0.05544901
101	0xbd3ce86e	-0.0461201
102	0xbc9fb78e	-0.019496705
103	0x3cfecd17	0.031103654
104	0xbd275d48	-0.040860444
105	0xbcaa3144	-0.020775445
106	0xbd919962	-0.071093336
107	0xbcc985c2	-0.024599914
108	0x3ccfbc9c	0.02535849
109	0x3bab0273	0.005218798
110	0xbc0bd47a	-0.008534545
111	0x3d17ec26	0.037090443
112	0xbcc9bcef	-0.024626223
113	0xbc9f78a7	-0.019466711
114	0xbcae76f9	-0.021296965
115	0x3c6d6838	0.01449018
116	0x3bbdf1db	0.0057966537
117	0x3cc9d343	0.02463687
118	0xbd845eef	-0.0646342
119	0xbd252adb	-0.040324073
120	0x3ca3b7eb	0.01998516
121	0xbce73e6d	-0.02822801
122	0x3be9a086	0.0071297316
123	0xbb95180b	-0.0045499853
124	0x3c877ab9	0.01653801
125	0x3ce6882a	0.0281411
126	0x3c374a92	0.011187213
127	0xbc1f6066	-0.009727573
128	0x3cb5127f	0.022103546
129	0xbd957b08	-0.07298857
130	0xbd735a15	-0.05941208
131	0xbd8ec596	-0.0697128
132	0x3d160bb7	0.036632266
133	0xbd1963f8	-0.037448853
134	0x3bc4dbac	0.0060076322
135	0x3cb93a1b	0.022610715
136	0x3b8f9d1f	0.004382744
137	0xbd711bec	-0.05886452
138	0xbbf8922e	-0.0075857854
139	0xbd42c58a	-0.04755167
140	0xbda3ed97	-0.08004301
141	0xbd0601aa	-0.03271643
142	0xbd8811c2	-0.06644012
143	0x3b5003bc	0.0031740507
144	0xbb6200c0	-0.003448531
145	0x3b5a9a57	0.0033356154
146	0x3ccfdfd5	0.025375286
147	0x3c96f98a	0.018429536
148	0x3cdbb366	0.026818942
149	0xbc80ce39	-0.015723335
150	0xbda49996	-0.08037107
151	0xbce0071f	-0.027347146
152	0x3cbb990b	0.022900125
153	0x3d0bd369	0.034137163
154	0xbc155ed2	-0.009116845
155	0xbd54c5c5	-0.05194642
156	0x3cb2921f	0.021798192
157	0xbbde0090	-0.0067749694
158	0xbd8be8cd	-0.068315126
159	0xbd6d1efc	-0.057890877
160	0xbc8e2414	-0.017351188
161	0x3d6a9b65	0.057277102
162	0x3d31fe34	0.043455318
163	0xbc8e7d59	-0.017393755
164	0xbda18e03	-0.07888415
165	0xbd3c6fd9	-0.046005104
166	0x3d297e20	0.041380048
167	0x3bb5547a	0.005533752
168	0x3c2f17fb	0.01068687
169	0xbd405d3e	-0.046963923
170	0x3ab6ad8f	0.0013937223
171	0x3d1c1922	0.038109906
172	0xbd20c4a5	-0.039250035
173	0xbd9843dc	-0.07434818
174	0xbd3f4832	-0.04669971
175	0xbd297c8d	-0.041378547
176	0xbc479bca	-0.012183139
177	0x3c3dd800	0.011587143
178	0xbda4dc35	-0.08049814
179	0x3c4b40c3	0.012405577
180	0xbd6a9d20	-0.057278752
181	0x3c928d3f	0.017889617
182	0x3cc999f4	0.024609543
183	0xbd50e732	-0.051001735
184	0x3c2e8aa9	0.010653176
185	0xbd9449c4	-0.07240632
186	0xbda3604a	-0.0797735
187	0x3d06cd19	0.03291044
188	0xbc28e8c7	-0.010309405
189	0xbd5fdc35	-0.054653365
190	0xbbb0e09b	-0.005397869
191	0x3d3581e1	0.044313315
192	0xbc4ad515	-0.012379904
193	0x3c2be8e0	0.010492533
194	0xbd55110d	-0.052018214
195	0xbd233509	-0.0398455
196	0x3c020331	0.007935331
197	0xbd5bbb05	-0.053645153
198	0x3c55f0c2	0.013057889
199	0x3c50e2aa	0.012749353
200	0x39a84dc1	0.00032101388
201	0xbd62c09b	-0.055359464
202	0x3ac5bd42	0.001508631
203	0xbd84cffa	-0.06484981
204	0xbcc6b5d9	-0.024256634
205	0x3c995370	0.018716544
206	0xbcecd53e	-0.028910276
207	0x3ccd3460	0.025049388
208	0x3d336a2c	0.043802425
209	0x3c384db5	0.011248996
210	0xbce1c8d3	-0.02756158
211	0xbcf8f18d	-0.030388618
212	0x3d2a7782	0.041617878
213	0xbd4bdfcc	-0.049773976
214	0xbbc2db39	-0.0059465435
215	0x3c5bd9d2	0.013418632
216	0xbd38247a	-0.04495666
217	0x3d6b1046	0.057388566
218	0x3c6ff630	0.014646098
219	0x3d0d2639	0.03446028
220	0xbcf56b3f	-0.029958365
221	0x3d005907	0.031334903
222	0xbc221b34	-0.009894181
223	0xbd68f81d	-0.056877244
224	0xbc089104	-0.008335356
225	0xbbb35ed9	-0.005473953
226	0xbd4de7ff	-0.050270077
227	0xbd7a7d70	-0.061154783
228	0x3c69ab77	0.014262072
229	0xbd079b5e	-0.033107154
230	0xbd91b630	-0.07114828
231	0xbd95122e	-0.07278858
232	0x3ce2a8ae	0.027668323
233	0x3cb36e70	0.021903247
234	0xbd4f8776	-0.050666295
235	0xbd0615ee	-0.032735758
236	0xbd817c3f	-0.06322526
237	0x3d03001c	0.031982526
238	0x3cfbc3e3	0.030733055
239	0xbbb02c13	-0.005376348
240	0x3d244cc6	0.04011228
241	0x3bff4087	0.0077896747
242	0xbd4e0b1f	-0.050303575
243	0x3c11cbae	0.008898659
244	0xbbd6dc60	-0.0065570325
245	0x3cc66a8d	0.02422073
246	0x3d24247a	0.04007385
247	0xbd6efca4	-0.058346406
248	0xbd818a1b	-0.0632517
249	0xbcd8ecba	-0.026480068
250	0xbd0c30e5	-0.034226317
251	0xbdab94f7	-0.08378022
252	0xbc9d660b	-0.019213697
253	0xbd9535fb	-0.072856866
254	0xbd381f94	-0.04495199
255	0xbd7e7b53	-0.06212933

conv.12.bias f4 [32]
0	0xbc72d07a	-0.0148202125
1	0xbd8155c1	-0.063151844
2	0xbd11808d	-0.035522986
3	0xbdbf82f2	-0.09351148
4	0x3c822392	0.015886102
5	0x3d07af55	0.033126194
6	0x3c8936f9	0.016749846
7	0xbd681ef3	-0.05667014
8	0xbd206562	-0.039159186
9	0xbd9de3f8	-0.07709497
10	0xbd3a95f5	-0.045553166
11	0xbd3eedd6	-0.046613537
12	0xbd0c4555	-0.034245808
13	0xbcce9f5e	-0.025222477
14	0x3c8ad7d9	0.016948627
15	0xbc44d9b6	-0.012014797
16	0xbcbb893d	-0.022892589
17	0x3da99c1f	0.08281731
18	0x3cad25b1	0.021136137
19	0xbd4fe4b0	-0.050755203
20	0x3cc057a7	0.023479296
21	0x3dc6837a	0.09693046
22	0xbcb27b2a	-0.021787245
23	0x3c9f060e	0.019412067
24	0xbbad755d	-0.005293532
25	0xbab95f4f	-0.0014142784
26	0xbd07336d	-0.033008028
27	0x3b867b2b	0.0041040382
28	0xbd9d9d61	-0.07696033
29	0xbbd4cdf6	-0.006494279
30	0xbd80eeee	-0.06295572
31	0xbc028342	-0.007965865

conv.13.weight f4 [32]
0	0x3f7aac01	0.9791871
1	0x3f7f7235	0.9978364
2	0x3f7a7b28	0.9784417
3	0x3f772d48	0.9655347
4	0x3f7b569a	0.9817902
5	0x3f774307	0.9658665
6	0x3f787cd6	0.97065485
7	0x3f7928d7	0.9732794
8	0x3f7ef2ff	0.9958953
9	0x3f7d0fe9	0.988524
10	0x3f7848ef	0.9698629
11	0x3f7cf97c	0.9881818
12	0x3f7b5601	0.98178107
13	0x3f76c01d	0.9638689
14	0x3f7885b3	0.9707901
15	0x3f7e8dcc	0.99435115
16	0x3f80aa81	1.0052034
17	0x3f84145f	1.0318717
18	0x3f7d814d	0.9902542
19	0x3f7ba641	0.9830056
20	0x3f7ab971	0.9793921
21	0x3f825678	1.0182638
22	0x3f7c06d0	0.98447895
23	0x3f7b23b6	0.98101366
24	0x3f7b5825	0.9818137
25	0x3f79779a	0.9744812
26	0x3f80c4cd	1.0060059
27	0x3f7f096d	0.9962376
28	0x3f7e77b2	0.9940139
29	0x3f7df9b3	0.99209136
30	0x3f7cc4ff	0.9873809
31	0x3f7ab1c4	0.979275
