results/latent_cnn_unet_lat32_mFalse_ipmFalse_res50_vps8_fidmFalse_ffdmFalse_idm-1-2000.pth (torch, 357278 bytes, 61 tensors)

conv.0.weight f4 [16, 6, 3, 3]
0	0xbe148ef9	-0.14507665
1	0xbc6ecb3c	-0.014574822
2	0x3cb0e51b	0.021593621
3	0xbd948c5d	-0.07253335
4	0x3d805a29	0.06267197
5	0x3d9103c6	0.07080798
6	0x3db36fe4	0.08761576
7	0x3d4d3157	0.050095882
8	0x3cf6e6e0	0.030139387
9	0xbd19f824	-0.03759016
10	0x3dbf74f5	0.0934848
11	0x3de5f6d4	0.11228719
12	0xbe14ea69	-0.14542545
13	0xbdb4dc3a	-0.088310674
14	0xbd73dcc7	-0.05953672
15	0xbdd1909d	-0.10232661
16	0x3d302377	0.043002572
17	0xbd05d4e1	-0.03267372
18	0xbd23ab8b	-0.039958518
19	0x3dbe4c90	0.09291947
20	0xbdc76f44	-0.09738019
21	0xbdcb2c37	-0.09920543
22	0x3d06b433	0.032886695
23	0x3dbd977e	0.092574105
24	0xbe1a2c5d	-0.15055986
25	0xbe174d39	-0.14775552
26	0xbce72015	-0.02821354
27	0x3d84a7be	0.06477307
28	0x3c2fcf61	0.010730595
29	0xbdc77a06	-0.09740071
30	0xbd44e70c	-0.048071906
31	0x3d1fcd07	0.03901389
32	0x3dda99cd	0.106738664
33	0x3d0d0c86	0.03443577
34	0xbc361212	-0.011112707
35	0xbd5dd5b5	-0.054158885
36	0xbe16560e	-0.14681265
37	0xbd46bcf7	-0.048520055
38	0xbdaae6d8	-0.08344811
39	0x398a9afc	0.00026436883
40	0xbe0194d6	-0.12654433
41	0xbdc41b9e	-0.0957558
42	0x3d1e0405	0.038578052
43	0xbd671347	-0.05641487
44	0xbc59d0f9	-0.013294452
45	0xbdb1ef62	-0.08688237
46	0xbd6891ab	-0.056779545
47	0x3d39b738	0.045340747
48	0xbe0ccf41	-0.13750936
49	0xbde69026	-0.11257963
50	0xbd93e637	-0.07221644
51	0x3ccea4ef	0.02522513
52	0x3c8e0f75	0.017341355
53	0x3daef0c9	0.0854202
54	0xbd3d297e	-0.04618215
55	0x3d65d7e8	0.056114107
56	0x3d245ecf	0.04012948
57	0xbd723f08	-0.059142143
58	0x3deb1309	0.1147824
59	0x3d963fd5	0.07336394
60	0x3df1bb3c	0.1180329
61	0xbe0feb82	-0.14054683
62	0x3d57d969	0.052697573
63	0xbd185d9c	-0.037198648
64	0xbd4fbbb7	-0.05071613
65	0xbe0f3a52	-0.13987091
66	0x3d6ba837	0.05753347
67	0x3d97da15	0.07414643
68	0x3df0d794	0.11759868
69	0x3d7d5990	0.06185299
70	0x3dbb398a	0.09141834
71	0x3dcb1c7c	0.09917542
72	0xbd23b4cf	-0.039967354
73	0x3d565545	0.052327413
74	0xbd459dd7	-0.04824623
75	0xbd106a5a	-0.035257675
76	0x3dafaed5	0.085782684
77	0xbd85a2de	-0.06525205
78	0xbb6c9743	-0.0036100901
79	0x3bfde7f7	0.0077485996
80	0x3d62e743	0.05539633
81	0x3d09e261	0.033663157
82	0x3ccddb53	0.025128996
83	0x3d1c4b3a	0.03815768
84	0xbe12230f	-0.14271186
85	0xbdd03a6f	-0.10167395
86	0xbcb82e14	-0.02248291
87	0xbdead31b	-0.114660464
88	0xbc4599a3	-0.012060556
89	0x3dd57217	0.104221515
90	0x3d4d8546	0.050175928
91	0xbddce7d8	-0.10786408
92	0xbb4a6fc1	-0.0030889364
93	0xbd81f44e	-0.063454255
94	0xbdc2bbf2	-0.09508504
95	0x3da66583	0.081248306
96	0xbd10d85d	-0.03536259
97	0xbba3d43b	-0.004999665
98	0x3db463ad	0.08808074
99	0xbdc2f953	-0.09520211
100	0xbc93fead	-0.018065775
101	0xbc6b6850	-0.014368132
102	0xbde208b4	-0.11036816
103	0xbe14d998	-0.1453613
104	0x3b48ed2a	0.003065894
105	0x3d8adcef	0.06780421
106	0xbdc4ab2c	-0.09602961
107	0xbdaaa13c	-0.08331534
108	0x3d808aa7	0.06276446
109	0xbdd4e4de	-0.103952155
110	0xbd2ec088	-0.04266408
111	0x3d9b4a2e	0.07582508
112	0xbdf3275d	-0.11872742
113	0xbbc17564	-0.0059038866
114	0x3c200e3f	0.0097690215
115	0x3da3b8d9	0.07994241
116	0xbd7af783	-0.0612712
117	0xbd63f97d	-0.055657852
118	0x3c0bba93	0.0085283695
119	0x3d9f05af	0.07764756
120	0xbcc11a1c	-0.02357202
121	0xbdfdd55a	-0.12394209
122	0xbdea1b97	-0.114310436
123	0x3a92e0e2	0.0011205936
124	0x3dc52d9c	0.0962784
125	0xbd9fb6d6	-0.07798545
126	0xbd9da7b6	-0.07698004
127	0xbb99e368	-0.0046962984
128	0xbc5a959a	-0.013341332
129	0xbd830af7	-0.06398576
130	0x3d766a82	0.060160168
131	0xbba07d24	-0.0048977304
132	0x3d67c754	0.05658658
133	0x3d0b0ef7	0.03394982
134	0x3d98b0f5	0.07455627
135	0xbe377c11	-0.17918421
136	0xbda09be9	-0.078422375
137	0xbdd0daa7	-0.101979546
138	0xbd781c14	-0.060573652
139	0xbd32654a	-0.043553628
140	0xbdffda56	-0.12492816
141	0xbda4ba90	-0.080433965
142	0x3db20edb	0.0869424
143	0x3c20298f	0.009775533
144	0x3d207299	0.03917179
145	0xbca70ebe	-0.020392772
146	0x3d81b2da	0.06332941
147	0xbe2ae58d	-0.16689129
148	0x3ca765ad	0.020434225
149	0xbd2abff0	-0.041686952
150	0xbe38d2f5	-0.18049224
151	0xbd9cf8fa	-0.07664676
152	0x3d1cd49a	0.03828869
153	0xbe38e271	-0.1805513
154	0xbdf438b9	-0.119248815
155	0xbd0956a2	-0.033529885
156	0xbe119229	-0.14215912
157	0xbe23495b	-0.15945952
158	0xbd51a7e2	-0.051185496
159	0xbe0abea1	-0.13549282
160	0x3dbd7adf	0.092519514
161	0xbe123abf	-0.14280222
162	0xbde27b3b	-0.110586606
163	0xbd907139	-0.070528455
164	0x3c336f7d	0.010951874
165	0xbde419ba	-0.111377195
166	0xbde6262a	-0.11237748
167	0x3cac1d3c	0.021010034
168	0xbe13e048	-0.14441025
169	0xbe3a03de	-0.18165538
170	0xbd348ca2	-0.04407943
171	0x3d6ba143	0.057526838
172	0xbcfc64db	-0.03080981
173	0xbda923c2	-0.082587734
174	0xbd94f106	-0.07272534
175	0xbd5ece5a	-0.05439601
176	0xbd30d22a	-0.043169178
177	0xbcda1c98	-0.026624963
178	0xbd25537f	-0.04036283
179	0xbe26d5ad	-0.16292448
180	0xbdd23bb5	-0.102652945
181	0xbb1cb77e	-0.002391308
182	0xbd0df779	-0.034659836
183	0x3c253098	0.010082386
184	0xbdac69aa	-0.08418591
185	0xbe22ca9c	-0.15897602
186	0x3d859faa	0.06524594
187	0xbd6dce8c	-0.058058307
188	0xbdb67203	-0.08908465
189	0x3d903004	0.07040408
190	0xbde09ee7	-0.10967808
191	0xbbfd7bd1	-0.0077357073
192	0xbd3337a4	-0.043754235
193	0x3db39178	0.0876798
194	0x3deb60a6	0.114930436
195	0xbc1dff97	-0.009643457
196	0x3d0db417	0.034595575
197	0x3d84576d	0.06461988
198	0xbe052969	-0.13004078
199	0x3dd2d303	0.102941535
200	0xbdc01cbb	-0.0938048
201	0x3d451343	0.048114073
202	0x3d402908	0.04691413
203	0x3d32840c	0.04358296
204	0x3decefee	0.115692005
205	0x3d00c256	0.031435333
206	0xbcec0685	-0.028811703
207	0x3d734d49	0.059399877
208	0x3c86f9c4	0.01647652
209	0x3d03ef9e	0.03221094
210	0xbce271d0	-0.02764216
211	0x3d0f4eec	0.034987375
212	0x3d8c7699	0.06858558
213	0x3da25829	0.079269715
214	0x3d66f556	0.056386314
215	0x3c9c354b	0.01906838
216	0xbdccc0ed	-0.09997735
217	0x3d96829d	0.07349131
218	0x3d6b6cf4	0.057476953
219	0x3dc90d57	0.098169975
220	0x3dfda00b	0.123840414
221	0xbc9579ee	-0.018246617
222	0xbc4bca38	-0.012438349
223	0xbdc0a436	-0.09406321
224	0x3d43f1fb	0.047838192
225	0xbd98e165	-0.074648656
226	0x3e0ba61a	0.13637581
227	0x3d95ea1a	0.07320042
228	0x3c12b152	0.008953409
229	0xbc4a2f74	-0.012340415
230	0x3a8d03b0	0.0010758545
231	0xbdb2a0bd	-0.08722065
232	0xbd5a023c	-0.053224787
233	0xbde2f1d7	-0.110812835
234	0xbd005525	-0.0313312
235	0xbd62ef8b	-0.055404227
236	0x3dbff100	0.09372139
237	0x3dc8df93	0.098082684
238	0xbc89a5d4	-0.016802706
239	0xbc97cb6e	-0.01852962
240	0x3dc0cb88	0.094138205
241	0x3de0d2cd	0.10977707
242	0x3dc9fd76	0.09862797
243	0xbd0cbe18	-0.034360975
244	0x3b950949	0.004548226
245	0xbe119829	-0.142182
246	0xbdafdd92	-0.08587183
247	0xbdcb29dc	-0.099200934
248	0xbc8eb016	-0.017417949
249	0x3d1bc266	0.03802719
250	0xbcf28db9	-0.029608594
251	0x3cbd7a5d	0.023129636
252	0xbe12bc9b	-0.1432976
253	0x3d7326b5	0.059363086
254	0xbdc6b812	-0.097030774
255	0xbdac7612	-0.084209576

conv.0.bias f4 [16]
0	0x3dc6c71b	0.09705945
1	0x3c93152f	0.017954437
2	0xbe26ec6a	-0.16301122
3	0x3cb29f09	0.02180435
4	0xbdfa6f29	-0.12228233
5	0xbd3af64c	-0.045645043
6	0xbd8a1fd4	-0.06744352
7	0x3dbd4317	0.09241312
8	0x3da68bef	0.08132159
9	0xbdcf89d0	-0.101337075
10	0xbe0809fb	-0.13285057
11	0x3d8df662	0.069317594
12	0x3de13397	0.10996168
13	0xbe0f9312	-0.14020947
14	0xbdd4acac	-0.10384497
15	0x3d8b42c8	0.06799847

conv.1.weight f4 [16]
0	0x3f7b1305	0.98075897
1	0x3f7c4264	0.98538804
2	0x3f79704f	0.97436994
3	0x3f7b261b	0.9810502
4	0x3f7b7016	0.98217905
5	0x3f7bd667	0.98374027
6	0x3f7f65ae	0.99764526
7	0x3f7b48c2	0.98157895
8	0x3f747ab8	0.95499754
9	0x3f7df034	0.99194646
10	0x3f7ce941	0.9879342
11	0x3f752fc8	0.95776033
12	0x3f7a0cd7	0.9767584
13	0x3f7bd148	0.9836621
14	0x3f737b86	0.95110357
15	0x3f7af00d	0.9802254

conv.1.bias f4 [16]
0	0xbc9229f0	-0.017842263
1	0x3c0511e3	0.00812194
2	0xbcef5e5d	-0.0292198
3	0xbc42c4ce	-0.011887742
4	0x3c907782	0.01763511
5	0x3b9152ad	0.0044349045
6	0x3b87118c	0.004121965
7	0xbc9a4913	-0.018833673
8	0xbce000e9	-0.027344184
9	0xbb14628e	-0.002264175
10	0xbbff0772	-0.00778287
11	0xbc5e51d5	-0.013569315
12	0xbca94707	-0.020663751
13	0xbc7e192e	-0.015508933
14	0xbd5485f4	-0.05188556
15	0x3c0e6aaf	0.008692428

conv.1.running_mean f4 [16]
0	0xbcbd2494	-0.02308873
1	0x3ec45284	0.38344204
2	0xbe9f952f	-0.31168506
3	0x3dd424ac	0.10358557
4	0xbed46332	-0.4148193
5	0xbedbc912	-0.42926842
6	0xbd4aaf8b	-0.049483817
7	0x3edc0461	0.4297209
8	0xbe7f5a5e	-0.24936816
9	0xbf07fddf	-0.5312175
10	0x3eb9c746	0.36284846
11	0xbf68a295	-0.9087308
12	0x3f38bf00	0.7216644
13	0xbde9658f	-0.11396324
14	0xbe908e46	-0.28233546
15	0xbe8a1626	-0.26970023

conv.1.running_var f4 [16]
0	0x3c015189	0.007892975
1	0x3c54c8d0	0.012987331
2	0x3bc81c48	0.006106887
3	0x3b02a38d	0.001993391
4	0x3c21a0f4	0.009865034
5	0x3c81ffc7	0.015869034
6	0x3a8f95bb	0.0010954657
7	0x3c47ebf9	0.012202256
8	0x3c8d7c39	0.017271148
9	0x3c9ee07b	0.01939415
10	0x3cb0cb67	0.021581365
11	0x3dbf66cf	0.09345781
12	0x3d06db13	0.03292377
13	0x3a55b0bb	0.000815164
14	0x3c0368aa	0.008020559
15	0x3c575804	0.013143543

conv.3.weight f4 [32, 16, 3, 3]
0	0xbc8bd0f3	-0.017067408
1	0xbc6931fc	-0.014233109
2	0xbce6ed82	-0.028189424
3	0x3d507275	0.050890405
4	0xbc117a01	-0.008879186
5	0x3d4b8826	0.04969039
6	0xbd75a2e2	-0.05996979
7	0xbd44a482	-0.04800845
8	0x3d27f4a1	0.04100478
9	0x3dcf8de9	0.10134489
10	0xbd534a61	-0.051584605
11	0x3cd1d9f7	0.025616629
12	0x3c8c2475	0.017107228
13	0x3d9b5f4a	0.07586534
14	0x3dc80178	0.09765905
15	0x3dbe9b88	0.09307009
16	0x3d8554f0	0.06510341
17	0x3d2612f5	0.040545423
18	0x3d9a0ee6	0.07522373
19	0xbc43aa93	-0.0119425235
20	0xbccf8295	-0.025330821
21	0xbc6b7441	-0.014370979
22	0x3d6a28d8	0.057167858
23	0x3d0a0e2e	0.03370493
24	0xbbdce2f4	-0.006740922
25	0xbd663e7b	-0.05621193
26	0xbce7229b	-0.028214743
27	0xbc976704	-0.018481739
28	0x3c22dd43	0.009940448
29	0xbc6d6b0c	-0.014490854
30	0xbabbd7d7	-0.0014331293
31	0xbd10205e	-0.035187118
32	0xbd7a7502	-0.061146744
33	0x3dc8d6e8	0.09806615
34	0x3d7e922e	0.062151127
35	0xbd1368a2	-0.035988458
36	0x3d3ca842	0.0460589
37	0x3d81636d	0.06317792
38	0x3d177340	0.036975145
39	0x3c7fbd4d	0.015609098
40	0xbcac1f1d	-0.02101093
41	0x3d00aa85	0.03141262
42	0x3d5ddfce	0.054168515
43	0x3c7f4f54	0.015582878
44	0xbd99076f	-0.07472121
45	0x3c5b011c	0.013366964
46	0x3d064479	0.032780144
47	0x3cead8ce	0.028667834
48	0x3c1996b1	0.009374307
49	0xbcd2bf44	-0.025725968
50	0x3d9afd30	0.07567823
51	0xbda82037	-0.082092695
52	0xbd0f077d	-0.03491925
53	0x3d02755f	0.031850215
54	0x3e03bb24	0.12864357
55	0x3e01291f	0.12613343
56	0x3d142ebe	0.03617739
57	0x3db7937e	0.08963679
58	0x3e151e85	0.14562424
59	0x3dafdf13	0.0858747
60	0x3c29f745	0.010373895
61	0x3dca471f	0.098768465
62	0xbc8bf13d	-0.017082805
63	0xbd464b35	-0.048411567
64	0x3daf3e35	0.08556787
65	0x3da49e57	0.080380134
66	0xbbc5462b	-0.0060203276
67	0xbc2ebc12	-0.010664957
68	0x3da4e21c	0.080509394
69	0xbd16ded2	-0.03683359
70	0x3ccc478e	0.024936464
71	0x3c8cccec	0.017187558
72	0x3aba3beb	0.0014208531
73	0xbd908124	-0.070558816
74	0xbdac1571	-0.08402527
75	0x3d752835	0.059852798
76	0xbd5d741e	-0.054065816
77	0x3d45654c	0.048192307
78	0x3d1539b1	0.036431972
79	0x3d8594a4	0.065224916
80	0x3d81f697	0.063458614
81	0x3cd60117	0.026123567
82	0xbd2e807e	-0.04260301
83	0xbd705821	-0.058677796
84	0xbd3b6ede	-0.045760028
85	0xbc45eb21	-0.012079985
86	0x3d529224	0.0514089
87	0xbcb599c1	-0.022168042
88	0xbd76a252	-0.060213394
89	0xbc3c2454	-0.011483271
90	0xbd97c35f	-0.07410311
91	0x3ceb9b03	0.028760439
92	0xbcb3b37c	-0.02193617
93	0xbc7d4a78	-0.015459649
94	0x3d80bf8b	0.06286534
95	0xbca869e0	-0.020558298
96	0xbd38f3ad	-0.045154262
97	0xbcad326b	-0.021142205
98	0xbcbbf6d1	-0.02294484
99	0x3c94a7d7	0.018146439
100	0xbd39a0e3	-0.04531945
101	0xbbb31e83	-0.0054662838
102	0x3d48dd65	0.049039263
103	0xbd82be3d	-0.06383941
104	0x3ced80cd	0.028992081
105	0x3d93914b	0.07205447
106	0xbda40acd	-0.080098726
107	0x3d76c82f	0.060249504
108	0xbd21c2bf	-0.039492365
109	0x3bec6997	0.0072147357
110	0x3cb42693	0.02199105
111	0x3d7c4643	0.061590444
112	0xbd31fe76	-0.043455563
113	0x3bd53a4d	0.006507194
114	0x3cbd18ab	0.023083052
115	0x3cd3397b	0.025784245
116	0x3d206806	0.039161704
117	0x3d0d352f	0.034474548
118	0x3c1bf5fd	0.009519097
119	0x3d763755	0.060111362
120	0xbd9568a7	-0.072953515
121	0xbd0763cc	-0.033054158
122	0x3c3dfb1e	0.0115955155
123	0xba0a2d97	-0.00052710756
124	0x3d78a032	0.06069965
125	0x3da1e41d	0.07904837
126	0xbcd82cab	-0.026388487
127	0x3b40e60d	0.0029433996
128	0xbdbddeff	-0.09271049
129	0xbc8d8f94	-0.017280377
130	0xbd93e976	-0.072222635
131	0xbcd9990c	-0.026562236
132	0x3cb8c891	0.022556575
133	0xbd1bef62	-0.03807009
134	0x3d1290f9	0.035782788
135	0xbdba2352	-0.09088768
136	0xbd275dc5	-0.04086091
137	0x3bf42209	0.0074503464
138	0xbadd29a7	-0.0016873375
139	0xbd764aac	-0.060129806
140	0x3d8f5a92	0.06999697
141	0x3c4f2455	0.01264294
142	0xbd5c2766	-0.05374851
143	0x3d822079	0.0635385
144	0xbc67d466	-0.014149761
145	0xbd803a33	-0.062611006
146	0x3aea16ee	0.0017859617
147	0x3c0b7027	0.008510626
148	0x3d58062b	0.052740257
149	0x3d68f6a2	0.056875832
150	0xbcae5503	-0.021280771
151	0xbdbbc6d9	-0.091687866
152	0x3d07eafa	0.033183075
153	0x3d160dfd	0.036634434
154	0x3d05e80c	0.032692
155	0x3d800a8c	0.06252012
156	0x3ccc87ee	0.02496716
157	0xbcafd529	-0.021463947
158	0x3d53d5e8	0.05171767
159	0xbbab627f	-0.0052302475
160	0x3d9f4e4e	0.07778607
161	0xbd991d3b	-0.074762784
162	0xbdbf00f8	-0.09326357
163	0xbdab1c2f	-0.08354985
164	0xbd4ee9be	-0.050515883
165	0x3d465089	0.048416648
166	0xbdae9010	-0.085235715
167	0xbda09810	-0.078415036
168	0xbca3ad92	-0.019980226
169	0x3d857b5d	0.0651767
170	0x3c6ccea0	0.01445356
171	0x3d9129d1	0.07088054
172	0xbc001d4e	-0.007819487
173	0xbd274b63	-0.04084338
174	0x3cd58ac7	0.02606715
175	0xbd49824f	-0.049196538
176	0x3c6dc171	0.014511452
177	0xbd314f75	-0.043288667
178	0xbdb6f587	-0.089335494
179	0x3c4d0db7	0.012515477
180	0xbda4df3a	-0.080503896
181	0xbd4424c1	-0.047886614
182	0x3cdcceee	0.02695414
183	0x3c90da9e	0.01768237
184	0xbdab6ae7	-0.083699994
185	0xbcd941a0	-0.02652055
186	0x3d64f531	0.055897895
187	0x3d910688	0.07081324
188	0xbd5cd217	-0.053911295
189	0xbd96c7db	-0.07362338
190	0x3d00e208	0.03146556
191	0xbcbbfc11	-0.022947343
192	0xbdca6dcf	-0.098842256
193	0xbda5a4c4	-0.08088067
194	0x3c85f4a0	0.016351998
195	0xbd34397c	-0.044000134
196	0xbdb57eb5	-0.08862058
197	0xbd82ddee	-0.06389986
198	0xbc18d82f	-0.009328886
199	0xbd8dc701	-0.069227226
200	0x3d153043	0.03642298
201	0xbc75d835	-0.015005161
202	0x3aa3fdad	0.0012511514
203	0xbd16496a	-0.036691107
204	0x3d462a3f	0.048380133
205	0xbd9bd238	-0.076084554
206	0xbcb4515a	-0.022011448
207	0xbd097a0d	-0.033563662
208	0x3c954bc3	0.018224603
209	0x3c526858	0.01284226
210	0x3d810797	0.06300276
211	0xbc9127f3	-0.017719245
212	0x3d40bef0	0.047057092
213	0x3d7cd828	0.06172958
214	0xbc457fbf	-0.012054383
215	0xbcee909c	-0.02912169
216	0xbd892202	-0.066959396
217	0xbc606f77	-0.01369845
218	0xbd007e89	-0.031370673
219	0x3bd9296d	0.006627253
220	0x3c955000	0.018226624
221	0x3cb75cb1	0.022383066
222	0xbd156e2d	-0.036482025
223	0xbd9ca801	-0.07649232
224	0x3d8beb18	0.0683195
225	0x3c8d8b4b	0.017278334
226	0xbcebdb65	-0.028791139
227	0x3d42ad04	0.04752828
228	0x3cb4f2f5	0.022088507
229	0xbce375bd	-0.027766103
230	0x39b938f6	0.0003532839
231	0x3c96b316	0.018395942
232	0xbd0d70b3	-0.034531306
233	0xbbb3c3b4	-0.005485976
234	0xbd18ad47	-0.037274625
235	0xbd532367	-0.051547434
236	0x3d6dfcd6	0.05810245
237	0xbdd7c9e8	-0.105365574
238	0xbd98bbb1	-0.07457674
239	0x3d49bbdf	0.049251433
240	0xbdd33719	-0.103132434
241	0xbbe142a4	-0.0068743993
242	0xbd48c40e	-0.049015097
243	0xbcda5c9b	-0.026655486
244	0xbb4b2f7b	-0.0031003642
245	0xbd051b02	-0.03249646
246	0x3d77a245	0.060457487
247	0xbbe4c54d	-0.006981528
248	0xbd81fce9	-0.06347067
249	0xbcf7b1ea	-0.030236203
250	0x3d4f89d9	0.05066857
251	0xbca74384	-0.020417936
252	0xbd24031d	-0.04004203
253	0x3d14e6dd	0.03635298
254	0x3cc3199c	0.023815922
255	0x3c864846	0.016391885

conv.3.bias f4 [32]
0	0x3d78b75c	0.06072174
1	0xbcf7de15	-0.030257264
2	0xbdd8dcda	-0.10588999
3	0xbda9dc2c	-0.082939476
4	0xbd38eadf	-0.045145866
5	0xbcd5883c	-0.026065938
6	0x3d081df2	0.033231683
7	0xbdaa8e57	-0.083279304
8	0xbdb6f939	-0.08934254
9	0xbc2500d8	-0.010071002
10	0x3cfeaed1	0.031089218
11	0x3d1df029	0.038559113
12	0x3cd782c9	0.02630748
13	0xbdc910ec	-0.09817681
14	0xbd503ff6	-0.050842248
15	0x3c5abd58	0.013350807
16	0xbc39c490	-0.011338368
17	0x3d5dda9d	0.054163564
18	0xbd700d78	-0.058606595
19	0x3cf0d680	0.029399157
20	0xbd1b75ba	-0.03795407
21	0x3cadef6a	0.021232326
22	0x3d3875d7	0.045034256
23	0x3d1c8133	0.03820915
24	0xbc4122e8	-0.011788107
25	0xbd2fa2bb	-0.0428798
26	0xbc0e230e	-0.00867535
27	0x3d07320c	0.033006713
28	0x3d90947d	0.07059572
29	0xbd1383a7	-0.036014225
30	0x3d02eca4	0.03196396
31	0x3d50c874	0.050972417

conv.4.weight f4 [32]
0	0x3f80c678	1.0060568
1	0x3f7ab5b8	0.9793353
2	0x3f7cfc06	0.9882206
3	0x3f869d23	1.0516704
4	0x3f7a18e2	0.9769422
5	0x3f7796b2	0.9671432
6	0x3f783d6d	0.9696873
7	0x3f7f0637	0.9961886
8	0x3f7e171f	0.9925403
9	0x3f7a2957	0.9771933
10	0x3f7bd15f	0.9836635
11	0x3f7a5d97	0.97799057
12	0x3f7543bc	0.9580648
13	0x3f75673c	0.9586065
14	0x3f775b63	0.9662382
15	0x3f7b39cb	0.9813506
16	0x3f7743fd	0.96588117
17	0x3f7b8d70	0.9826269
18	0x3f7fbb00	0.99894714
19	0x3f7ceae3	0.9879591
20	0x3f79767b	0.9744641
21	0x3f7c6f5b	0.98607415
22	0x3f7f1adc	0.9965036
23	0x3f80031e	1.0000951
24	0x3f79342d	0.9734524
25	0x3f7d0a16	0.98843515
26	0x3f758657	0.9590811
27	0x3f80827b	1.003982
28	0x3f7cdf26	0.98778
29	0x3f7e4f95	0.9934018
30	0x3f7bd8c2	0.9837762
31	0x3f7d5053	0.9895069

conv.4.bias f4 [32]
0	0x3ccfbd0c	0.0253587
1	0xbad7482d	-0.0016424708
2	0xbcc9ea90	-0.02464798
3	0x3d4f0421	0.050541047
4	0x3c1c38bd	0.009535012
5	0xbcf5ed28	-0.030020311
6	0xbc99336e	-0.018701281
7	0x3cf27213	0.02959541
8	0xbba32999	-0.004979324
9	0x3b66b902	0.0035205488
10	0xbcad8211	-0.021180185
11	0xbcb154c4	-0.021646865
12	0xbcd7f942	-0.026363973
13	0xbce9eb9c	-0.02855473
14	0xbc4ee250	-0.012627199
15	0xbb81a5d6	-0.0039565368
16	0xbcf9b9b4	-0.030484058
17	0xbc404f75	-0.011737694
18	0x3be4f451	0.0069871326
19	0x3c00e30b	0.007866631
20	0x3c8700bd	0.016479844
21	0x3c483cca	0.0122215245
22	0x3ac54565	0.0015050588
23	0x3b796d31	0.0038059468
24	0xbce9f2cd	-0.02855816
25	0xbc83c442	-0.016084794
26	0xbcbddddc	-0.02317708
27	0x3b8ab6f1	0.004233234
28	0x3c14cd3d	0.009082136
29	0xba4758f2	-0.00076045014
30	0xbc5cc029	-0.013473549
31	0xbc18936b	-0.009312491

conv.4.running_mean f4 [32]
0	0x3dfcceeb	0.12344154
1	0x3ec2c890	0.38043642
2	0x3e0355ec	0.12825745
3	0x3d0fe867	0.035133746
4	0x3d3375d3	0.043813538
5	0xbd047486	-0.032337688
6	0x3e3df641	0.1855097
7	0x3e193049	0.14959826
8	0xbe024ef9	-0.12725438
9	0xbe9b3fa2	-0.30321985
10	0xbdd4cb9c	-0.10390398
11	0xbe8409b5	-0.25788656
12	0x3d6cb9c1	0.057794336
13	0xbcd8264b	-0.026385447
14	0xbdd5f9df	-0.1044805
15	0x3eaa9ebe	0.33324236
16	0xbe8eba59	-0.27876547
17	0xbe15bad9	-0.14622058
18	0xbccc7a71	-0.024960728
19	0x3e863a67	0.26216432
20	0x3e5fcbd4	0.21855098
21	0xbd70bdf0	-0.05877489
22	0xbe15d04f	-0.14630245
23	0xbe84b9a5	-0.25922886
24	0xbecf27b4	-0.4045998
25	0x3e526402	0.20545962
26	0xbe6e4d28	-0.2327162
27	0x3f249423	0.6428854
28	0xbda91156	-0.0825526
29	0xbd3011f1	-0.04298586
30	0x3e8aadf2	0.27085835
31	0xbd1eab80	-0.038737774

conv.4.running_var f4 [32]
0	0x3e135297	0.14386974
1	0x3e8bef1c	0.27330863
2	0x3e34b54d	0.17647286
3	0x3e0bcd85	0.13652618
4	0x3dc809f9	0.09767527
5	0x3e28b63c	0.16475767
6	0x3e4461b4	0.19177896
7	0x3e22b571	0.15889527
8	0x3e78281b	0.24234049
9	0x3e5d3f0d	0.21606083
10	0x3f0d16d2	0.55112946
11	0x3ea725a7	0.32645914
12	0x3e1f5fb6	0.15563855
13	0x3e119937	0.14218603
14	0x3e050e2f	0.12993692
15	0x3ec97a8f	0.39351317
16	0x3e3d52c4	0.18488604
17	0x3e096ae1	0.13419677
18	0x3e20dc3b	0.15709011
19	0x3e076455	0.13221867
20	0x3e7977cc	0.24362105
21	0x3e2948fc	0.16531748
22	0x3ea08ea4	0.31358826
23	0x3e60d6e2	0.21956971
24	0x3e766903	0.24063496
25	0x3e2302ed	0.15919085
26	0x3e839e21	0.2570658
27	0x3f504c61	0.81366545
28	0x3e8974b7	0.2684686
29	0x3eb3b97d	0.35102454
30	0x3e7c42e2	0.24634889
31	0x3e723c08	0.23655713

conv.6.weight f4 [32, 32, 3, 3]
0	0xbc673c8c	-0.014113557
1	0x3de01c7f	0.10942935
2	0x3d415388	0.047198802
3	0xbc7da89d	-0.015482095
4	0x3d5a972c	0.053366825
5	0xbb329b51	-0.002725322
6	0x3d2c0718	0.041998953
7	0xbcfb69bf	-0.030690072
8	0x3d598300	0.053103447
9	0xbc7d20e1	-0.0154497335
10	0xbd040ae8	-0.032236964
11	0x3d0222fb	0.03177164
12	0xbd0650f1	-0.032792035
13	0xbc6617a1	-0.0140437195
14	0x3d0a8d4e	0.033826165
15	0x3d7358bf	0.059410807
16	0xbbdec82e	-0.0067987656
17	0x3c75c272	0.014999973
18	0xbd42386e	-0.047417097
19	0x3d64b123	0.055832993
20	0x3cbaec3e	0.022817727
21	0xbc85e26b	-0.016343316
22	0x3d5cb133	0.053879928
23	0x3caa7853	0.020809328
24	0x3d69fe48	0.057127267
25	0x3cb57237	0.022149188
26	0xbd37939f	-0.044818517
27	0xbd0eef71	-0.034896318
28	0xbdbf75a4	-0.0934861
29	0xbd3dddf4	-0.04635425
30	0x3d9e7e87	0.07738977
31	0xb9bec256	-0.00036384416
32	0xbda59c60	-0.08086467
33	0xbc5e32a8	-0.013561882
34	0xbc03ad9a	-0.008036995
35	0x3c3f6ff9	0.011684411
36	0x3ca07c14	0.019590415
37	0x3c603f00	0.013686895
38	0x3b82d7d0	0.003993012
39	0xbc99c7bb	-0.018771997
40	0x3c7a9027	0.015293158
41	0xbd14785a	-0.03624759
42	0xbcde2cf2	-0.027121041
43	0x3d3a059e	0.045415513
44	0xbcfa06db	-0.030520847
45	0x3c9b1c6e	0.018934455
46	0xbd2acebb	-0.04170106
47	0x3cf038b7	0.029323919
48	0x3bd401e9	0.0064699543
49	0x3d3759e6	0.04476347
50	0x3d74db00	0.059779167
51	0x3c8218d9	0.015880989
52	0x3d249b0c	0.040186927
53	0xbd008bee	-0.031383447
54	0x3d69eecb	0.057112496
55	0x3d863166	0.06552391
56	0x3bce635f	0.006298467
57	0xbd146a2b	-0.036234062
58	0x3b8e8986	0.00434989
59	0x3d7efa19	0.06225023
60	0x3d2a9d4d	0.04165392
61	0xbbc007c2	-0.0058603
62	0x3d56b35f	0.052417155
63	0x3d830410	0.06397259
64	0x3d44b7c4	0.048026815
65	0xbcd43f83	-0.025909191
66	0x3c31bda9	0.010848441
67	0xbc54a271	-0.012978182
68	0x3dd8ef09	0.10592467
69	0xba9f83d1	-0.0012170022
70	0x3c73cd01	0.01488042
71	0x3d974a18	0.07387179
72	0x3cfd53dc	0.030923776
73	0xbcafe796	-0.021472733
74	0xbc9beff1	-0.019035311
75	0x3cb2b265	0.02181358
76	0xbd123580	-0.035695553
77	0x3d29da16	0.04146775
78	0xbb9bebb2	-0.0047583217
79	0x3d160a8e	0.03663116
80	0x3d234e20	0.039869428
81	0xbc504b84	-0.012713317
82	0xbca1f7c9	-0.019771473
83	0x3c73aada	0.014872277
84	0xbd40f1c2	-0.04710556
85	0x3da8d5fd	0.0824394
86	0xbb82793c	-0.0039817374
87	0x3c06407a	0.008194083
88	0x3d4fd9f6	0.050744973
89	0x3d0695d6	0.03285774
90	0xbd34a89c	-0.04410611
91	0x3d650fb4	0.05592318
92	0x3d1ca257	0.038240757
93	0x3d25616c	0.040376112
94	0x3d011f4e	0.031523995
95	0x3d09f255	0.03367837
96	0xbcc01213	-0.023446118
97	0x3c988af2	0.018620942
98	0xbc3ef837	-0.011655859
99	0x3c8ccded	0.017188037
100	0x3b5484e3	0.003242784
101	0xbc7ec7ee	-0.015550597
102	0xbc8a877e	-0.01691031
103	0x3d80a839	0.06282086
104	0x3cb51032	0.02210245
105	0x3c796e5e	0.0152240675
106	0x3cc381bc	0.023865573
107	0xbcc765e4	-0.024340577
108	0xbd390863	-0.045174014
109	0xbd4ef33b	-0.05052493
110	0xbb767122	-0.0037604054
111	0xbd0ddfed	-0.03463738
112	0x3c30405b	0.010757531
113	0xbc10c67a	-0.008836383
114	0xbcb7c77b	-0.022433987
115	0xbc0ba3d4	-0.008522946
116	0x39d1bc85	0.00040004044
117	0xbd12f95c	-0.03588234
118	0xbcb9895b	-0.022648504
119	0x3d034ed2	0.03205759
120	0x3baa2e41	0.005193502
121	0x3d112ba5	0.035442013
122	0x3cb0468b	0.021518013
123	0xbc9822fc	-0.01857137
124	0x3c68aaa3	0.014200839
125	0xbc2ad0d4	-0.010425765
126	0xbc508385	-0.012726669
127	0x3d92460a	0.07142265
128	0x3d6b540d	0.057453204
129	0x3c490403	0.012269023
130	0x3b9b4dba	0.0047394903
131	0x3dc0b7f6	0.09410088
132	0x3c753b4a	0.014967749
133	0x3bd4a5b2	0.006489479
134	0x3d1baf28	0.03800884
135	0x3cfb2a15	0.030659715
136	0x3cfce2d3	0.030869877
137	0x3d2df2f4	0.042468026
138	0xbd04a050	-0.03237945
139	0xbd13fd32	-0.036130138
140	0xbc3e92d1	-0.011631683
141	0x3be0b1b9	0.0068571237
142	0x3d7d9717	0.06191167
143	0x3c893164	0.016747184
144	0x3d4f1d55	0.050565083
145	0xbcdb7c14	-0.026792563
146	0x3d02544b	0.03181867
147	0xbbd6383a	-0.0065374644
148	0x3b885c64	0.0041614044
149	0xbcecbac6	-0.028897654
150	0x3cfc915b	0.03083103
151	0x3d0aa5c4	0.033849493
152	0x3d7154e3	0.058918845
153	0x3cf20934	0.029545404
154	0x3d41ea68	0.047342688
155	0x3a02ff15	0.00049971166
156	0x3d223cab	0.03960864
157	0x3d6366f8	0.05551812
158	0x3cb7fde3	0.02245993
159	0xbc84d991	-0.016217025
160	0x3a2d5626	0.00066122634
161	0xbce7407f	-0.028228996
162	0x3cd1de9e	0.025618847
163	0x3dbd8b49	0.09255082
164	0x3dd47bb6	0.103751585
165	0x3cb096da	0.021556307
166	0x3d8ed094	0.06973377
167	0xbbb6f24f	-0.0055830847
168	0xbd3041fd	-0.04303168
169	0x3d17e89a	0.03708706
170	0x3cabf3f1	0.020990344
171	0x3c8e31e4	0.017357774
172	0x3d7e5428	0.062091976
173	0x3d596308	0.05307296
174	0x3cfceef9	0.03087567
175	0xbcb77bac	-0.022397839
176	0x3ccd0c62	0.025030319
177	0x3c5af3b2	0.013363766
178	0xbb53e8e9	-0.003233487
179	0x3b597a1a	0.003318435
180	0x3d2cb416	0.04216393
181	0xbc2de3f7	-0.010613433
182	0x3d0b3d04	0.033993736
183	0x3d4056cc	0.046957776
184	0x3cf98c76	0.030462485
185	0x3bf955f8	0.007609125
186	0x3bac4deb	0.005258312
187	0x3d979878	0.07402128
188	0x3d0a998c	0.03383784
189	0xbc22bc5f	-0.0099326065
190	0x3b9bda39	0.004756239
191	0xbc01c126	-0.007919585
192	0xbd155d98	-0.03646621
193	0x3d517b95	0.051143248
194	0x3d962625	0.07331494
195	0xbc327f8f	-0.01089467
196	0xbc0cff54	-0.008605797
197	0x3c72130e	0.014775051
198	0xbd748917	-0.05970105
199	0x3cf563f4	0.029954888
200	0x3c02fa90	0.007994309
201	0x3a8e0df8	0.0010837903
202	0xbd83fd1e	-0.06444763
203	0x3cd7f16c	0.026360236
204	0x3d4c4dd3	0.049878906
205	0xbd2ea51d	-0.042637933
206	0xbd6a3652	-0.05718071
207	0x39880e09	0.00025950398
208	0x3dd3c20b	0.10339745
209	0xbd56f6de	-0.052481525
210	0x3d114fb0	0.035476387
211	0xbd3329e1	-0.04374111
212	0xbd0c0262	-0.03418196
213	0xbd2867d6	-0.04111465
214	0x3d7ec2eb	0.062197607
215	0x3c12b75e	0.008954851
216	0x3d8a128f	0.06741821
217	0x3d9699e0	0.07353568
218	0xbceb42a9	-0.02871831
219	0xbccbad0c	-0.024862789
220	0x3d4ad7b7	0.049522128
221	0x3bd59fbe	0.006519287
222	0x3d5cb2cf	0.053881463
223	0x3d14d9d4	0.03634055
224	0x3d07da18	0.033166975
225	0x3cbf5978	0.023358092
226	0x39809256	0.0002452309
227	0xbc4a9fde	-0.012367217
228	0x3d6e3801	0.05815888
229	0x3c1cca89	0.0095697725
230	0xbb67992e	-0.0035339105
231	0xbcecf5fc	-0.028925888
232	0x3d4ce247	0.050020482
233	0xbd308753	-0.043097805
234	0x3ce9c77a	0.0285375
235	0xbc56bbc1	-0.013106287
236	0x3d2e661e	0.042577855
237	0xbc96016d	-0.018311227
238	0xbd35b198	-0.04435882
239	0xbcfc1e4b	-0.030776164
240	0xbd1ffe23	-0.039060723
241	0x3d4310b9	0.04762337
242	0xbba68acd	-0.0050824643
243	0x3b3b4cbd	0.0028579675
244	0x3cad1711	0.021129163
245	0x3d46000c	0.04833989
246	0x3ad7c0ce	0.0016460659
247	0xbd1aadbe	-0.03776335
248	0x3c377b9d	0.011198905
249	0xba7b9839	-0.0009597573
250	0x3d5f55c6	0.05452516
251	0x3d125d96	0.03573378
252	0x3d253983	0.04033805
253	0x3cd1f647	0.02563013
254	0xbd26d391	-0.04072911
255	0x3d69687d	0.056984413

conv.6.bias f4 [32]
0	0xbc63b110	-0.013897195
1	0x3d711e0b	0.05886654
2	0xbdaaa17d	-0.08331583
3	0xbcfc22ec	-0.03077837
4	0xbd364814	-0.044502333
5	0xbd2d1336	-0.04225465
6	0x3c081cd4	0.008307654
7	0x3d356c13	0.04429252
8	0x3cb309ee	0.02185532
9	0x3c91d1d4	0.01780025
10	0xbd9ac4dd	-0.0755708
11	0x3cd39c4c	0.025831364
12	0x3d2a4d5b	0.04157768
13	0xbca350c3	-0.019935971
14	0xbc6a3ddf	-0.014296978
15	0xbd2a055f	-0.04150903
16	0xbc416dc3	-0.011805954
17	0x3d064925	0.0327846
18	0xbd42c1b7	-0.047548022
19	0xbca01130	-0.019539446
20	0xbd58c005	-0.0529175
21	0xbb9d6fe6	-0.004804599
22	0x3ca08660	0.019595325
23	0x3d19d173	0.037553262
24	0xbd4e582b	-0.050377052
25	0xbcca8f12	-0.024726424
26	0xbd707830	-0.05870837
27	0xbd2b7cce	-0.04186707
28	0xbcd474f8	-0.025934681
29	0xbd3f8586	-0.046758197
30	0xbc699d42	-0.014258685
31	0xbd82d0b0	-0.0638746

conv.7.weight f4 [32]
0	0x3f813ec2	1.0097277
1	0x3f7ad93a	0.9798771
2	0x3f757993	0.9588863
3	0x3f8348d5	1.0256602
4	0x3f738f68	0.95140696
5	0x3f773218	0.9656081
6	0x3f7d511b	0.9895188
7	0x3f7690d5	0.96314746
8	0x3f7cb6f6	0.98716676
9	0x3f756bf6	0.9586786
10	0x3f7ad0fc	0.97975135
11	0x3f793639	0.9734836
12	0x3f7f10ab	0.9963481
13	0x3f7a6235	0.978061
14	0x3f799fc9	0.9750944
15	0x3f798d91	0.9748164
16	0x3f7ed5e4	0.9954512
17	0x3f7a96e5	0.97886497
18	0x3f7dbf30	0.99119854
19	0x3f7aeb82	0.98015606
20	0x3f7c28ab	0.98499554
21	0x3f7d48a1	0.9893895
22	0x3f7d2531	0.98884875
23	0x3f7c46b1	0.98545367
24	0x3f793f8e	0.973626
25	0x3f7ce32a	0.98784125
26	0x3f7b7344	0.98222756
27	0x3f771dea	0.9653002
28	0x3f80c11b	1.0058931
29	0x3f75612b	0.9585139
30	0x3f7ac6c7	0.9795956
31	0x3f786d31	0.9704161

conv.7.bias f4 [32]
0	0x3d0273ff	0.031848904
1	0x3cd5432f	0.026033012
2	0xbcd6c370	-0.026216239
3	0x3a8849ee	0.0010398009
4	0xbc7d332a	-0.015454093
5	0x3a8c1fd5	0.0010690639
6	0xbc4e4954	-0.012590725
7	0xbbcb2148	-0.006199036
8	0xbc728536	-0.014802268
9	0xbcab7f4b	-0.020934721
10	0xbc8d7ae6	-0.017270517
11	0xbc6b48a4	-0.014360581
12	0x3c371883	0.011175278
13	0xbca76e32	-0.020438287
14	0xbca854ea	-0.020548303
15	0xbc900f53	-0.017585432
16	0x3c8b1d96	0.016981881
17	0xbac9b93d	-0.0015390288
18	0x3ada1fe3	0.0016641583
19	0xbcb0102e	-0.02149209
20	0xbca47b65	-0.02007837
21	0xbcb299de	-0.021801885
22	0x3cacbfdc	0.02108758
23	0xbc2b7b8a	-0.010466466
24	0xbca604de	-0.020265993
25	0xbbfe8377	-0.0077671367
26	0xbc802b07	-0.015645517
27	0x39a59800	0.000315845
28	0x3ca40de7	0.02002616
29	0xbbd6e90a	-0.006558542
30	0xbc74abd3	-0.014933544
31	0xbcd18ce1	-0.025579872

conv.7.running_mean f4 [32]
0	0x3eb0d50f	0.3453755
1	0x3e6c06f1	0.23049523
2	0xbcdb9741	-0.026805522
3	0x3ea68a5f	0.32527444
4	0x39914fba	0.00027715956
5	0xbe9427b7	-0.2893655
6	0xbdb655e9	-0.08903105
7	0xbecaf7b8	-0.3964212
8	0xbeaf1c6e	-0.34201378
9	0x3e599bf2	0.21250895
10	0xbdf64c1e	-0.12026237
11	0xbe616f4b	-0.22015111
12	0x3eba0d3e	0.36338228
13	0xbd567320	-0.052355886
14	0xbd3e3d4e	-0.046445183
15	0x3d7b5c89	0.061367545
16	0x3e88d3cd	0.2672409
17	0x3e949f2a	0.29027683
18	0x3e42279c	0.18960422
19	0x3c193dd3	0.009353119
20	0xbe2b2061	-0.1671157
21	0xbe0bdc3a	-0.13658229
22	0xbe4a7369	-0.19770588
23	0x3e1c6abb	0.1527509
24	0xbe39b51e	-0.18135497
25	0xbea0480f	-0.31304976
26	0x3d37c055	0.044861156
27	0x3e13180e	0.14364645
28	0xbdb54c77	-0.08852475
29	0xbe00cf57	-0.12579094
30	0xbef912e5	-0.48647228
31	0xbf18b0da	-0.59644854

conv.7.running_var f4 [32]
0	0x3ed491a5	0.41517368
1	0x3e18ef51	0.14935042
2	0x3e88c732	0.26714474
3	0x3e5a78a7	0.21335088
4	0x3e60f0db	0.21966879
5	0x3def1dff	0.11675643
6	0x3e4870aa	0.19574228
7	0x3f100b84	0.5626757
8	0x3e8d092d	0.27546063
9	0x3e37300b	0.1788942
10	0x3e4ae973	0.19815616
11	0x3e8a46d3	0.2700716
12	0x3e9a89bb	0.30183205
13	0x3e305d99	0.17223205
14	0x3e688047	0.22705184
15	0x3e1bf088	0.15228474
16	0x3ea6fdd1	0.32615522
17	0x3e79dbc8	0.24400246
18	0x3e93b4ba	0.2884882
19	0x3ea2e851	0.31817868
20	0x3e4fbc31	0.20286633
21	0x3e7aac3b	0.24479763
22	0x3e17f21b	0.1483845
23	0x3e3b4b22	0.1829038
24	0x3ee32aed	0.44368687
25	0x3e9320ca	0.28735954
26	0x3e56a924	0.2096296
27	0x3ebd5d76	0.36985368
28	0x3e500be6	0.20317039
29	0x3e7ebd66	0.24876937
30	0x3e97fcaa	0.29684955
31	0x3ed2c9b0	0.411695

conv.9.weight f4 [32, 32, 3, 3]
0	0xbd7ad057	-0.061233845
1	0x3cde39f6	0.027127247
2	0x3c690472	0.014222251
3	0xbd43a329	-0.047763024
4	0x3bd82f68	0.006597448
5	0xbd627d70	-0.055295408
6	0xbc174563	-0.009232852
7	0xbcf478b6	-0.029842716
8	0xbd53370c	-0.05156617
9	0x3c077add	0.008269039
10	0xbc673cf7	-0.014113656
11	0xbc25960a	-0.010106573
12	0xbd6c1f4b	-0.05764703
13	0xbb988dbf	-0.0046555693
14	0xbc1d93ea	-0.009617785
15	0x3bf5e9ca	0.0075046765
16	0x3cde29c4	0.027119525
17	0x3d1b1514	0.0378619
18	0xbd187a29	-0.037225876
19	0xbd8dcf77	-0.069243364
20	0x3be75eed	0.0070608766
21	0xbd8aba9e	-0.06773876
22	0xbc5a5ec7	-0.013328261
23	0xbb4cab47	-0.003123002
24	0x3d08f36e	0.033435278
25	0x3ccce928	0.025013521
26	0xbcad513a	-0.021156896
27	0x3cf62acc	0.030049704
28	0x3cb2b6dd	0.021815712
29	0x3ce17c47	0.02752508
30	0xbd3df689	-0.046377692
31	0xbd8fe86f	-0.07026755
32	0x3cd4152f	0.025889007
33	0xbda4794e	-0.080309495
34	0xbcc7813b	-0.024353614
35	0xbcee0643	-0.02905572
36	0xbcaf9d33	-0.021437263
37	0x3d3037b1	0.04302186
38	0x3c2a331a	0.01038816
39	0xbc751122	-0.014957698
40	0x3c29c285	0.0103613185
41	0xbbbbccf8	-0.0057312213
42	0x3d3f3cec	0.04668896
43	0x3d3cc0d7	0.046082344
44	0x3d89ef76	0.06735127
45	0xbd02dc87	-0.031948593
46	0xbd152576	-0.03641268
47	0xbca002d1	-0.019532593
48	0x3c6643d6	0.014054259
49	0x395c9664	0.0002103686
50	0xbc2e7282	-0.010647418
51	0xbd86d798	-0.0658409
52	0xbd2c6bbd	-0.042094935
53	0xbd79d9f6	-0.06099888
54	0x3b944874	0.0045252386
55	0xbd3477c0	-0.044059515
56	0xbb34034b	-0.0027467783
57	0xbc98469a	-0.018588353
58	0xbca9afcc	-0.02071371
59	0xbd8969f9	-0.06709666
60	0xbd2c88d0	-0.042122662
61	0xbc9540ef	-0.01821944
62	0xbcffdfc3	-0.031234628
63	0xbb1e7d08	-0.002418341
64	0xbc4c15a9	-0.012456336
65	0x3bb0c983	0.005395116
66	0xbd9ea068	-0.07745439
67	0x3c9eb2da	0.019372392
68	0xbcea6638	-0.028613195
69	0x3cb395d4	0.02192203
70	0xbd59e31a	-0.053195097
71	0xbd64b8fa	-0.05584047
72	0x3ca88625	0.020571778
73	0xbba5121b	-0.0050375587
74	0xbcc6010b	-0.02417042
75	0xbc812b3c	-0.015767686
76	0x3bd96e7a	0.0066354843
77	0x3ca663d8	0.020311281
78	0xbc62c92d	-0.013841909
79	0x3c8bfd30	0.017088503
80	0xbd5bdb71	-0.053676073
81	0xbd3a034a	-0.045413293
82	0x3c401044	0.011722628
83	0xbc83d9a4	-0.01609499
84	0x3ce7fac4	0.028317817
85	0x3cc89885	0.02448679
86	0xbd00abbd	-0.031413782
87	0x3c9c28c2	0.019062404
88	0xbd7fdbd2	-0.062465496
89	0x3afafe8f	0.0019149351
90	0xbd1a78d8	-0.0377129
91	0xbc84e81d	-0.016223961
92	0x3c869595	0.016428748
93	0xbd840ddb	-0.06447955
94	0xbc61e2f1	-0.013787017
95	0x3d02c33d	0.031924475
96	0xbd6612c4	-0.05617024
97	0x3cd7e2f2	0.026353333
98	0x3d5f195d	0.054467548
99	0x3d9d0317	0.07666605
100	0x3c72c9b2	0.014818596
101	0x3b974af8	0.0046170913
102	0x3d6ed747	0.058310773
103	0x3d729b36	0.059230052
104	0xbc46e531	-0.012139604
105	0x3d6a9a8c	0.057276294
106	0x3cda3a96	0.026639264
107	0xbc84f352	-0.016229305
108	0xbc1fdf04	-0.009757761
109	0x3d3c25d5	0.045934517
110	0xbd6ae750	-0.057349503
111	0x3d807b8b	0.06273564
112	0x3cac6380	0.021043539
113	0x3cec6d37	0.028860671
114	0xbd55e1c1	-0.05221725
115	0x3ab81d1e	0.0014046764
116	0xbca0fc1d	-0.019651467
117	0x3d436676	0.047705136
118	0xbd529897	-0.051415052
119	0xbcbe4ec6	-0.023230921
120	0x3d78783a	0.060661532
121	0xbd1c77a0	-0.03820002
122	0x3d177203	0.036973964
123	0x3caab380	0.020837545
124	0xbc592bf2	-0.013255106
125	0xbc97b35d	-0.018518144
126	0xbd5b921e	-0.053606145
127	0xbd815163	-0.063143514
128	0x3d4596b7	0.048239436
129	0xbcb6111a	-0.022224952
130	0x3cd4c545	0.025972972
131	0xbb717c1b	-0.0036847654
132	0xbc00f90e	-0.007871879
133	0x3d5bc969	0.053658877
134	0xbcb76673	-0.022387719
135	0x3abc2b42	0.0014356154
136	0xbd250ad3	-0.040293526
137	0x3d971370	0.07376754
138	0x3d2ccb3a	0.042186
139	0x3c813630	0.015772909
140	0x3d9898d8	0.07451028
141	0xbc88aaae	-0.016682949
142	0x3d4f2b0a	0.050578155
143	0x3d8abf0b	0.0677472
144	0x3d8737ff	0.06602477
145	0x3d837b06	0.06419949
146	0x3cf8da71	0.030377598
147	0x3c5d5414	0.013508815
148	0x3d0bb4cb	0.034107964
149	0x3ced1ab4	0.028943397
150	0xbc917507	-0.017755998
151	0x3d67f091	0.056625906
152	0xbcbb5457	-0.022867365
153	0x3bbf4f9e	0.0058383485
154	0x3b8fb4b1	0.0043855538
155	0x3d886bff	0.066612236
156	0xbb24e1ab	-0.0025158923
157	0x3d6bb535	0.05754586
158	0x3d672bc5	0.056438226
159	0xbd003fe7	-0.031310942
160	0xbd055784	-0.032554165
161	0xbcc465e1	-0.02397436
162	0xbcda1c73	-0.026624894
163	0x3d650b54	0.055919006
164	0x3d79feda	0.06103406
165	0x3c26b91b	0.0101759685
166	0x3d4ba685	0.049719352
167	0xbce7a3ee	-0.02827641
168	0xbc525f28	-0.01284007
169	0xbd5c0608	-0.05371669
170	0x3c93cda5	0.018042395
171	0x3c50622b	0.012718718
172	0x3d87fbd2	0.06639828
173	0x3d85e3cc	0.065375894
174	0x3d73c1ae	0.05951088
175	0x3b04b849	0.0020251444
176	0x3d734e31	0.05940074
177	0xbc139a76	-0.009008994
178	0x3d87cf40	0.06631327
179	0x3d375901	0.044762615
180	0xbd0305a6	-0.03198781
181	0x3a969ed1	0.0011491423
182	0x3b15688e	0.0022797915
183	0xbc84ba3a	-0.016202081
184	0xbcc63c3f	-0.02419865
185	0x3d501d5d	0.050809253
186	0x3cfddbf6	0.030988675
187	0x3d239af2	0.03994269
188	0xbd1264b8	-0.035740584
189	0x3c832463	0.016008561
190	0xbd49c638	-0.0492613
191	0xbd0c7959	-0.034295414
192	0xbbc1bd9d	-0.0059124962
193	0xbce79fa9	-0.028274374
194	0x3bdb66a8	0.006695587
195	0x3d8c0161	0.068362005
196	0x3cc4e694	0.02403573
197	0x3c83e460	0.016100109
198	0xbd5f36f1	-0.054495756
199	0x3d5b03d8	0.053470463
200	0xbc3cadb9	-0.011516028
201	0x3cf68849	0.030094283
202	0x3d1a9d85	0.03774788
203	0xbc3f8c56	-0.011691174
204	0xbd065b33	-0.032801818
205	0x3cf22a2c	0.029561125
206	0x3d0bbe0f	0.0341168
207	0xbccd5339	-0.025064098
208	0x3cc08a5a	0.023503471
209	0x3c8ce25d	0.017197782
210	0xbc0c0912	-0.008547084
211	0xbceaaf91	-0.02864817
212	0x3d05e761	0.032691363
213	0x3d700631	0.058599655
214	0x3d49ec66	0.049297713
215	0x3c66ba3e	0.01408249
216	0x3d5b0bd7	0.05347809
217	0xbd30a0e5	-0.04312219
218	0xbd002e15	-0.031293947
219	0x39a28965	0.00031001415
220	0x3cb42a1c	0.021992736
221	0x3d640118	0.055665106
222	0xbcaff247	-0.021477832
223	0xbc9fd9dd	-0.019513065
224	0x3da11738	0.07865757
225	0xbc8f28c8	-0.0174755
226	0x3ca241d0	0.019806772
227	0xbd175c31	-0.036953155
228	0x3d196933	0.03745384
229	0x3d4070c3	0.046982538
230	0xbc31327b	-0.010815258
231	0xbcc63b2a	-0.024198133
232	0xbd1b3bff	-0.037899014
233	0xbcf8b790	-0.030360967
234	0x3c90f9cf	0.017697243
235	0x3cb8f3e8	0.022577241
236	0xbd3c9c8f	-0.046047743
237	0xbcb43cd1	-0.022001656
238	0xbcd5de01	-0.026106836
239	0x3d499bb0	0.04922074
240	0x3d56f793	0.0524822
241	0x3d027040	0.03184533
242	0x3d015296	0.0315729
243	0x3d3ae19f	0.045625325
244	0xbc857d2f	-0.016295044
245	0xbd0a3bfc	-0.03374861
246	0x3d40b94e	0.04705172
247	0x3c84c47f	0.016206978
248	0x3cf40120	0.029785693
249	0xbd0ea0b2	-0.03482122
250	0x3d3b9fcf	0.045806702
251	0x3c1c4cd2	0.0095398
252	0x3ccc253c	0.024920098
253	0xbc2333c9	-0.009961077
254	0xbd067fde	-0.032836787
255	0x3d290ee9	0.041273985

conv.9.bias f4 [32]
0	0xbb943401	-0.004522801
1	0x3c3cccb1	0.011523412
2	0xbd854c9b	-0.06508752
3	0xbd1b0455	-0.03784593
4	0xbc8fe37b	-0.017564526
5	0xbd3aa54b	-0.045567792
6	0xbc506fe5	-0.01272199
7	0xbc679bac	-0.014136236
8	0xbaf84f68	-0.0018944563
9	0x3ca2a70d	0.019855047
10	0x3d12f4a1	0.035877828
11	0xbcaa9e41	-0.020827414
12	0x3c6388b9	0.013887578
13	0x3b5fb899	0.0034137128
14	0xbb9ec485	-0.0048452043
15	0xbd278e84	-0.040907398
16	0xbd91bfc1	-0.07116652
17	0xbda03bb1	-0.07823885
18	0xbd4dff6a	-0.05029241
19	0xbc8471a2	-0.016167466
20	0xbd1568f9	-0.036477063
21	0xbbe168f0	-0.0068789646
22	0xbce56384	-0.028001554
23	0x3d2cac6b	0.042156618
24	0x3c8d4342	0.017243985
25	0xbd27d12c	-0.040970966
26	0xbd82fb58	-0.06395596
27	0xbd3c7ca9	-0.046017323
28	0x3c265c19	0.010153794
29	0xbd324ce1	-0.04353035
30	0x3c26b986	0.010176068
31	0x3b959df5	0.004565949

conv.10.weight f4 [32]
0	0x3f7a7a0d	0.97842485
1	0x3f7980c3	0.974621
2	0x3f7894b9	0.9710193
3	0x3f7896ed	0.97105294
4	0x3f7cac81	0.9870072
5	0x3f798f72	0.97484505
6	0x3f7f0ace	0.9962586
7	0x3f76cc69	0.96405655
8	0x3f794dd2	0.9738437
9	0x3f7f157f	0.99642175
10	0x3f82aaae	1.0208337
11	0x3f80ab32	1.0052245
12	0x3f792bde	0.9733256
13	0x3f7dca08	0.991364
14	0x3f761992	0.9613277
15	0x3f7f4b08	0.99723864
16	0x3f79a1f4	0.97512746
17	0x3f79a714	0.97520566
18	0x3f78936b	0.9709994
19	0x3f81f4fe	1.0152891
20	0x3f7b30e8	0.981215
21	0x3f7a1874	0.9769356
22	0x3f7e3635	0.99301463
23	0x3f866f05	1.050263
24	0x3f7dcca7	0.991404
25	0x3f7ec77e	0.9952315
26	0x3f7590d2	0.95924103
27	0x3f7e62e2	0.99369633
28	0x3f7bf6be	0.98423374
29	0x3f7a05d1	0.97665125
30	0x3f80ca34	1.0061707
31	0x3f83c179	1.0293418

conv.10.bias f4 [32]
0	0x3c355827	0.01106838
1	0xbc8ea917	-0.017414613
2	0xbc99466c	-0.018710338
3	0xbc5a1a87	-0.013311989
4	0xbc2f8716	-0.010713359
5	0xbc60775a	-0.013700331
6	0x3c328a28	0.010897197
7	0xbcd21810	-0.02564624
8	0xbc75fa36	-0.015013268
9	0x3c907e2a	0.017638285
10	0x3ca96877	0.020679696
11	0x3cef8866	0.029239845
12	0xbc75e641	-0.01500851
13	0xbcb3306a	-0.021873672
14	0xbc6f51c4	-0.014606897
15	0xbbc4cd3b	-0.0060059107
16	0xbcc7167d	-0.024302715
17	0xbc1cca07	-0.009569651
18	0xbcdb6876	-0.02678321
19	0x3c42984a	0.011877129
20	0xbc562359	-0.013069951
21	0xbc684e4f	-0.0141788265
22	0xbc866259	-0.016404318
23	0x3d0c5094	0.034256533
24	0x3c24a2fa	0.010048622
25	0x3cad9b42	0.021192197
26	0xbc3ebb48	-0.011641331
27	0x39975877	0.00028866876
28	0xbc4a17ad	-0.012334746
29	0x3c4a6694	0.012353558
30	0x3d274d33	0.040845107
31	0x3d60a6ab	0.054846447

conv.10.running_mean f4 [32]
0	0x3e12578f	0.14291213
1	0x3e52996a	0.20566335
2	0x3e059f7f	0.13049124
3	0x3ef4abb1	0.4778724
4	0xbd119223	-0.035539757
5	0xbda6939e	-0.081336245
6	0x3ebeaff5	0.3724362
7	0x3ea29e1e	0.3176126
8	0xbe66128b	-0.22468011
9	0xbedd02e2	-0.43166262
10	0xbe5d7705	-0.21627434
11	0xbe8abd81	-0.27097705
12	0xbd18b308	-0.037280113
13	0xbe8d7ca7	-0.27634165
14	0xbc9183e2	-0.017763082
15	0xbe32d38c	-0.17463511
16	0xbeb24094	-0.34814894
17	0x3e679d2c	0.2261855
18	0x3c0e714e	0.008694006
19	0x3ed70601	0.41996768
20	0xbd13c6c7	-0.03607824
21	0xbe99e3ec	-0.30056703
22	0x3d1460d0	0.03622514
23	0xbe95bb70	-0.29244566
24	0xbe85ec0d	-0.26156655
25	0xbdd79dca	-0.10528143
26	0x3ea9dc32	0.33175808
27	0xbe2c477a	-0.16824141
28	0x3e61d356	0.22053275
29	0x3dee7fe8	0.1164549
30	0x3ea03fc4	0.3129865
31	0x3ec4cd09	0.3843768

conv.10.running_var f4 [32]
0	0x3e4cb178	0.19989574
1	0x3e83c7e3	0.2573844
2	0x3e5481b4	0.20752603
3	0x3e6c7ded	0.23094912
4	0x3e90300c	0.28161657
5	0x3ebf93a9	0.37417343
6	0x3e9b205d	0.3029813
7	0x3e6e2c2d	0.23259039
8	0x3e93d19d	0.2887086
9	0x3e707f39	0.23486032
10	0x3ec230eb	0.37927946
11	0x3eaf65f9	0.34257486
12	0x3e6a7737	0.2289704
13	0x3e7e269f	0.2481942
14	0x3e83f2e4	0.25771248
15	0x3e4c7e47	0.19970046
16	0x3e67d6c7	0.22640525
17	0x3e9382a7	0.28810617
18	0x3e31cf4c	0.17364234
19	0x3ef55a2c	0.47920358
20	0x3e639494	0.22224647
21	0x3e49d192	0.19708851
22	0x3eb4c77e	0.3530845
23	0x3f2096c5	0.62730056
24	0x3eaa53c6	0.3326704
25	0x3ea61807	0.32440206
26	0x3f02542c	0.50909686
27	0x3e906434	0.2820145
28	0x3ec752fe	0.38930506
29	0x3ec5a636	0.3860337
30	0x3e972a02	0.29524237
31	0x3edb8d77	0.42881367

conv.12.weight f4 [32, 32, 3, 3]
0	0xbcae1c20	-0.021253645
1	0x3d06f8be	0.032952063
2	0xbd637aa0	-0.055536866
3	0x3d06c7b7	0.032905307
4	0xbced235c	-0.028947525
5	0x3ce17332	0.02752075
6	0xbd496190	-0.04916531
7	0x3d49e372	0.049289174
8	0xbb39fadd	-0.0028378286
9	0xbd390c60	-0.045177817
10	0xbd43ff09	-0.047850642
11	0xbd1098e7	-0.03530207
12	0x3cc8e88a	0.024524946
13	0x3c840c6d	0.016119206
14	0xbd3f1775	-0.04665323
15	0x3c0f2204	0.008736137
16	0xbd1908cd	-0.03736191
17	0x3d0aa2c4	0.03384663
18	0x3b85e974	0.0040866677
19	0xbc2d0d11	-0.010562197
20	0x3c127487	0.008938915
21	0xbd14d4d8	-0.036335796
22	0xbd4e3410	-0.05034262
23	0xbd7df543	-0.062001478
24	0xbc9edb37	-0.01939164
25	0xbc89dc53	-0.016828692
26	0xbd825eb1	-0.06365717
27	0xbcce35f0	-0.025172204
28	0xbd7b5ffa	-0.061370827
29	0xbd193cf6	-0.037411653
30	0xbcc5305b	-0.02407091
31	0xbd275a62	-0.04085768
32	0x3b97890c	0.0046244916
33	0xbd0e5eff	-0.034758564
34	0xbd486558	-0.048924774
35	0xba8a7117	-0.0010562268
36	0x3d0a2c65	0.033733744
37	0xbd15d783	-0.03658248
38	0xbcc5af75	-0.024131516
39	0xbd35faf8	-0.044428796
40	0xbd7d5ebb	-0.06185792
41	0xbd8115ed	-0.0630301
42	0xbd892cb1	-0.06697977
43	0x3d4fa576	0.050694905
44	0xbca41564	-0.020029731
45	0xbd362608	-0.044469863
46	0x3cd6c239	0.02621566
47	0xbd753550	-0.059865296
48	0xbd1c920a	-0.03822521
49	0xbd9291b4	-0.07156697
50	0xbc916da6	-0.01775248
51	0x3b5e6234	0.0033933045
52	0xbd3d249d	-0.046177495
53	0xbcada3f5	-0.021196345
54	0xbd1c768e	-0.038199
55	0xbbf3d5f6	-0.0074412776
56	0xbd9da080	-0.076966286
57	0xbd6756e5	-0.056479353
58	0xbc9fa749	-0.019488947
59	0x3d1b0189	0.03784326
60	0xbca15fcb	-0.019698998
61	0xbd37c755	-0.044867832
62	0x3cd4009a	0.025879193
63	0xbc9b2c32	-0.018941972
64	0x3bd41558	0.006472271
65	0xbc0b8b9c	-0.008517172
66	0x3ca5c19c	0.020233922
67	0xbd7e67f8	-0.06211087
68	0xbd43ee8b	-0.047834914
69	0xbbf90ac7	-0.0076001617
70	0x3bf7a906	0.007557991
71	0xbdac01cf	-0.083987825
72	0xbd62183b	-0.05519889
73	0xbad94b6d	-0.0016578265
74	0xbb9729b5	-0.004613126
75	0xbd82cb83	-0.06386473
76	0x3a84ecc8	0.0010141367
77	0xbd8ba316	-0.068182155
78	0xbd2f3e7b	-0.042784195
79	0x3d5b6e7e	0.05357217
80	0x3d2bea49	0.04197148
81	0xbd142243	-0.036165487
82	0xbd2834b9	-0.041065905
83	0xbd7f2df4	-0.062299684
84	0xbc60b39d	-0.013714698
85	0xbcb1a7a3	-0.02168638
86	0x3d19dbb6	0.03756305
87	0xbd5cd5dd	-0.053914893
88	0x3cb9bee3	0.02267403
89	0x3a38c47f	0.0007048323
90	0xbd313fd5	-0.043273766
91	0xbc7a5781	-0.015279652
92	0x3d382d54	0.044965103
93	0xbd231edd	-0.039824355
94	0xbd0b9b82	-0.03408385
95	0xbd841e0a	-0.06451042
96	0x3c12f003	0.008968356
97	0xbc14865d	-0.009065238
98	0x3d14ec87	0.036358383
99	0xbd8f0d8b	-0.06985005
100	0xbd631e80	-0.05544901
101	0xbd3ce86e	-0.0461201
102	0xbc9fb78e	-0.019496705
103	0x3cfecd17	0.031103654
104	0xbd275d48	-0.040860444
105	0xbcaa3144	-0.020775445
106	0xbd919962	-0.071093336
107	0xbcc985c2	-0.024599914
108	0x3ccfbc9c	0.02535849
109	0x3bab0273	0.005218798
110	0xbc0bd47a	-0.008534545
111	0x3d17ec26	0.037090443
112	0xbcc9bcef	-0.024626223
113	0xbc9f78a7	-0.019466711
114	0xbcae76f9	-0.021296965
115	0x3c6d6838	0.01449018
116	0x3bbdf1db	0.0057966537
117	0x3cc9d343	0.02463687
118	0xbd845eef	-0.0646342
119	0xbd252adb	-0.040324073
120	0x3ca3b7eb	0.01998516
121	0xbce73e6d	-0.02822801
122	0x3be9a086	0.0071297316
123	0xbb95180b	-0.0045499853
124	0x3c877ab9	0.01653801
125	0x3ce6882a	0.0281411
126	0x3c374a92	0.011187213
127	0xbc1f6066	-0.009727573
128	0x3cb5127f	0.022103546
129	0xbd957b08	-0.07298857
130	0xbd735a15	-0.05941208
131	0xbd8ec596	-0.0697128
132	0x3d160bb7	0.036632266
133	0xbd1963f8	-0.037448853
134	0x3bc4dbac	0.0060076322
135	0x3cb93a1b	0.022610715
136	0x3b8f9d1f	0.004382744
137	0xbd711bec	-0.05886452
138	0xbbf8922e	-0.0075857854
139	0xbd42c58a	-0.04755167
140	0xbda3ed97	-0.08004301
141	0xbd0601aa	-0.03271643
142	0xbd8811c2	-0.06644012
143	0x3b5003bc	0.0031740507
144	0xbb6200c0	-0.003448531
145	0x3b5a9a57	0.0033356154
146	0x3ccfdfd5	0.025375286
147	0x3c96f98a	0.018429536
148	0x3cdbb366	0.026818942
149	0xbc80ce39	-0.015723335
150	0xbda49996	-0.08037107
151	0xbce0071f	-0.027347146
152	0x3cbb990b	0.022900125
153	0x3d0bd369	0.034137163
154	0xbc155ed2	-0.009116845
155	0xbd54c5c5	-0.05194642
156	0x3cb2921f	0.021798192
157	0xbbde0090	-0.0067749694
158	0xbd8be8cd	-0.068315126
159	0xbd6d1efc	-0.057890877
160	0xbc8e2414	-0.017351188
161	0x3d6a9b65	0.057277102
162	0x3d31fe34	0.043455318
163	0xbc8e7d59	-0.017393755
164	0xbda18e03	-0.07888415
165	0xbd3c6fd9	-0.046005104
166	0x3d297e20	0.041380048
167	0x3bb5547a	0.005533752
168	0x3c2f17fb	0.01068687
169	0xbd405d3e	-0.046963923
170	0x3ab6ad8f	0.0013937223
171	0x3d1c1922	0.038109906
172	0xbd20c4a5	-0.039250035
173	0xbd9843dc	-0.07434818
174	0xbd3f4832	-0.04669971
175	0xbd297c8d	-0.041378547
176	0xbc479bca	-0.012183139
177	0x3c3dd800	0.011587143
178	0xbda4dc35	-0.08049814
179	0x3c4b40c3	0.012405577
180	0xbd6a9d20	-0.057278752
181	0x3c928d3f	0.017889617
182	0x3cc999f4	0.024609543
183	0xbd50e732	-0.051001735
184	0x3c2e8aa9	0.010653176
185	0xbd9449c4	-0.07240632
186	0xbda3604a	-0.0797735
187	0x3d06cd19	0.03291044
188	0xbc28e8c7	-0.010309405
189	0xbd5fdc35	-0.054653365
190	0xbbb0e09b	-0.005397869
191	0x3d3581e1	0.044313315
192	0xbc4ad515	-0.012379904
193	0x3c2be8e0	0.010492533
194	0xbd55110d	-0.052018214
195	0xbd233509	-0.0398455
196	0x3c020331	0.007935331
197	0xbd5bbb05	-0.053645153
198	0x3c55f0c2	0.013057889
199	0x3c50e2aa	0.012749353
200	0x39a84dc1	0.00032101388
201	0xbd62c09b	-0.055359464
202	0x3ac5bd42	0.001508631
203	0xbd84cffa	-0.06484981
204	0xbcc6b5d9	-0.024256634
205	0x3c995370	0.018716544
206	0xbcecd53e	-0.028910276
207	0x3ccd3460	0.025049388
208	0x3d336a2c	0.043802425
209	0x3c384db5	0.011248996
210	0xbce1c8d3	-0.02756158
211	0xbcf8f18d	-0.030388618
212	0x3d2a7782	0.041617878
213	0xbd4bdfcc	-0.049773976
214	0xbbc2db39	-0.0059465435
215	0x3c5bd9d2	0.013418632
216	0xbd38247a	-0.04495666
217	0x3d6b1046	0.057388566
218	0x3c6ff630	0.014646098
219	0x3d0d2639	0.03446028
220	0xbcf56b3f	-0.029958365
221	0x3d005907	0.031334903
222	0xbc221b34	-0.009894181
223	0xbd68f81d	-0.056877244
224	0xbc089104	-0.008335356
225	0xbbb35ed9	-0.005473953
226	0xbd4de7ff	-0.050270077
227	0xbd7a7d70	-0.061154783
228	0x3c69ab77	0.014262072
229	0xbd079b5e	-0.033107154
230	0xbd91b630	-0.07114828
231	0xbd95122e	-0.07278858
232	0x3ce2a8ae	0.027668323
233	0x3cb36e70	0.021903247
234	0xbd4f8776	-0.050666295
235	0xbd0615ee	-0.032735758
236	0xbd817c3f	-0.06322526
237	0x3d03001c	0.031982526
238	0x3cfbc3e3	0.030733055
239	0xbbb02c13	-0.005376348
240	0x3d244cc6	0.04011228
241	0x3bff4087	0.0077896747
242	0xbd4e0b1f	-0.050303575
243	0x3c11cbae	0.008898659
244	0xbbd6dc60	-0.0065570325
245	0x3cc66a8d	0.02422073
246	0x3d24247a	0.04007385
247	0xbd6efca4	-0.058346406
248	0xbd818a1b	-0.0632517
249	0xbcd8ecba	-0.026480068
250	0xbd0c30e5	-0.034226317
251	0xbdab94f7	-0.08378022
252	0xbc9d660b	-0.019213697
253	0xbd9535fb	-0.072856866
254	0xbd381f94	-0.04495199
255	0xbd7e7b53	-0.06212933

conv.12.bias f4 [32]
0	0xbc72d07a	-0.0148202125
1	0xbd8156dd	-0.06315396
2	0xbd1180b9	-0.03552315
3	0xbdbf82f2	-0.09351148
4	0x3c827629	0.015925484
5	0x3ccd6cc1	0.025076272
6	0x3c8ad55d	0.016947443
7	0xbd643a84	-0.055719867
8	0xbd20af92	-0.039229937
9	0xbd9de577	-0.077097826
10	0xbd3a8524	-0.04553713
11	0xbd3f0271	-0.046633188
12	0xbd0c4555	-0.034245808
13	0xbcce9f5e	-0.025222477
14	0x3c8ad7d9	0.016948627
15	0xbc47003a	-0.01214605
16	0xbcb95dac	-0.022627674
17	0x3da9a255	0.082829155
18	0x3caa7898	0.020809457
19	0xbd4eac48	-0.05045727
20	0x3cc23e76	0.023711424
21	0x3dc6ab87	0.09700685
22	0xbcaef5ad	-0.021357382
23	0x3c9f060e	0.019412067
24	0xbbacd3fc	-0.005274294
25	0xbab95f4f	-0.0014142784
26	0xbd07b53b	-0.03313182
27	0x3b314222	0.0027047475
28	0xbda4e856	-0.08052127
29	0xbbd4ce18	-0.006494295
30	0xbd80eef2	-0.06295575
31	0xbb57dd23	-0.0032938204

conv.13.weight f4 [32]
0	0x3f7aac01	0.9791871
1	0x3f7f7235	0.9978364
2	0x3f7a7b28	0.9784417
3	0x3f772d48	0.9655347
4	0x3f7b569a	0.9817902
5	0x3f772d7b	0.9655377
6	0x3f7975d8	0.9744544
7	0x3f78bacf	0.9716005
8	0x3f7ef3b6	0.99590623
9	0x3f7d0fe9	0.988524
10	0x3f7848ef	0.9698629
11	0x3f7cf97c	0.9881818
12	0x3f7b5601	0.98178107
13	0x3f76c01d	0.9638689
14	0x3f7885b3	0.9707901
15	0x3f7e8c95	0.9943326
16	0x3f80abdf	1.0052451
17	0x3f8421fa	1.0322869
18	0x3f7d9823	0.9906027
19	0x3f7ba646	0.9830059
20	0x3f7ab996	0.9793943
21	0x3f825685	1.0182654
22	0x3f7bdfa3	0.9838812
23	0x3f7b23b6	0.98101366
24	0x3f7b5824	0.98181367
25	0x3f79779a	0.9744812
26	0x3f80c4cf	1.0060061
27	0x3f7f2b3c	0.99675345
28	0x3f796158	0.9741416
29	0x3f7df9b3	0.99209136
30	0x3f7cc4ff	0.9873809
31	0x3f7afd09	0.9804235
