results/latent_cnn_unet_lat32_mFalse_ipmFalse_res50_vps8_fidmFalse_ffdmFalse_idm-1-4000.pth (torch, 357278 bytes, 61 tensors)

conv.0.weight f4 [16, 6, 3, 3]
-0.14508818 -0.014616963 0.021538058 -0.07254506 0.06263837 0.0707609 0.08761771 0.050072167
0.030091686 -0.037602395 0.093439914 0.11222597 -0.14545003 -0.08835427 -0.05959485 -0.102338485
0.042967685 -0.032736212 -0.039972648 0.092873104 -0.09744258 -0.099231265 0.03284233 0.0925159
-0.15057339 -0.14779308 -0.028276142 0.06475826 0.010712749 -0.0974315 -0.048091855 0.038994644
0.10671151 0.03440295 -0.011135409 -0.05418684 -0.14682718 -0.048535347 -0.08348671 0.00023582554
-0.12656794 -0.09579199 0.038532373 -0.05644355 -0.013331104 -0.08689822 -0.056796838 0.04529991
-0.13754027 -0.11260439 -0.072253525 0.02517693 0.017310577 0.08538297 -0.04617311 0.056127284
0.04014364 -0.05913187 0.11479599 0.07337837 0.11804408 -0.14053313 0.052712638 -0.037189547
-0.050702795 -0.13985717 0.057543818 0.074160196 0.117613316 0.061864696 0.091432594 0.099190556
-0.039958175 0.052340858 -0.048231717 -0.03524721 0.0857966 -0.06523722 -0.0035983867 0.007763285
0.055411696 0.033668164 0.025133194 0.038168214 -0.14271076 -0.101670235 -0.022471685 -0.11465615
-0.012055364 0.10423294 0.050178666 -0.10786292 -0.0030783226 -0.06345359 -0.09508397 0.08125908
-0.03536014 -0.0049960096 0.08809224 -0.09519999 -0.018062945 -0.014357335 -0.11036716 -0.1453612
0.0030772665 0.067805536 -0.09602681 -0.08330369 0.06273956 -0.10396546 -0.042671718 0.07587693
-0.11873358 -0.0058862427 0.010123656 0.08008768 -0.061135378 -0.05566501 0.008517264 0.07764049
-0.023486441 -0.12394598 -0.11429078 0.0015459722 0.09643463 -0.07784252 -0.07698629 -0.0047071315
-0.013348193 -0.063903406 0.060156647 -0.004877947 0.057005264 0.034105364 0.074700154 -0.17919323
-0.07842677 -0.101983964 -0.06060388 -0.04356913 -0.124940135 -0.0804384 0.08693087 0.009785144
0.03918325 -0.02039358 0.06332633 -0.16689917 0.020420464 -0.041699104 -0.18048714 -0.07666227
0.03829605 -0.18053941 -0.119249105 -0.033532705 -0.14216645 -0.15947247 -0.051197708 -0.13548689
0.09250418 -0.14279394 -0.11053759 -0.070485406 0.011003369 -0.11133435 -0.112343304 0.02105556
-0.14435801 -0.18161806 -0.044033617 0.057572 -0.030775882 -0.082549445 -0.07268639 -0.054370787
-0.043136586 -0.02657435 -0.040334236 -0.16289215 -0.10260808 -0.0023561905 -0.034619294 0.0101230685
-0.08416006 -0.15894218 0.065296926 -0.05802819 -0.08904962 0.070512354 -0.10956543 -0.007631621
-0.04363817 0.08780633 0.11504847 -0.00952552 0.034723565 0.064742126 -0.12993388 0.103053585
-0.09370266 0.048231006 0.04704105 0.043700628 0.11581107 0.031564306 -0.028689295 0.0595085
0.016589323 0.03231395 -0.027523972 0.035115723 0.06870509 0.0793902 0.0565168 0.01919231
-0.09807687 0.07489863 0.0588631 0.09974319 0.12517689 -0.01676588 -0.0109566385 -0.09264605
0.04931763 -0.07264145 0.137837 0.07463112 0.010611328 -0.010959948 0.0025965415 -0.08564764
-0.051745266 -0.10927353 -0.0292979 -0.053909827 0.09518214 0.09976159 -0.0153924525 -0.016979462
0.09572502 0.11128193 0.10019257 -0.033430904 0.004960502 -0.14146684 -0.085146576 -0.09889595
-0.016702054 0.03881994 -0.028926913 0.024154233 -0.14234556 0.059756145 -0.096310124 -0.083477
00000000: ff91 14be fd7b 6fbc 9570 b03c 8192 94bd
00000010: 8c48 803d 17eb 903d ea70 b33d 7918 4d3d
00000020: d782 f63c f804 1abd 6d5d bf3d bbd6 e53d
00000030: daf0 14be 15f3 b4bd bb19 74bd d796 d1bd
00000040: e2fe 2f3d 6816 06bd 5cba 23bd 4134 be3d
00000050: fa8f c7bd c339 cbbd ae85 063d fa78 bd3d
00000060: e92f 1abe 1257 17be 5ea3 e7bc fb9f 843d
00000070: 8784 2f3c 2b8a c7bd f7fb 44bd d9b8 1f3d
00000080: 908b da3d 1cea 0c3d 4a71 36bc 05f3 5dbd
00000090: dd59 16be 00cd 46bd 15fb aabd f047 7739
000000a0: 079b 01be 972e c4bd 1fd4 1d3d 5a31 67bd
000000b0: b46a 5abc b2f7 b1bd cda3 68bd 668c 393d
000000c0: 5bd7 0cbe 219d e6bd a8f9 93bd d93f ce3c
000000d0: e9ce 8d3c 44dd ae3d 0420 3dbd b9e5 653d
000000e0: a86d 243d 4234 72bd 291a eb3d 6647 963d
000000f0: 18c1 f13d ebe7 0fbe 35e9 573d 1154 18bd
00000100: bcad 4fbd b836 0fbe 11b3 6b3d 4de1 973d
00000110: 40df f03d d665 7d3d 0341 bb3d 6b24 cb3d
00000120: 2fab 23bd 5e63 563d 9f8e 45bd 615f 10bd
00000130: 21b6 af3d 179b 85bd e9d2 6bbb 2863 fe3b
00000140: 60f7 623d a1e7 093d 21e4 cd3c 4656 1c3d
00000150: c522 12be 7c38 d0bd 8a16 b8bc d8d0 eabd
00000160: dd83 45bc 1478 d53d 2588 4d3d 3ce7 dcbd
00000170: afbd 49bb f5f3 81bd 62bb c2bd 296b a63d
00000180: cbd5 10bd 91b5 a3bb b469 b43d 36f8 c2bd
00000190: bef8 93bc 073b 6bbc 2d08 e2bd 91d9 14be
000001a0: f7ab 493b a1dd 8a3d b4a9 c4bd 209b aabd
000001b0: 997d 803d d8eb d4bd 8ac8 2ebd 5d65 9b3d
000001c0: 972a f3bd 62e1 c0bb b1dd 253c 0205 a43d
000001d0: 1769 7abd fe00 64bd ff8b 0b3c fa01 9f3d
000001e0: a366 c0bc 64d7 fdbd 4911 eabd 38a2 ca3a
000001f0: 857f c53d e66b 9fbd fdaa 9dbd 483e 9abb
00000200: 61b2 5abc cadf 82bd d166 763d 2fd7 9fbb
00000210: 5a7e 693d 11b2 0b3d 65fc 983d 6e7e 37be
00000220: 379e a0bd f8dc d0bd c63b 78bd 8b75 32bd
00000230: 9de0 ffbd e3bc a4bd d008 b23d de51 203c
00000240: 9e7e 203d 7010 a7bc 3cb1 813d 9ee7 2abe
00000250: d148 a73c aecc 2abd 9fd1 38be 1c01 9dbd
00000260: 52dc 1c3d 53df 38be e038 f4bd 9759 09bd
00000270: 1594 11be c04c 23be b0b4 51bd 13bd 0abe
00000280: d572 bd3d 9338 12be 8861 e2bd a75a 90bd
00000290: 7a47 343c 4403 e4bd 3f14 e6bd b67c ac3c
000002a0: 96d2 13be 16fa 39be 985c 34bd 9ed0 6b3d
000002b0: b41d fcbc af0f a9bd 9adc 94bd e7b3 5ebd
000002c0: fdaf 30bd 74b2 d9bc 8335 25bd 33cd 26be
000002d0: 2f24 d2bd 516a 1abb f6cc 0dbd 3adb 253c
000002e0: 1c5c acbd bdc1 22be 65ba 853d f8ae 6dbd
000002f0: a65f b6bd c868 903d d763 e0bd ad12 fabb
00000300: f0bd 32bd ced3 b33d 889e eb3d ed10 1cbc
00000310: 4c3a 0e3d 8597 843d 630d 05be c20d d33d
00000320: 2ee7 bfbd e08d 453d 1eae 403d 6eff 323d
00000330: 5b2e ed3d 9349 013d d005 ebbc 2fbf 733d
00000340: 55e6 873c a25b 043d f479 e1bc 81d5 0f3d
00000350: 41b5 8c3d 5497 a23d 297e 673d 3139 9d3c
00000360: 87dc c8bd 7464 993d 6f1a 713d 2846 cc3d
00000370: 5f2e 003e 9958 89bc 7983 33bc 36bd bdbd
00000380: 4801 4a3d 0ac5 94bd 2425 0d3e 33d8 983d
00000390: 23db 2d3c 5b91 33bc bd2a 2a3b 0868 afbd
000003a0: d8f2 53bd cdca dfbd 2602 f0bc 8dd0 5cbd
000003b0: dbee c23d ce4f cc3d a030 7cbc 8318 8bbc
000003c0: 7b0b c43d c8e7 e33d c331 cd3d d8ee 08bd
000003d0: b58b a23b afdc 10be 5461 aebd f689 cabd
000003e0: bfd2 88bc a801 1f3d 22f8 ecbc 19df c53c
000003f0: 09c3 11be dcc2 743d 3e3e c5bd fdf5 aabd

conv.0.bias f4 [16]
0.096925184 0.01796684 -0.16307798 0.021942925 -0.12138171 -0.045555104 -0.07086698 0.09241312
0.08224653 -0.10184306 -0.13285057 0.06993981 0.10996168 -0.14025308 -0.103600696 0.06756442
00000000: b680 c63d 322f 933c eafd 26be a6c1 b33c
00000010: f996 f8bd fd97 3abd b522 91bd 1743 bd3d
00000020: de70 a83d 1893 d0bd fb09 08be 9a3c 8f3d
00000030: 9733 e13d 819e 0fbe 9a2c d4bd 375f 8a3d

conv.1.weight f4 [16]
0.9807328 0.98538804 0.9743478 0.9812084 0.98238015 0.9837035 0.99475706 0.98157895
0.9550631 0.99191797 0.9879342 0.95783854 0.9767584 0.983656 0.95107186 0.9801214
00000000: 4e11 7b3f 6442 7c3f db6e 793f 7930 7b3f
00000010: 447d 7b3f fed3 7b3f 66a8 7e3f c248 7b3f
00000020: 047f 743f 56ee 7d3f 41e9 7c3f e834 753f
00000030: d70c 7a3f e1d0 7b3f 7279 733f 3ce9 7a3f

conv.1.bias f4 [16]
-0.017979125 0.008134551 -0.029287823 -0.011746204 0.018550983 0.0045270626 0.00089202955 -0.018833658
-0.026404222 -0.0027788118 -0.007782858 -0.012932543 -0.020663751 -0.015553062 -0.05163665 0.008251011
00000000: f548 93bc c846 053c 04ed efbc 2773 40bc
00000010: 3bf8 973c c157 943b 17d7 693a 0b49 9abc
00000020: ab4d d8bc ba1c 36bb 5807 ffbb 04e3 53bc
00000030: 0747 a9bc 45d2 7ebc f480 53bd 402f 073c

conv.1.running_mean f4 [16]
-0.02308873 0.38344204 -0.31168506 0.10358557 -0.4148193 -0.42926842 -0.049483817 0.4297209
-0.24936816 -0.5312175 0.36284846 -0.9087308 0.7216644 -0.11396324 -0.28233546 -0.26970023
00000000: 9424 bdbc 8452 c43e 2f95 9fbe ac24 d43d
00000010: 3263 d4be 12c9 dbbe 8baf 4abd 6104 dc3e
00000020: 5e5a 7fbe dffd 07bf 46c7 b93e 95a2 68bf
00000030: 00bf 383f 8f65 e9bd 468e 90be 2616 8abe

conv.1.running_var f4 [16]
0.007892975 0.012987331 0.006106887 0.001993391 0.009865034 0.015869034 0.0010954657 0.012202256
0.017271148 0.01939415 0.021581365 0.09345781 0.03292377 0.000815164 0.008020559 0.013143543
00000000: 8951 013c d0c8 543c 481c c83b 8da3 023b
00000010: f4a0 213c c7ff 813c bb95 8f3a f9eb 473c
00000020: 397c 8d3c 7be0 9e3c 67cb b03c cf66 bf3d
00000030: 13db 063d bbb0 553a aa68 033c 0458 573c

conv.3.weight f4 [32, 16, 3, 3]
-0.017070437 -0.013715962 -0.028060982 0.05077227 -0.008756358 0.049585417 -0.060469236 -0.048307892
0.040300746 0.10150169 -0.051605824 0.0256692 0.017148925 0.0759275 0.097667634 0.09308139
0.06512615 0.04056107 0.0752206 -0.011900026 -0.025203994 -0.014388183 0.057155397 0.03363097
-0.0067743193 -0.056206122 -0.028287431 -0.01843388 0.009362609 -0.0131553635 -0.00062367687 -0.03707317
-0.060491964 0.099115506 0.058784027 -0.034666345 0.04618847 0.063474335 0.037037723 0.015693828
-0.02078359 0.031413727 0.054278634 0.015762264 -0.074764356 0.013382112 0.032779735 0.028653884
0.00937599 -0.025730012 0.07562545 -0.082101256 -0.034925565 0.031767704 0.12740245 0.12513645
0.036159392 0.089079954 0.14559269 0.086631894 0.009516947 0.09823494 -0.017494347 -0.048410166
0.08556807 0.08038059 -0.0060203434 -0.010664792 0.08050902 -0.03683359 0.024936477 0.017187713
0.0014344417 -0.07062754 -0.08408531 0.05985067 -0.05417839 0.048000664 0.03649337 0.06523223
0.06335004 0.026195304 -0.042538073 -0.058686253 -0.045645908 -0.01200979 0.051376127 -0.022104323
-0.06015622 -0.011494278 -0.074103765 0.02876028 -0.021936156 -0.015459702 0.06286534 -0.020558298
-0.045154262 -0.021142205 -0.022944812 0.018140854 -0.04540911 -0.005589764 0.049033944 -0.063886516
0.028712524 0.07201336 -0.08010367 0.060033035 -0.039492365 0.0072147357 0.02199105 0.061590444
-0.043455563 0.006507194 0.023083052 0.025784245 0.039161704 0.034455232 0.009519895 0.060110122
-0.07304861 -0.033071764 0.011602242 -0.00061670813 0.060636654 0.07904353 -0.026386812 0.0030654506
-0.09253399 -0.017304556 -0.072248 -0.026729254 0.022476127 -0.038106177 0.035613 -0.090889014
-0.040829025 0.0074779512 -0.0015819448 -0.060028125 0.07001925 0.0127069075 -0.05366416 0.06356077
-0.0141497655 -0.062611006 0.0017859914 0.008504337 0.052740335 0.05687536 -0.021273706 -0.091687046
0.033170387 0.036634434 0.032692 0.06252012 0.024967195 -0.02146393 0.05171767 -0.005229911
0.07778614 -0.074762784 -0.09326357 -0.08354985 -0.050515883 0.048416648 -0.085235715 -0.078415036
-0.019977665 0.06517667 0.014453564 0.07094835 -0.007800335 -0.04083774 0.026111158 -0.04917478
0.014549634 -0.043286793 -0.08933426 0.012550137 -0.080349155 -0.047627505 0.027068028 0.018098816
-0.08367742 -0.027007824 0.05697438 0.07143195 -0.054454915 -0.07361517 0.031502027 -0.022879563
-0.0988502 -0.08087422 0.01637883 -0.044228405 -0.088550754 -0.063916236 -0.009325079 -0.069227226
0.03646646 -0.014974608 0.0012506517 -0.036691107 0.048557404 -0.07609222 -0.02201095 -0.033563662
0.018224603 0.01284226 0.06300276 -0.017719245 0.047057092 0.06172958 -0.012054372 -0.029121682
-0.06688944 -0.013699314 -0.03136627 0.006672301 0.018288394 0.02220166 -0.037596222 -0.07671263
0.06821164 0.017125262 -0.028836086 0.04733835 0.021686703 -0.02789927 0.000147091 0.018355414
-0.03461577 -0.005530882 -0.037274625 -0.051547434 0.05810245 -0.105365574 -0.07457674 0.049251433
-0.103132434 -0.0068743993 -0.049015097 -0.026624976 -0.0030684497 -0.03247249 0.060333367 -0.006876403
-0.06345972 -0.030698968 0.050643783 -0.020262647 -0.04004203 0.03635298 0.023815922 0.016391885
00000000: 4dd7 8bbc eab8 60bc 25e0 e5bc 95f6 4f3d
00000010: d476 0fbc 141a 4b3d 97ae 77bd 7fde 45bd
00000020: 6512 253d 1ee0 cf3d a160 53bd 3748 d23c
00000030: e77b 8c3c e17f 9b3d f805 c83d 75a1 be3d
00000040: dc60 853d 5d23 263d 420d 9a3d 54f8 42bc
00000050: 9b78 cebc 6abc 6bbc c71b 6a3d a1c0 093d
00000060: 1cfb ddbb 6438 66bd 0bbb e7bc a602 97bc
00000070: a165 193c 9889 57bc 3f7e 23ba 09da 17bd
00000080: 6cc6 77bd 12fd ca3d 85c7 703d 4cfe 0dbd
00000090: 1f30 3d3d d5fe 813d deb4 173d 5890 803c
000000a0: 5942 aabc aeab 003d 4653 5e3d dd1f 813c
000000b0: 0e1e 99bd a540 5b3c 0b44 063d 8dbb ea3c
000000c0: c19d 193c bfc7 d2bc 84e1 9a3d b424 a8bd
000000d0: 1c0e 0fbd da1e 023d ca75 023e c523 003e
000000e0: df1b 143d 8d6f b63d 4016 153e 106c b13d
000000f0: f8ec 1b3c 662f c93d 4e50 8fbc bd49 46bd
00000100: 503e af3d 949e a43d 4d46 c5bb 61bb 2ebc
00000110: eae1 a43d d2de 16bd 9547 cc3c 3fcd 8c3c
00000120: e003 bc3a 2ca5 90bd eb34 acbd fa25 753d
00000130: 29ea 5dbd 589c 443d 127a 153d 7a98 853d
00000140: aabd 813d 8997 d63c 673c 2ebd ff60 70bd
00000150: 34f7 3abd b6c4 44bc c66f 523d 2014 b5bc
00000160: 5e66 76bd 7f52 3cbc b7c3 97bd ae9a eb3c
00000170: 74b3 b3bc b14a 7dbc 8bbf 803d e069 a8bc
00000180: adf3 38bd 6b32 adbc c2f6 bbbc 219c 943c
00000190: e7fe 39bd 572a b7bb d1d7 483d efd6 82bd
000001a0: 8736 eb3c be7b 933d 650d a4bd 33e5 753d
000001b0: bfc2 21bd 9769 ec3b 9326 b43c 4346 7c3d
000001c0: 76fe 31bd 4d3a d53b ab18 bd3c 7b39 d33c
000001d0: 0668 203d ee20 0d3d 55f9 1b3c 0836 763d
000001e0: 829a 95bd 4276 07bd 5417 3e3c 95aa 21ba
000001f0: 245e 783d 93e1 a13d 2829 d8bc bae5 483b
00000200: 7682 bdbd 49c2 8dbc c2f6 93bd 4ff7 dabc
00000210: db1f b83c 3915 1cbd f0de 113d 0524 babd
00000220: 563c 27bd 9a09 f53b 4259 cfba 0de0 75bd
00000230: 4166 8f3d a230 503c f3ce 5bbd 262c 823d
00000240: 6bd4 67bc 333a 80bd ed17 ea3a c655 0b3c
00000250: 4006 583d 23f6 683d 3246 aebc 6bc6 bbbd
00000260: acdd 073d fd0d 163d 0ce8 053d 8c0a 803d
00000270: 0188 cc3c 20d5 afbc e8d5 533d ac5f abbb
00000280: 574e 9f3d 3b1d 99bd f800 bfbd 2f1c abbd
00000290: bee9 4ebd 8950 463d 1090 aebd 1098 a0bd
000002a0: 33a8 a3bc 597b 853d a4ce 6c3c 5e4d 913d
000002b0: f499 ffbb 7945 27bd 11e7 d53c 7e6b 49bd
000002c0: 9761 6e3c 7e4d 31bd e1f4 b6bd 179f 4d3c
000002d0: 198e a4bd 0f15 43bd c5bd dd3c f843 943c
000002e0: 115f abbd 833f ddbc f85d 693d ea4a 923d
000002f0: 1e0c 5fbd 8dc3 96bd 4508 013d ec6d bbbc
00000300: f971 cabd 62a1 a5bd e52c 863c d828 35bd
00000310: 195a b5bd 84e6 82bd 37c8 18bc 01c7 8dbd
00000320: db5d 153d 0f58 75bc e8ec a33a 6a49 16bd
00000330: 21e4 463d 3dd6 9bbd 4f50 b4bc 0d7a 09bd
00000340: c34b 953c 5868 523c 9707 813d f327 91bc
00000350: f0be 403d 28d8 7c3d b37f 45bc 9890 eebc
00000360: 55fd 88bd 1673 60bc eb79 00bd 51a3 da3b
00000370: 8bd1 953c 41e0 b53c 7ffe 19bd 831b 9dbd
00000380: 8bb2 8b3d 474a 8c3c a839 ecbc dce5 413d
00000390: 50a8 b13c 038d e4bc 713c 1a39 185e 963c
000003a0: 44c9 0dbd 673c b5bb 47ad 18bd 6723 53bd
000003b0: d6fc 6d3d e8c9 d7bd b1bb 98bd dfbb 493d
000003c0: 1937 d3bd a442 e1bb 0ec4 48bd 9f1c dabc
000003d0: 0b18 49bb e001 05bd 1f20 773d 7353 e1bb
000003e0: 2bf7 81bd 677c fbbc db6f 4f3d dafd a5bc
000003f0: 1d03 24bd dde6 143d 9c19 c33c 4648 863c

conv.3.bias f4 [32]
0.06111977 -0.030239342 -0.10589059 -0.08286622 -0.043812513 -0.026083732 0.03323176 -0.083320275
-0.089565195 -0.009952121 0.03102544 0.038864557 0.027379453 -0.09531834 -0.025158271 0.01319572
-0.0043965946 0.04611875 -0.05887757 0.029177181 -0.037935197 -0.022355242 0.03939636 0.03693074
-0.022133375 -0.042881526 -0.0087939 0.03308765 0.07101556 -0.03683335 0.031960875 0.05069437
00000000: b958 7a3d 7fb8 f7bc 2add d8bd c4b5 a9bd
00000010: c074 33bd 8dad d5bc 071e 083d d2a3 aabd
00000020: f56d b7bd 390e 23bc 1029 fe3c 7130 1f3d
00000030: e04a e03c 4336 c3bd b818 cebc dc32 583c
00000040: 4f11 90bb 04e7 3c3d 9b29 71bd fc04 ef3c
00000050: f061 1bbd 5722 b7bc 145e 213d b044 173d
00000060: 0d51 b5bc 8aa4 2fbd 4a14 10bc ea86 073d
00000070: 9b70 913d 91de 16bd 68e9 023d e6a4 4f3d

conv.4.weight f4 [32]
1.0060543 0.9793352 0.9882206 1.0516597 0.97697264 0.9671432 0.9696873 0.9961886
0.99253803 0.97731006 0.98364145 0.977992 0.9585789 0.9586763 0.9747049 0.98134923
0.9797155 0.9786807 0.9989467 0.98794806 0.9744641 0.98635674 1.0322312 1.0027705
0.9768152 0.9884353 0.9590826 1.0039842 0.98781735 0.9933721 0.9837762 0.9895176
00000000: 63c6 803f b6b5 7a3f 06fc 7c3f c99c 863f
00000010: e11a 7a3f b296 773f 6d3d 783f 3706 7f3f
00000020: f916 7e3f fe30 7a3f edcf 7b3f af5d 7a3f
00000030: 6d65 753f cf6b 753f 4386 793f b439 7b3f
00000040: a3ce 7a3f d18a 7a3f f9ba 7f3f 2aea 7c3f
00000050: 7b76 793f e081 7c3f 2720 843f c95a 803f
00000060: 9010 7a3f 190a 7d3f 7086 753f 8e82 803f
00000070: 99e1 7c3f a24d 7e3f c2d8 7b3f 0751 7d3f

conv.4.bias f4 [32]
0.02576255 -0.0016241951 -0.024649441 0.050615616 0.010885492 -0.030038409 -0.01870108 0.02955365
-0.0052062953 0.0036417262 -0.021245198 -0.021335343 -0.025266312 -0.025614494 0.013466409 -0.0041146614
-0.023363898 -0.019934723 0.0067121 0.0076423567 0.016499175 -0.028527092 -0.003955182 0.0025456047
-0.038556743 -0.01608677 -0.02329807 0.0043155164 0.009510007 -0.0015935027 -0.01347618 -0.009596029
00000000: fc0b d33c f2e2 d4ba a0ed c9bc 5252 4f3d
00000010: 1059 323c 1c13 f6bc 0233 99bc 7f1a f23c
00000020: 9299 aabb 07aa 6e3b 690a aebc 75c7 aebc
00000030: 4cfb cebc 7dd5 d1bc 37a2 5c3c 48d4 86bb
00000040: a565 bfbc 254e a3bc 2df1 db3b bc6c fa3b
00000050: 4729 873c a6b1 e9bc 799a 81bb 29d4 263b
00000060: aded 1dbd 67c8 83bc 98db bebc 2d69 8d3b
00000070: dccf 1b3c 14dd d0ba 32cb 5cbc aa38 1dbc

conv.4.running_mean f4 [32]
0.12344154 0.38043642 0.12825745 0.035133746 0.043813538 -0.032337688 0.1855097 0.14959826
-0.12725438 -0.30321985 -0.10390398 -0.25788656 0.057794336 -0.026385447 -0.1044805 0.33324236
-0.27876547 -0.14622058 -0.024960728 0.26216432 0.21855098 -0.05877489 -0.14630245 -0.25922886
-0.4045998 0.20545962 -0.2327162 0.6428854 -0.0825526 -0.04298586 0.27085835 -0.038737774
00000000: ebce fc3d 90c8 c23e ec55 033e 67e8 0f3d
00000010: d375 333d 8674 04bd 41f6 3d3e 4930 193e
00000020: f94e 02be a23f 9bbe 9ccb d4bd b509 84be
00000030: c1b9 6c3d 4b26 d8bc dff9 d5bd be9e aa3e
00000040: 59ba 8ebe d9ba 15be 717a ccbc 673a 863e
00000050: d4cb 5f3e f0bd 70bd 4fd0 15be a5b9 84be
00000060: b427 cfbe 0264 523e 284d 6ebe 2394 243f
00000070: 5611 a9bd f111 30bd f2ad 8a3e 80ab 1ebd

conv.4.running_var f4 [32]
0.14386974 0.27330863 0.17647286 0.13652618 0.09767527 0.16475767 0.19177896 0.15889527
0.24234049 0.21606083 0.55112946 0.32645914 0.15563855 0.14218603 0.12993692 0.39351317
0.18488604 0.13419677 0.15709011 0.13221867 0.24362105 0.16531748 0.31358826 0.21956971
0.24063496 0.15919085 0.2570658 0.81366545 0.2684686 0.35102454 0.24634889 0.23655713
00000000: 9752 133e 1cef 8b3e 4db5 343e 85cd 0b3e
00000010: f909 c83d 3cb6 283e b461 443e 71b5 223e
00000020: 1b28 783e 0d3f 5d3e d216 0d3f a725 a73e
00000030: b65f 1f3e 3799 113e 2f0e 053e 8f7a c93e
00000040: c452 3d3e e16a 093e 3bdc 203e 5564 073e
00000050: cc77 793e fc48 293e a48e a03e e2d6 603e
00000060: 0369 763e ed02 233e 219e 833e 614c 503f
00000070: b774 893e 7db9 b33e e242 7c3e 083c 723e

conv.6.weight f4 [32, 32, 3, 3]
-0.014116654 0.10941904 0.047189288 -0.015477169 0.053369418 -0.0027275416 0.042002656 -0.0306838
0.053105485 -0.014591052 -0.032185912 0.03188167 -0.03250408 -0.014131181 0.03387155 0.059477076
-0.006804761 0.015000745 -0.047438417 0.055810478 0.022802085 -0.016367476 0.05386182 0.02079916
0.05711558 0.022135368 -0.044824656 -0.034803953 -0.09343329 -0.046318054 0.07747923 -0.00033705856
-0.08085044 -0.01343163 -0.007913131 0.011749599 0.019597983 0.013683211 0.0039906786 -0.018749028
0.015313981 -0.03623511 -0.027113257 0.045424744 -0.030514834 0.01892165 -0.04178285 0.02924386
0.0064429506 0.044691328 0.059688967 0.015845027 0.04013434 -0.03140831 0.05712042 0.06552791
0.006303199 -0.036229435 0.0043543675 0.06225389 0.041652624 -0.0058598616 0.052417733 0.06383766
0.04798429 -0.025904192 0.010555156 -0.013091965 0.10593057 -0.001591404 0.014687991 0.07387951
0.031568028 -0.023132415 -0.01968314 0.022844117 -0.03630527 0.040714405 -0.0032354142 0.03713532
0.04013486 -0.01269809 -0.019755041 0.014874119 -0.047091864 0.08244757 -0.0039797146 0.008206965
0.05074757 0.03287034 -0.041076742 0.05510181 0.036949765 0.04243825 0.030162476 0.030562025
-0.020697339 0.018109817 -0.013995236 0.031415213 0.0016621602 -0.019812625 0.001450024 0.06422465
0.013001263 0.034089454 0.03154988 -0.024644034 -0.04631614 -0.050975535 -0.0040636896 -0.035682313
0.008946144 -0.009611012 -0.023795169 -0.012366456 -0.001044967 -0.03587349 -0.022638977 0.032067265
0.0052026766 0.03545235 0.021527858 -0.018564168 0.0142091755 -0.010417213 0.004408329 0.084679954
0.068358384 0.017344685 0.009968929 0.09727223 0.02143084 0.003304467 0.03336031 0.03066164
0.030863363 0.04245754 -0.03238555 -0.036137637 -0.011636872 0.0068483544 0.061905123 0.016742593
0.052466936 -0.04937054 0.006028626 -0.02963734 -0.041908108 -0.08703538 0.025239373 0.0036051879
0.031905733 0.034528807 0.05067235 0.006315385 0.042493023 0.053874508 0.017820561 -0.010464977
-0.0013168667 -0.034776215 0.025561895 0.09253667 0.103754826 0.021481542 0.0696951 -0.0055888677
-0.04312012 0.037009235 0.020940222 0.017352508 0.062083807 0.053083178 0.030848086 -0.022391574
0.025071956 0.013284598 -0.0032751155 0.0033015443 0.04217771 -0.010599148 0.034015786 0.046968915
0.03047255 0.0076242993 0.005263881 0.07403014 0.033844113 -0.007884922 0.007313545 -0.00662106
-0.03350786 0.053991433 0.07439889 -0.0050983494 -0.0032344756 0.017896684 -0.028118307 0.08277689
0.08697301 0.028864082 -0.017778538 0.07106523 0.11942347 0.03538303 0.0065220376 0.01163891
0.096167594 -0.060986314 0.046500616 -0.050234634 -0.055587035 -0.025692781 0.066938646 0.005499674
0.08195094 0.07781738 -0.025054554 -0.016203385 0.037259944 -0.015776603 0.069641426 0.038422503
0.02352656 0.02343306 0.00031437023 -0.012314473 0.058235627 0.009628421 -0.003488097 -0.028854646
0.050066113 -0.043044955 0.028622083 -0.013033741 0.04264346 -0.018256713 -0.044332474 -0.030763531
-0.038986046 0.047667228 -0.0050673233 0.0028589594 0.021124778 0.048337836 0.0016365757 -0.037761968
0.011207343 -0.0009904053 0.054511696 0.03572847 0.04033071 0.02562197 -0.040735196 0.056980345
00000000: 8a49 67bc 1717 e03d 8e49 413d f493 7dbc
00000010: e499 5a3d 8ec0 32bb fa0a 2c3d 985c fbbc
00000020: 2385 593d 4f0f 6fbc 60d5 03bd 5b96 023d
00000030: 0023 05bd 7886 67bc e5bc 0a3d 3c9e 733d
00000040: 79fa debb afc5 753c c94e 42bd 8799 643d
00000050: 70cb ba3c 1615 86bc 369e 5c3d 0063 aa3c
00000060: 07f2 693d 3b55 b53c 0f9a 37bd 978e 0ebd
00000070: f459 bfbd 00b8 3dbd 6ead 9e3d 3cb7 b0b9
00000080: ea94 a5bd 5710 5cbc 14a6 01bc 6481 403c
00000090: f38b a03c 8c2f 603c 3dc4 823b 9097 99bc
000000a0: 7ee7 7a3c 446b 14bd 9f1c debc 4c0f 3a3d
000000b0: 3ffa f9bc 9301 9b3c 7e24 2bbd d290 ef3c
000000c0: 631f d33b 410e 373d 6b7c 743d 6ecd 813c
000000d0: e863 243d 00a6 00bd 1af7 693d 7f33 863d
000000e0: 118b ce3b 5165 14bd 15af 8e3b effd 7e3d
000000f0: f19b 2a3d 1504 c0bb fab3 563d 52bd 823d
00000100: 2d8b 443d 0735 d4bc 88ef 2c3c ae7f 56bc
00000110: 20f2 d83d a896 d0ba e6a5 703c 244e 973d
00000120: 7a4d 013d 3180 bdbc 893e a1bc 9623 bb3c
00000130: d6b4 14bd 26c4 263d 3e09 54bb 351b 183d
00000140: 7364 243d a60b 50bc 53d5 a1bc 94b2 733c
00000150: 66e3 40bd 46da a83d 4468 82bb 8276 063c
00000160: afdc 4f3d 0da3 063d 1640 28bd 6fb2 613d
00000170: a358 173d bbd3 2d3d 4c17 f73c 365d fa3c
00000180: 778d a9bc 0a5b 943c 464c 65bc 3dad 003d
00000190: d7dc d93a 164e a2bc bb0e be3a 3788 833d
000001a0: 4003 553c 62a1 0b3d 723a 013d 49e2 c9bc
000001b0: feb5 3dbd b9cb 50bd b328 85bb 9e27 12bd
000001c0: d992 123c 8277 1dbc 16ee c2bc ad9c 4abc
000001d0: 46f7 88ba 15f0 12bd 6075 b9bc f758 033d
000001e0: 377b aa3b 7c36 113d 315b b03c e213 98bc
000001f0: 9acd 683c f5ac 2abc be73 903b af6c ad3d
00000200: 7bff 8b3d 7116 8e3c b854 233c aa36 c73d
00000210: bb8f af3c c28f 583b d2a4 083d 1f2e fb3c
00000220: 2ad5 fc3c f5e7 2d3d b6a6 04bd 0f05 14bd
00000230: 94a8 3ebc 2968 e03b 3a90 7d3d c327 893c
00000240: 92e7 563d c338 4abd c88b c53b 02ca f2bc
00000250: d6a7 2bbd 9b3f b2bd cdc2 ce3c 0445 6c3b
00000260: 96af 023d 146e 0d3d cf8d 4f3d 4af1 ce3b
00000270: 2a0d 2e3d 84ab 5c3d 6dfc 913c 4b75 2bbc
00000280: b79a acba 8171 0ebd 2e67 d13c de83 bd3d
00000290: 697d d43d 0ffa af3c 4ebc 8e3d d222 b7bb
000002a0: b99e 30bd ff96 173d d48a ab3c d926 8e3c
000002b0: 974b 7e3d bf6d 593d 20b5 fc3c 896e b7bc
000002c0: b463 cd3c a4a7 593c 52a3 56bb b95e 583b
000002d0: 89c2 2c3d 0da8 2dbc 2354 0b3d 7a62 403d
000002e0: 92a1 f93c 42d5 f93b a27c ac3b 1d9d 973d
000002f0: 20a0 0a3d c32f 01bc 76a6 ef3b 7af5 d8bb
00000300: 8a3f 09bd 1f26 5d3d 725e 983d 0e10 a7bb
00000310: 7ff9 53bb 119c 923c 5d58 e6bc ee86 a93d
00000320: e81e b23d 5e74 ec3c 4ca4 91bc a68a 913d
00000330: 4b94 f43d cced 103d d1b6 d53b 20b1 3e3c
00000340: 84f3 c43d c9cc 79bd 6e77 3e3d d5c2 4dbd
00000350: 3baf 63bd ab79 d2bc 2117 893d 9c36 b43b
00000360: e5d5 a73d b85e 9f3d 353f cdbc f6bc 84bc
00000370: e29d 183d ef3d 81bc 2aa0 8e3d ea60 1d3d
00000380: c6ba c03c b0f6 bf3c 0fd2 a439 a5c2 49bc
00000390: 7b88 6e3d 86c0 1d3c 8f98 64bb 9460 ecbc
000003a0: 2012 4d3d e84f 30bd dc78 ea3c 798b 55bc
000003b0: e9aa 2e3d 1a8f 95bc f895 35bd cd03 fcbc
000003c0: d5af 1fbd b63e 433d ca0b a6bb 615d 3b3b
000003d0: df0d ad3c e5fd 453d 5e82 d63a 4bac 1abd
000003e0: 019f 373c 7dd0 81ba a847 5f3d 0458 123d
000003f0: d131 253d 2ae5 d13c f3d9 26bd 3964 693d

conv.6.bias f4 [32]
-0.013950181 0.06693545 -0.08340877 -0.030501796 -0.044502333 -0.04228268 0.008535326 0.04562537
0.022443267 0.01780025 -0.0755708 0.025831364 0.041576806 -0.01872836 -0.014296978 -0.04150903
-0.011830778 0.0327846 -0.047548022 -0.019539446 -0.0529175 -0.004804507 0.018234706 0.037553262
-0.05113953 -0.03125565 -0.05870837 -0.04186707 -0.026201557 -0.04675892 -0.014140762 -0.06664972
00000000: 4d8f 64bc 7415 893d 38d2 aabd e7de f9bc
00000010: 1448 36bd 9a30 2dbd c1d7 0b3c abe1 3a3d
00000020: f1da b73c d4d1 913c ddc4 9abd 4c9c d33c
00000030: 714c 2a3d 386c 99bc df3d 6abc 5f05 2abd
00000040: e1d5 41bc 2549 063d b7c1 42bd 3011 a0bc
00000050: 05c0 58bd 206f 9dbb f360 953c 73d1 193d
00000060: af77 51bd ed05 00bd 3078 70bd ce7c 2bbd
00000070: a6a4 d6bc 4886 3fbd a8ae 67bc a67f 88bd

conv.7.weight f4 [32]
1.0097258 0.99284476 0.9588866 1.0256748 0.95140696 0.9656083 0.9895188 0.9649943
0.99129033 0.9586786 0.97975135 0.9734836 0.9963481 0.9781867 0.9750944 0.9748164
0.9954512 0.97886497 0.99119854 0.98015606 0.98499554 0.9893895 0.9880628 0.98545367
0.97424865 1.0041991 0.98222756 0.9653002 1.0058867 0.9585139 1.0297056 0.97503483
00000000: b23e 813f 132b 7e3f 9879 753f 5049 833f
00000010: 688f 733f 1b32 773f 1b51 7d3f de09 773f
00000020: 34c5 7d3f f66b 753f fcd0 7a3f 3936 793f
00000030: ab10 7f3f 726a 7a3f c99f 793f 918d 793f
00000040: e4d5 7e3f e596 7a3f 30bf 7d3f 82eb 7a3f
00000050: ab28 7c3f a148 7d3f aff1 7c3f b146 7c3f
00000060: 5c68 793f 9989 803f 4473 7b3f ea1d 773f
00000070: e5c0 803f 2b61 753f 65cd 833f e29b 793f

conv.7.bias f4 [32]
0.031795103 0.034137614 -0.026310155 0.0013174635 -0.015454093 0.0010404806 -0.012360259 -0.0048383265
-0.01404726 -0.020934721 -0.017270517 -0.014360581 0.011174355 -0.019204156 -0.020548303 -0.017585432
0.016956508 -0.0015390288 0.0016641583 -0.02149209 -0.02007837 -0.021801773 0.019716807 -0.010466466
-0.02104325 -0.014190572 -0.015645517 0.000315845 0.019760702 -0.006559983 -0.014750405 -0.028305354
00000000: 953b 023d e2d3 0b3d 6588 d7bc bdae ac3a
00000010: 2a33 7dbc bc60 883a af82 4abc d38a 9ebb
00000020: 7b26 66bc 4b7f abbc e67a 8dbc a448 6bbc
00000030: a414 373c 0952 9dbc ea54 a8bc 530f 90bc
00000040: 60e8 8a3c 3db9 c9ba e31f da3a 2e10 b0bc
00000050: 657b a4bc a299 b2bc 2485 a13c 8a7b 2bbc
00000060: e562 acbc 937f 68bc 072b 80bc 0098 a539
00000070: 32e1 a13c 20f5 d6bb afab 71bc a1e0 e7bc

conv.7.running_mean f4 [32]
0.3453755 0.23049523 -0.026805522 0.32527444 0.00027715956 -0.2893655 -0.08903105 -0.3964212
-0.34201378 0.21250895 -0.12026237 -0.22015111 0.36338228 -0.052355886 -0.046445183 0.061367545
0.2672409 0.29027683 0.18960422 0.009353119 -0.1671157 -0.13658229 -0.19770588 0.1527509
-0.18135497 -0.31304976 0.044861156 0.14364645 -0.08852475 -0.12579094 -0.48647228 -0.59644854
00000000: 0fd5 b03e f106 6c3e 4197 dbbc 5f8a a63e
00000010: ba4f 9139 b727 94be e955 b6bd b8f7 cabe
00000020: 6e1c afbe f29b 593e 1e4c f6bd 4b6f 61be
00000030: 3e0d ba3e 2073 56bd 4e3d 3ebd 895c 7b3d
00000040: cdd3 883e 2a9f 943e 9c27 423e d33d 193c
00000050: 6120 2bbe 3adc 0bbe 6973 4abe bb6a 1c3e
00000060: 1eb5 39be 0f48 a0be 55c0 373d 0e18 133e
00000070: 774c b5bd 57cf 00be e512 f9be dab0 18bf

conv.7.running_var f4 [32]
0.41517368 0.14935042 0.26714474 0.21335088 0.21966879 0.11675643 0.19574228 0.5626757
0.27546063 0.1788942 0.19815616 0.2700716 0.30183205 0.17223205 0.22705184 0.15228474
0.32615522 0.24400246 0.2884882 0.31817868 0.20286633 0.24479763 0.1483845 0.1829038
0.44368687 0.28735954 0.2096296 0.36985368 0.20317039 0.24876937 0.29684955 0.411695
00000000: a591 d43e 51ef 183e 32c7 883e a778 5a3e
00000010: dbf0 603e ff1d ef3d aa70 483e 840b 103f
00000020: 2d09 8d3e 0b30 373e 73e9 4a3e d346 8a3e
00000030: bb89 9a3e 995d 303e 4780 683e 88f0 1b3e
00000040: d1fd a63e c8db 793e bab4 933e 51e8 a23e
00000050: 31bc 4f3e 3bac 7a3e 1bf2 173e 224b 3b3e
00000060: ed2a e33e ca20 933e 24a9 563e 765d bd3e
00000070: e60b 503e 66bd 7e3e aafc 973e b0c9 d23e

conv.9.weight f4 [32, 32, 3, 3]
-0.062103987 0.026397271 0.013773501 -0.04842672 0.0061050057 -0.05581457 -0.010113927 -0.0304735
-0.052338187 0.0082647465 -0.014114346 -0.01009654 -0.05764713 -0.0046555693 -0.009617786 0.0075048534
0.027119944 0.03786222 -0.037225876 -0.069243364 0.0070608766 -0.06773876 -0.013328261 -0.003123002
0.033435278 0.025013521 -0.021156896 0.030049704 0.021815712 0.02752508 -0.046377692 -0.07026755
0.025889007 -0.080309495 -0.024353614 -0.02905572 -0.021437263 0.04302186 0.01038816 -0.014957698
0.0103613185 -0.0057312213 0.04668896 0.046082344 0.06735127 -0.03194875 -0.03641386 -0.019534579
0.014054475 0.00020920036 -0.010647438 -0.0658409 -0.042094935 -0.06099888 0.0045252386 -0.044059515
-0.0027467783 -0.018588353 -0.02071371 -0.06709666 -0.042122662 -0.01821944 -0.031234628 -0.0024724382
-0.012514234 0.0053418702 -0.07754018 0.019304428 -0.028672844 0.021904875 -0.053202424 -0.055856097
0.020503903 -0.0049856934 -0.024020592 -0.015790772 0.006646978 0.02031104 -0.013844156 0.017094722
-0.053687576 -0.045413293 0.011722628 -0.01609499 0.028317817 0.02448679 -0.031413782 0.019062404
-0.062465496 0.0019149351 -0.0377129 -0.016223961 0.016428748 -0.06447955 -0.013787017 0.031924475
-0.05617024 0.026353333 0.054467548 0.07666605 0.014818596 0.0046170913 0.058310773 0.059230052
-0.012139604 0.057276294 0.026639264 -0.016229305 -0.009757761 0.045934517 -0.057349503 0.06273564
0.021043539 0.028860671 -0.05221725 0.0014046764 -0.019651467 0.047282916 -0.05207688 -0.023991192
0.06014575 -0.038893737 0.036319397 0.020089736 -0.01419814 -0.0193777 -0.053606145 -0.063143514
0.048239436 -0.022224952 0.025972972 -0.0036847654 -0.007871879 0.053658877 -0.022387719 0.0014356154
-0.040293526 0.07376754 0.042186 0.015772909 0.07451028 -0.016682949 0.050578155 0.0677472
0.06602063 0.06419601 0.030374242 0.013510764 0.034108147 0.028940914 -0.017762594 0.0566183
-0.022874719 0.0058383485 0.0043855538 0.066612236 -0.0025158923 0.05754586 0.056438226 -0.031310942
-0.032554165 -0.02397436 -0.026624894 0.055919006 0.06103406 0.0101759685 0.049719352 -0.02827641
-0.01284007 -0.05371669 0.018042395 0.012718718 0.06639828 0.065375894 0.05951088 0.0020251444
0.05940074 -0.009008994 0.06631327 0.044762615 -0.03198781 0.0011491423 0.0022797915 -0.016202081
-0.02419865 0.050809253 0.030988675 0.03994269 -0.035740584 0.016008561 -0.0492613 -0.034295414
-0.0059124962 -0.028274374 0.006695587 0.068362005 0.02403573 0.016100109 -0.05478081 0.053177096
-0.011837252 0.029823918 0.03746937 -0.012018116 -0.033250637 0.02911881 0.033657398 -0.025064098
0.023503471 0.017197782 -0.008547084 -0.02864817 0.032691363 0.058599655 0.049297713 0.01408249
0.053475697 -0.043122236 -0.031293947 0.00030997224 0.021992624 0.055665106 -0.02147791 -0.019513037
0.07865755 -0.017573167 0.019674761 -0.037142165 0.037306484 0.04687086 -0.010933536 -0.024318766
-0.037986502 -0.03045508 0.017697243 0.022577241 -0.046047743 -0.022001656 -0.026106836 0.04922074
0.0524822 0.03184533 0.0315729 0.045625325 -0.016295044 -0.03374861 0.04705172 0.016206978
0.029785693 -0.03482122 0.045806702 0.0095398 0.024825465 -0.010073836 -0.033006143 0.04120587
00000000: c060 7ebd 173f d83c 40aa 613c 195b 46bd
00000010: 800c c83b d29d 64bd e2b4 25bc 90a3 f9bc
00000020: 9160 56bd dc68 073c dc3f 67bc f56b 25bc
00000030: 661f 6cbd bf8d 98bb eb93 1dbc 46eb f53b
00000040: a52a de3c 6a15 1b3d 297a 18bd 77cf 8dbd
00000050: ed5e e73b 9eba 8abd c75e 5abc 47ab 4cbb
00000060: 6ef3 083d 28e9 cc3c 3a51 adbc cc2a f63c
00000070: ddb6 b23c 477c e13c 89f6 3dbd 6fe8 8fbd
00000080: 2f15 d43c 4e79 a4bd 3b81 c7bc 4306 eebc
00000090: 339d afbc b137 303d 1a33 2a3c 2211 75bc
000000a0: 85c2 293c f8cc bbbb ec3c 3f3d d7c0 3c3d
000000b0: 76ef 893d b1dc 02bd b326 15bd fb06 a0bc
000000c0: be44 663c cb5c 5b39 9772 2ebc 98d7 86bd
000000d0: bd6b 2cbd f6d9 79bd 7448 943b c077 34bd
000000e0: 4b03 34bb 9a46 98bc ccaf a9bc f969 89bd
000000f0: d088 2cbd ef40 95bc c3df ffbc a108 22bb
00000100: 8008 4dbc db0a af3b 63cd 9ebd 5224 9e3c
00000110: 50e3 eabc da71 b33c c9ea 59bd 5dc9 64bd
00000120: cdf7 a73c 075f a3bb d5c6 c4bc a65b 81bc
00000130: e5ce d93b 5763 a63c 99d2 62bc 3b0a 8c3c
00000140: 81e7 5bbd 4a03 3abd 4410 403c a4d9 83bc
00000150: c4fa e73c 8598 c83c bdab 00bd c228 9c3c
00000160: d2db 7fbd 8ffe fa3a d878 1abd 1de8 84bc
00000170: 9595 863c db0d 84bd f1e2 61bc 3dc3 023d
00000180: c412 66bd f2e2 d73c 5d19 5f3d 1703 9d3d
00000190: b2c9 723c f84a 973b 47d7 6e3d 369b 723d
000001a0: 31e5 46bc 8c9a 6a3d 963a da3c 52f3 84bc
000001b0: 04df 1fbc d525 3c3d 50e7 6abd 8b7b 803d
000001c0: 8063 ac3c 376d ec3c c1e1 55bd 1e1d b83a
000001d0: 1dfc a0bc bbab 413d 914e 55bd 2d89 c4bc
000001e0: 645b 763d 0a4f 1fbd a6c3 143d 3b93 a43c
000001f0: 519f 68bc fbbd 9ebc 1e92 5bbd 6351 81bd
00000200: b796 453d 1a11 b6bc 45c5 d43c 1b7c 71bb
00000210: 0ef9 00bc 69c9 5b3d 7366 b7bc 422b bc3a
00000220: d30a 25bd 7013 973d 3acb 2c3d 3036 813c
00000230: d898 983d aeaa 88bc 0a2b 4f3d 0bbf 8a3d
00000240: d335 873d 3379 833d 67d3 f83c 405c 5d3c
00000250: fcb4 0b3d 7f15 ed3c dc82 91bc 97e8 673d
00000260: c363 bbbc 9e4f bf3b b1b4 8f3b ff6b 883d
00000270: abe1 24bb 35b5 6b3d c52b 673d e73f 00bd
00000280: 8457 05bd e165 c4bc 731c dabc 540b 653d
00000290: dafe 793d 1bb9 263c 85a6 4b3d eea3 e7bc
000002a0: 285f 52bc 0806 5cbd a5cd 933c 2b62 503c
000002b0: d2fb 873d cce3 853d aec1 733d 49b8 043b
000002c0: 314e 733d 769a 13bc 40cf 873d 0159 373d
000002d0: a605 03bd d19e 963a 8e68 153b 3aba 84bc
000002e0: 3f3c c6bc 5d1d 503d f6db fd3c f29a 233d
000002f0: b864 12bd 6324 833c 38c6 49bd 5979 0cbd
00000300: 9dbd c1bb a99f e7bc a866 db3b 6101 8c3d
00000310: 94e6 c43c 60e4 833c d861 60bd 3ad0 593d
00000320: 09f1 41bc 4a51 f43c 7b79 193d a2e7 44bc
00000330: d231 08bd 928a ee3c 57dc 093d 3953 cdbc
00000340: 5a8a c03c 5de2 8c3c 1209 0cbc 91af eabc
00000350: 61e7 053d 3106 703d 66ec 493d 3eba 663c
00000360: 5509 5b3d f1a0 30bd 152e 00bd c583 a239
00000370: e029 b43c 1801 643d 71f2 afbc ced9 9fbc
00000380: 3617 a13d 9af5 8fbc f72c a13c 6222 18bd
00000390: afce 183d a9fb 3f3d 9322 33bc 2638 c7bc
000003a0: bc97 1bbd ef7c f9bc cff9 903c e8f3 b83c
000003b0: 8f9c 3cbd d13c b4bc 01de d5bc b09b 493d
000003c0: 93f7 563d 4070 023d 9652 013d 9fe1 3a3d
000003d0: 2f7d 85bc fc3b 0abd 4eb9 403d 7fc4 843c
000003e0: 2001 f43c b2a0 0ebd cf9f 3b3d d24c 1c3c
000003f0: c65e cb3c bb0c 25bc 7331 07bd 7dc7 283d

conv.9.bias f4 [32]
-0.0046958346 0.011523412 -0.06508752 -0.03784593 -0.017564526 -0.045567792 -0.01272199 -0.014136729
0.0021149449 0.019978687 0.03807607 -0.0212695 0.013675794 0.015167177 0.004362925 -0.040975645
-0.0577415 -0.07823885 -0.05029241 -0.016162388 -0.036477406 -0.010386373 -0.025321988 0.04165569
0.017182609 -0.04822232 -0.06395596 -0.046017323 0.010153794 -0.043512713 0.010498681 0.0025117465
00000000: 84df 99bb b1cc 3c3c 9b4c 85bd 5504 1bbd
00000010: 7be3 8fbc 4ba5 3abd e56f 50bc bd9d 67bc
00000020: e39a 0a3b 58aa a33c a7f5 1b3d 603d aebc
00000030: 7010 603c c07f 783c def6 8e3b 14d6 27bd
00000040: 5a82 6cbd b13b a0bd 6aff 4dbd fc66 84bc
00000050: 5569 15bd 9b2b 2abc 0f70 cfbc 289f 2a3d
00000060: 8bc2 8c3c c484 45bd 58fb 82bd a97c 3cbd
00000070: 195c 263c 633a 32bd a902 2c3c 1d9c 243b

conv.10.weight f4 [32]
0.9784214 0.974621 0.9710193 0.97105294 0.9870072 0.97484505 0.9962586 0.96405655
0.9780216 1.0189636 1.0198128 1.0044123 0.9733245 0.9987648 0.96410763 0.9972211
0.98609036 0.97520566 0.9709994 1.0152891 0.981215 0.9776159 0.9938955 1.0567042
0.99144137 1.0058315 0.95924103 0.99369633 0.98423374 0.97665125 1.0061781 1.0302325
00000000: d379 7a3f c380 793f b994 783f ed96 783f
00000010: 81ac 7c3f 728f 793f ce0a 7f3f 69cc 763f
00000020: a05f 7a3f 666d 823f 3a89 823f 9590 803f
00000030: cb2b 793f 0daf 7f3f c2cf 763f e249 7f3f
00000040: 6b70 7c3f 14a7 793f 6b93 783f fef4 813f
00000050: e830 7b3f 0945 7a3f ef6f 7e3f 1542 873f
00000060: 1acf 7d3f 16bf 803f d290 753f e262 7e3f
00000070: bef6 7b3f d105 7a3f 72ca 803f a9de 833f

conv.10.bias f4 [32]
0.010895037 -0.017414613 -0.018710338 -0.013311989 -0.010713359 -0.013700331 0.010897197 -0.025646733
-0.010917277 0.01780791 0.02289636 0.028799037 -0.015222621 -0.010100053 -0.0052700564 -0.006075428
-0.010805894 -0.009569651 -0.02678321 0.011882106 -0.013071163 -0.017723847 -0.013680187 0.033814292
0.009986722 0.013981374 -0.011641331 0.00028864047 -0.012334746 0.012371398 0.041163664 0.052835137
00000000: 1981 323c 17a9 8ebc 6c46 99bc 871a 5abc
00000010: 1687 2fbc 5a77 60bc 288a 323c 1919 d2bc
00000020: 61de 32bc e5e1 913c 2691 bb3c f5eb eb3c
00000030: 4d68 79bc b17a 25bc 70b0 acbb 6214 c7bb
00000040: 340b 31bc 07ca 1cbc 7668 dbbc 2aad 423c
00000050: 6e28 56bc 9a31 91bc dd22 60bc db80 0a3d
00000060: 599f 233c 2212 653c 48bb 3ebc ab54 9739
00000070: ad17 4abc 67b1 4a3c 3b9b 283d a869 583d

conv.10.running_mean f4 [32]
0.14291213 0.20566335 0.13049124 0.4778724 -0.035539757 -0.081336245 0.3724362 0.3176126
-0.22468011 -0.43166262 -0.21627434 -0.27097705 -0.037280113 -0.27634165 -0.017763082 -0.17463511
-0.34814894 0.2261855 0.008694006 0.41996768 -0.03607824 -0.30056703 0.03622514 -0.29244566
-0.26156655 -0.10528143 0.33175808 -0.16824141 0.22053275 0.1164549 0.3129865 0.3843768
00000000: 8f57 123e 6a99 523e 7f9f 053e b1ab f43e
00000010: 2392 11bd 9e93 a6bd f5af be3e 1e9e a23e
00000020: 8b12 66be e202 ddbe 0577 5dbe 81bd 8abe
00000030: 08b3 18bd a77c 8dbe e283 91bc 8cd3 32be
00000040: 9440 b2be 2c9d 673e 4e71 0e3c 0106 d73e
00000050: c7c6 13bd ece3 99be d060 143d 70bb 95be
00000060: 0dec 85be ca9d d7bd 32dc a93e 7a47 2cbe
00000070: 56d3 613e e87f ee3d c43f a03e 09cd c43e

conv.10.running_var f4 [32]
0.19989574 0.2573844 0.20752603 0.23094912 0.28161657 0.37417343 0.3029813 0.23259039
0.2887086 0.23486032 0.37927946 0.34257486 0.2289704 0.2481942 0.25771248 0.19970046
0.22640525 0.28810617 0.17364234 0.47920358 0.22224647 0.19708851 0.3530845 0.62730056
0.3326704 0.32440206 0.50909686 0.2820145 0.38930506 0.3860337 0.29524237 0.42881367
00000000: 78b1 4c3e e3c7 833e b481 543e ed7d 6c3e
00000010: 0c30 903e a993 bf3e 5d20 9b3e 2d2c 6e3e
00000020: 9dd1 933e 397f 703e eb30 c23e f965 af3e
00000030: 3777 6a3e 9f26 7e3e e4f2 833e 477e 4c3e
00000040: c7d6 673e a782 933e 4ccf 313e 2c5a f53e
00000050: 9494 633e 92d1 493e 7ec7 b43e c596 203f
00000060: c653 aa3e 0718 a63e 2c54 023f 3464 903e
00000070: fe52 c73e 36a6 c53e 022a 973e 778d db3e

conv.12.weight f4 [32, 32, 3, 3]
-0.021253645 0.032952063 -0.055536866 0.032905307 -0.028947525 0.02752075 -0.04916531 0.049289174
-0.0028378286 -0.045177817 -0.047850642 -0.03530207 0.024524946 0.016119206 -0.04665323 0.008736137
-0.03736191 0.03384663 0.0040866677 -0.010562197 0.008938915 -0.036335796 -0.05034262 -0.062001478
-0.01939164 -0.016828692 -0.06365717 -0.025172204 -0.061370827 -0.037411653 -0.02407091 -0.04085768
0.0046244916 -0.034758564 -0.048924774 -0.0010562268 0.033733744 -0.03658248 -0.024131516 -0.044428796
-0.06185792 -0.0630301 -0.06697977 0.050694905 -0.020029731 -0.044469863 0.02621566 -0.059865296
-0.03822521 -0.07156697 -0.01775248 0.0033933045 -0.046177495 -0.021196345 -0.038199 -0.0074412776
-0.076966286 -0.056479353 -0.019488947 0.03784326 -0.019698998 -0.044867832 0.025879193 -0.018941972
0.006472271 -0.008517172 0.020233922 -0.06211087 -0.047834914 -0.0076001617 0.007557991 -0.083987825
-0.05519889 -0.0016578265 -0.004613126 -0.06386473 0.0010141367 -0.068182155 -0.042784195 0.05357217
0.04197148 -0.036165487 -0.041065905 -0.062299684 -0.013714698 -0.02168638 0.03756305 -0.053914893
0.02267403 0.0007048323 -0.043273766 -0.015279652 0.044965103 -0.039824355 -0.03408385 -0.06451042
0.008968356 -0.009065238 0.036358383 -0.06985005 -0.05544901 -0.0461201 -0.019496705 0.031103654
-0.040860444 -0.020775445 -0.071093336 -0.024599914 0.02535849 0.005218798 -0.008534545 0.037090443
-0.024626223 -0.019466711 -0.021296965 0.01449018 0.0057966537 0.02463687 -0.0646342 -0.040324073
0.01998516 -0.02822801 0.0071297316 -0.0045499853 0.01653801 0.0281411 0.011187213 -0.009727573
0.022103546 -0.07298857 -0.05941208 -0.0697128 0.036632266 -0.037448853 0.0060076322 0.022610715
0.004382744 -0.05886452 -0.0075857854 -0.04755167 -0.08004301 -0.03271643 -0.06644012 0.0031740507
-0.003448531 0.0033356154 0.025375286 0.018429536 0.026818942 -0.015723335 -0.08037107 -0.027347146
0.022900125 0.034137163 -0.009116845 -0.05194642 0.021798192 -0.0067749694 -0.068315126 -0.057890877
-0.017351188 0.057277102 0.043455318 -0.017393755 -0.07888415 -0.046005104 0.041380048 0.005533752
0.01068687 -0.046963923 0.0013937223 0.038109906 -0.039250035 -0.07434818 -0.04669971 -0.041378547
-0.012183139 0.011587143 -0.08049814 0.012405577 -0.057278752 0.017889617 0.024609543 -0.051001735
0.010653176 -0.07240632 -0.0797735 0.03291044 -0.010309405 -0.054653365 -0.005397869 0.044313315
-0.012379904 0.010492533 -0.052018214 -0.0398455 0.007935331 -0.053645153 0.013057889 0.012749353
0.00032101388 -0.055359464 0.001508631 -0.06484981 -0.024256634 0.018716544 -0.028910276 0.025049388
0.043802425 0.011248996 -0.02756158 -0.030388618 0.041617878 -0.049773976 -0.0059465435 0.013418632
-0.04495666 0.057388566 0.014646098 0.03446028 -0.029958365 0.031334903 -0.009894181 -0.056877244
-0.008335356 -0.005473953 -0.050270077 -0.061154783 0.014262072 -0.033107154 -0.07114828 -0.07278858
0.027668323 0.021903247 -0.050666295 -0.032735758 -0.06322526 0.031982526 0.030733055 -0.005376348
0.04011228 0.0077896747 -0.050303575 0.008898659 -0.0065570325 0.02422073 0.04007385 -0.058346406
-0.0632517 -0.026480068 -0.034226317 -0.08378022 -0.019213697 -0.072856866 -0.04495199 -0.06212933
00000000: 201c aebc bef8 063d a07a 63bd b7c7 063d
00000010: 5c23 edbc 3273 e13c 9061 49bd 72e3 493d
00000020: ddfa 39bb 600c 39bd 09ff 43bd e798 10bd
00000030: 8ae8 c83c 6d0c 843c 7517 3fbd 0422 0f3c
00000040: cd08 19bd c4a2 0a3d 74e9 853b 110d 2dbc
00000050: 8774 123c d8d4 14bd 1034 4ebd 43f5 7dbd
00000060: 37db 9ebc 53dc 89bc b15e 82bd f035 cebc
00000070: fa5f 7bbd f63c 19bd 5b30 c5bc 625a 27bd
00000080: 0c89 973b ff5e 0ebd 5865 48bd 1771 8aba
00000090: 652c 0a3d 83d7 15bd 75af c5bc f8fa 35bd
000000a0: bb5e 7dbd ed15 81bd b12c 89bd 76a5 4f3d
000000b0: 6415 a4bc 0826 36bd 39c2 d63c 5035 75bd
000000c0: 0a92 1cbd b491 92bd a66d 91bc 3462 5e3b
000000d0: 9d24 3dbd f5a3 adbc 8e76 1cbd f6d5 f3bb
000000e0: 80a0 9dbd e556 67bd 49a7 9fbc 8901 1b3d
000000f0: cb5f a1bc 55c7 37bd 9a00 d43c 322c 9bbc
00000100: 5815 d43b 9c8b 0bbc 9cc1 a53c f867 7ebd
00000110: 8bee 43bd c70a f9bb 06a9 f73b cf01 acbd
00000120: 3b18 62bd 6d4b d9ba b529 97bb 83cb 82bd
00000130: c8ec 843a 16a3 8bbd 7b3e 2fbd 7e6e 5b3d
00000140: 49ea 2b3d 4322 14bd b934 28bd f42d 7fbd
00000150: 9db3 60bc a3a7 b1bc b6db 193d ddd5 5cbd
00000160: e3be b93c 7fc4 383a d53f 31bd 8157 7abc
00000170: 542d 383d dd1e 23bd 829b 0bbd 0a1e 84bd
00000180: 03f0 123c 5d86 14bc 87ec 143d 8b0d 8fbd
00000190: 801e 63bd 6ee8 3cbd 8eb7 9fbc 17cd fe3c
000001a0: 485d 27bd 4431 aabc 6299 91bd c285 c9bc
000001b0: 9cbc cf3c 7302 ab3b 7ad4 0bbc 26ec 173d
000001c0: efbc c9bc a778 9fbc f976 aebc 3868 6d3c
000001d0: dbf1 bd3b 43d3 c93c ef5e 84bd db2a 25bd
000001e0: ebb7 a33c 6d3e e7bc 86a0 e93b 0b18 95bb
000001f0: b97a 873c 2a88 e63c 924a 373c 6660 1fbc
00000200: 7f12 b53c 087b 95bd 155a 73bd 96c5 8ebd
00000210: b70b 163d f863 19bd acdb c43b 1b3a b93c
00000220: 1f9d 8f3b ec1b 71bd 2e92 f8bb 8ac5 42bd
00000230: 97ed a3bd aa01 06bd c211 88bd bc03 503b
00000240: c000 62bb 579a 5a3b d5df cf3c 8af9 963c
00000250: 66b3 db3c 39ce 80bc 9699 a4bd 1f07 e0bc
00000260: 0b99 bb3c 69d3 0b3d d25e 15bc c5c5 54bd
00000270: 1f92 b23c 9000 debb cde8 8bbd fc1e 6dbd
00000280: 1424 8ebc 659b 6a3d 34fe 313d 597d 8ebc
00000290: 038e a1bd d96f 3cbd 207e 293d 7a54 b53b
000002a0: fb17 2f3c 3e5d 40bd 8fad b63a 2219 1c3d
000002b0: a5c4 20bd dc43 98bd 3248 3fbd 8d7c 29bd
000002c0: ca9b 47bc 00d8 3d3c 35dc a4bd c340 4b3c
000002d0: 209d 6abd 3f8d 923c f499 c93c 32e7 50bd
000002e0: a98a 2e3c c449 94bd 4a60 a3bd 19cd 063d
000002f0: c7e8 28bc 35dc 5fbd 9be0 b0bb e181 353d
00000300: 15d5 4abc e0e8 2b3c 0d11 55bd 0935 23bd
00000310: 3103 023c 05bb 5bbd c2f0 553c aae2 503c
00000320: c14d a839 9bc0 62bd 42bd c53a facf 84bd
00000330: d9b5 c6bc 7053 993c 3ed5 ecbc 6034 cd3c
00000340: 2c6a 333d b54d 383c d3c8 e1bc 8df1 f8bc
00000350: 8277 2a3d ccdf 4bbd 39db c2bb d2d9 5b3c
00000360: 7a24 38bd 4610 6b3d 30f6 6f3c 3926 0d3d
00000370: 3f6b f5bc 0759 003d 341b 22bc 1df8 68bd
00000380: 0491 08bc d95e b3bb ffe7 4dbd 707d 7abd
00000390: 77ab 693c 5e9b 07bd 30b6 91bd 2e12 95bd
000003a0: aea8 e23c 706e b33c 7687 4fbd ee15 06bd
000003b0: 3f7c 81bd 1c00 033d e3c3 fb3c 132c b0bb
000003c0: c64c 243d 8740 ff3b 1f0b 4ebd aecb 113c
000003d0: 60dc d6bb 8d6a c63c 7a24 243d a4fc 6ebd
000003e0: 1b8a 81bd baec d8bc e530 0cbd f794 abbd
000003f0: 0b66 9dbc fb35 95bd 941f 38bd 537b 7ebd

conv.12.bias f4 [32]
-0.0148202125 -0.06315197 -0.035522986 -0.09351148 0.015886517 0.027519003 0.016755005 -0.05578641
-0.0392322 -0.07709497 -0.04555011 -0.046614222 -0.034245808 -0.025222477 0.016948627 -0.012168077
-0.022829492 0.08286825 0.020689702 -0.05073594 0.023701066 0.09691326 -0.021573888 0.019412067
-0.0052831965 -0.0014142784 -0.033067156 0.0027334774 -0.07204498 -0.006494298 -0.06295575 -0.0020558408
00000000: 7ad0 72bc d255 81bd 8d80 11bd f282 bfbd
00000010: 7124 823c 886f e13c cb41 893c 4a80 64bd
00000020: f1b1 20bd f8e3 9dbd c192 3abd 8eee 3ebd
00000030: 5545 0cbd 5e9f cebc d9d7 8a3c 9d5c 47bc
00000040: ea04 bbbc d4b6 a93d 737d a93c 7dd0 4fbd
00000050: bd28 c23c 767a c63d b9bb b0bc 0e06 9f3c
00000060: aa1e adbb 4f5f b9ba 6d71 07bd 2424 333b
00000070: 528c 93bd 1fce d4bb f2ee 80bd 49bb 06bb

conv.13.weight f4 [32]
0.9791871 0.9978364 0.9784417 0.9655347 0.9817902 0.9684177 0.9769234 0.9715939
0.99590623 0.988524 0.9698629 0.9881818 0.98178107 0.9638689 0.9707901 0.9943326
1.0052488 1.032344 0.9907907 0.9830059 0.9793944 1.0182673 0.984057 0.98101366
0.9818137 0.9744812 1.0060062 0.9968611 0.98075676 0.99209136 0.9873809 0.9805647
00000000: 01ac 7a3f 3572 7f3f 287b 7a3f 482d 773f
00000010: 9a56 7b3f 39ea 773f a717 7a3f 61ba 783f
00000020: b6f3 7e3f e90f 7d3f ef48 783f 7cf9 7c3f
00000030: 0156 7b3f 1dc0 763f b385 783f 958c 7e3f
00000040: feab 803f d923 843f 76a4 7d3f 46a6 7b3f
00000050: 97b9 7a3f 9556 823f 29eb 7b3f b623 7b3f
00000060: 2558 7b3f 9a77 793f d0c4 803f 4a32 7f3f
00000070: e012 7b3f b3f9 7d3f ffc4 7c3f 4a06 7b3f

conv.13.bias f4 [32]
-0.008829427 -0.007946507 -0.00776547 -0.025570586 0.0036293098 -0.0099142715 -0.026317056 -0.016186193
0.013749606 -0.017321037 -0.0043823533 -0.0025754059 -0.016118646 -0.03388243 -0.024198027 0.046562124
0.03601514 0.040487926 0.0027724057 -0.003919124 -0.0030544368 0.04862172 0.013770695 -0.017667092
-0.0013499735 -0.030368468 0.01982708 0.011732054 -0.0181128 -0.009810285 -0.018265001 0.004816336
00000000: 4da9 10bc 1132 02bc 7c75 febb 6879 d1bc
00000010: b7d9 6d3b 786f 22bc de96 d7bc e898 84bc
00000020: 0746 613c d9e4 8dbc d899 8fbb 24c8 28bb
00000030: 400b 84bc 4ec8 0abd f13a c6bc edb7 3e3d
00000040: 9d84 133d abd6 253d 40b1 353b ff6b 80bb
00000050: f22c 48bb 9227 473d 7b9e 613c 94ba 90bc
00000060: 98f1 b0ba 4bc7 f8bc 676c a23c cd37 403c
00000070: 4b61 94bc 51bb 20bc 7ca0 95bc 5bd2 9d3b

conv.13.running_mean f4 [32]
0.08715669 -0.11905056 0.012680092 0.018501882 -0.08159147 -0.052602515 -0.34863734 0.12572989
-0.046647247 -0.13362356 0.0815797 -0.008878089 0.08546147 0.15534905 0.16166814 -0.00612821
-0.27622494 0.0089895595 -0.6098989 -0.30143625 0.34944716 -0.1116749 -0.20142062 0.17649774
-0.24657439 0.27866867 -0.17286272 -0.283049 -0.011922557 -0.13153215 -0.08058243 0.32328567
00000000: 357f b23d c8d0 f3bd 29c0 4f3c 4291 973c
00000010: 6e19 a7bd bc75 57bd 9880 b2be 56bf 003e
00000020: 2f11 3fbd 9dd4 08be 4213 a73d 6775 11bc
00000030: 6c06 af3d d213 1f3e 558c 253e 27cf c8bb
00000040: 5b6d 8dbe f248 133c 5622 1cbf da55 9abe
00000050: bdea b23e cfb5 e4bd 3541 4ebe d3bb 343e
00000060: ff7d 7cbe a9ad 8e3e ed02 31be cceb 90be
00000070: d456 43bc 5db0 06be 6708 a5bd b385 a53e

conv.13.running_var f4 [32]
0.2971383 0.25659466 0.20687166 0.19217579 0.30960646 0.19694987 0.51303285 0.27707133
0.32811686 0.23905998 0.32503173 0.25280824 0.39615336 0.3670637 0.25434825 0.5114903
0.34394988 0.34299308 0.28389224 0.18975045 0.20150223 0.35724813 0.51472306 0.19694954
0.326576 0.5550433 0.31955454 0.24465287 0.16761686 0.3275926 0.283493 0.2907188
00000000: 8322 983e 6060 833e 2ad6 533e bbc9 443e
00000010: bd84 9e3e 3aad 493e 1f56 033f 4bdc 8d3e
00000020: effe a73e 24cc 743e 8f6a a63e 1570 813e
00000030: 9dd4 ca3e c6ef bb3e ef39 823e 07f1 023f
00000040: 331a b03e ca9c af3e 535a 913e f14d 423e
00000050: 9a56 4e3e 3ae9 b63e e4c4 033f 24ad 493e
00000060: f834 a73e 5117 0e3f a79c a33e 4886 7a3e
00000070: c1a3 2b3e 38ba a73e ff25 913e 18d9 943e
